scripts/models/capture_10x_1,5x1m_16x16_model_no_quant.tflite (tflite, 4252 bytes, 7 tensors)

dense_43/bias f4 [5]
000000 64 b3 f6 be eb 6b 4a 3f c0 58 3b bf b8 a0 d5 be
       -0.4818374 0.7907092 -0.73182297 -0.4172418
000010 da 16 57 3f
       0.84019244

dense_42/bias f4 [16]
000000 23 e0 47 be 6d a8 56 3d 68 ae fa 3c 4f d0 f5 3e
       -0.19519095 0.052406717 0.030600742 0.4801049
000010 b7 07 0e 3e 0b b9 70 bd 90 08 f7 b9 9e 67 81 3d
       0.1387013 -0.05877022 -0.0004711789 0.063185915
000020 dc cc b8 bd ec 3c 28 3d d9 29 97 bd a6 c9 da 3e
       -0.09023449 0.041073725 -0.07381029 0.4273197
000030 d7 32 cc bd 45 0c f2 bd 22 bb 85 be 90 27 87 bc
       -0.099706344 -0.118187465 -0.26119334 -0.016498357

sequential_10/dense_40/MatMul f4 [6, 6]
000000 b3 85 c7 bf de 1a c6 bf ac 61 87 3f 49 bf 8d 3e
       -1.5587677 -1.5476949 1.0576682 0.27685001
000010 8b b9 2e 3f 15 b3 97 3f e8 8e 38 bf ea 41 04 3f
       0.68251866 1.1851526 -0.7209306 0.51663077
000020 9a a6 8a bf f2 35 cc be d1 8c 27 3f 7f be 0a 3d
       -1.0832093 -0.39884907 0.65449244 0.033873077
000030 55 63 48 bf 0a 7d d6 be fb 4f c8 bf 1b 5f 6f 3e
       -0.7827657 -0.41892272 -1.5649408 0.23376124
000040 1b e7 d4 3d 73 24 af 3d bb 28 f9 3f 14 15 73 bf
       0.10395642 0.08551874 1.9465555 -0.9495404
000050 bc 22 de 3f 62 fb ca be 25 62 76 3e 4a 80 0e 3f
       1.735435 -0.39644915 0.24060877 0.55664504
000060 bd 91 f0 3f d3 5e 8c be 44 b5 d0 bf f4 27 62 be
       1.8794476 -0.27416095 -1.6305318 -0.22085553
000070 e9 0f 1b 3f bc d4 2b 3e 9f 0b 96 bf 45 80 22 bf
       0.6057115 0.1678037 -1.1722296 -0.63476974
000080 33 11 03 bc 90 43 08 be c3 fe a4 3e 8e 2f 79 3f
       -0.007999706 -0.13307023 0.32225618 0.9733819

sequential_10/dense_41/MatMul f4 [16, 6]
000000 70 57 84 3e 7f 05 15 3f 31 98 da 3e 6c ec 90 3e
       0.2584796 0.5821151 0.42694238 0.28305376
000010 38 56 30 3f 15 0a db 3e 50 f2 fd 3e 56 ef 64 3d
       0.6888156 0.4278113 0.49598932 0.05589231
000020 c8 c5 34 3e 5a b1 d1 3e 16 86 a6 be 80 bb 28 be
       0.17653573 0.4095562 -0.32524174 -0.16477776
000030 c9 d1 8f 3d 1a 6a b5 3e 8b 8c 51 be b0 fb 8f 3e
       0.07022435 0.35432512 -0.20463769 0.2812171
000040 9f ac 5b 3d c7 73 f0 3d 5d d2 35 3f 41 5b e5 3e
       0.05363142 0.11740833 0.71024114 0.44796184
000050 6e 1b 83 3e 62 9a 12 be a2 56 91 3e 2a 7a ba 3e
       0.25606865 -0.14316705 0.28386408 0.3642133
000060 02 6e 73 be 1c d0 d1 3e e9 24 fd bd 32 8c a0 3e
       -0.23772433 0.40979087 -0.12360556 0.3135696
000070 2c 4c 04 bf a9 c6 a3 be d3 48 3c 3f 43 fd c4 3d
       -0.5167873 -0.31987503 0.7354862 0.09618618
000080 aa fe b8 3e 74 5c f2 be 40 0e ba be c2 76 99 3e
       0.36131793 -0.4733616 -0.36338997 0.29973418
000090 e5 73 16 bf 59 a1 38 be 15 73 d4 be 30 9a bc 3e
       -0.5877059 -0.18030299 -0.4149405 0.36836386
0000a0 ab 3d 8c 3f db a0 f6 3c 6f 68 97 3e d9 4f 25 bf
       1.095632 0.030105999 0.29571864 -0.6457496
0000b0 26 c0 b5 be a0 b7 26 be b3 61 ba 3d 6c 14 ab 3d
       -0.3549816 -0.16280985 0.09100666 0.083535045
0000c0 47 e9 fc be bb 5e cb 3d c9 1c f3 be fe 47 2c 3f
       -0.49396726 0.09930178 -0.474829 0.6729735
0000d0 fb d3 75 be 02 7f f3 3e d8 dd f7 be a4 5d 02 3f
       -0.24006645 0.47557837 -0.4841144 0.50924134
0000e0 fa df a1 3e 60 35 26 be 56 07 8f be 32 52 13 3c
       0.31616193 -0.16231298 -0.27935284 0.008991765
0000f0 a5 91 07 3f fb 1b 02 3e 3b 58 f4 bb ab c0 c8 be
       0.5295661 0.12705986 -0.007456807 -0.39209494
000100 b8 b0 8b bf bf 86 18 3f 13 01 22 3f 8c 35 db 3d
       -1.0913305 0.59580606 0.6328289 0.10703573
000110 51 74 91 3e 32 40 5e be bc 4a 7e 3e 1d a7 f2 3e
       0.28409055 -0.21704176 0.24833196 0.47393122
000120 ce 5d 56 be e4 8d f8 3e 30 f4 34 3f 45 75 c4 bf
       -0.20934221 0.48545754 0.706851 -1.5348288
000130 d2 18 fb 3e 32 e2 59 3e be 55 08 be 2f ea b9 3e
       0.49042374 0.21277693 -0.13313958 0.3631148
000140 80 3c 3a be 7d 75 ae bd 55 1d 53 3e 14 0f d9 3e
       -0.18187141 -0.08518503 0.20616658 0.42394316
000150 f9 ed 68 be f1 9b 00 3f b4 91 00 3e 19 3f 92 3e
       -0.2274703 0.5023795 0.12555581 0.28563765
000160 d5 f0 d0 3c 22 df 28 bd 95 01 d2 be b7 d9 95 be
       0.025505463 -0.04122842 -0.41016832 -0.29267666
000170 b3 ae e2 3e a4 0c 2e 3f 44 ef 50 3f 7d be 18 bf
       0.4427391 0.6798804 0.8161509 -0.5966566

sequential_10/dense_42/MatMul f4 [16, 16]
000000 62 65 f0 bd 24 fb 4a 3e 03 f1 cb be 19 6f ea 3d
       -0.11738087 0.19822365 -0.39832315 0.114469714
000010 ec 22 89 be 45 55 e1 3c 74 b4 3f be 91 81 98 bd
       -0.26784456 0.02750648 -0.18721181 -0.07446588
000020 a9 c8 09 3e 36 4f a3 be 64 3d b2 3e 4a ff 51 be
       0.13455452 -0.3189637 0.34812462 -0.20507541
000030 aa 01 27 3c 2a 09 8b 3e 09 9a 72 3d bb 5b 46 3e
       0.010193268 0.2715543 0.05922893 0.1937093
000040 b4 13 73 3d 21 ea d8 3b d5 3b a5 be bf 06 1f 3e
       0.059344962 0.006619707 -0.3227221 0.15529917
000050 b0 94 c3 be 66 f1 c0 be 50 46 51 be 51 ab 8e 3e
       -0.38199377 -0.37684172 -0.20436978 0.2786508
000060 84 2c d5 bc f4 21 70 3e 18 87 ad 3e 79 a0 de 3d
       -0.026022203 0.23450452 0.3389213 0.108704515
000070 9d 4b 28 3f 78 ba 00 3f c3 50 03 3d f5 03 35 3e
       0.65740377 0.5028453 0.032059442 0.1767729
000080 6c 69 87 3e 67 1c 88 be 0b 97 c6 bc 18 a1 43 3e
       0.26447618 -0.2658417 -0.024241945 0.19104421
000090 05 d9 e3 3e 70 0b bb be a6 e5 60 3e 45 0a a7 be
       0.4450151 -0.36532164 0.21962604 -0.32625023
0000a0 9e 9a 64 be 58 43 8c 3d bb c5 d3 3d b8 6c e2 3c
       -0.22324607 0.06848782 0.103404485 0.027639732
0000b0 fb 9a d5 be d0 a6 87 3e c7 46 6b 3e 50 36 4a 3d
       -0.41719803 0.26494455 0.22976218 0.049368203
0000c0 59 81 ff 3e 53 fa b6 be 74 ce d5 bd 41 d7 5f 3d
       0.49903372 -0.35737857 -0.104397684 0.05464864
0000d0 f7 78 d6 be 07 dd 81 be 93 36 3b bd e1 89 87 bd
       -0.41889164 -0.25363943 -0.045706343 -0.06618095
0000e0 8d 57 85 be 32 01 4d be 02 b5 45 bf 81 ce 72 3e
       -0.26043358 -0.20019987 -0.7722932 0.23711587
0000f0 ab 65 19 3f 60 50 be 3e 2d 1d cb 3e c6 9a d7 be
       0.5992076 0.37170696 0.39670697 -0.4211027
000100 6a ad 67 3e fe b9 f4 be 0f c9 d5 be af 54 11 3f
       0.22624746 -0.4779815 -0.41754958 0.5676984
000110 6d 68 df be 0f e1 f9 3e 7e dc ff 3e 53 01 23 3e
       -0.43634358 0.4880452 0.4997291 0.15918474
000120 05 18 9f bd ac f2 00 3e fc c7 a5 bd ee 86 a4 3e
       -0.07768253 0.12592572 -0.080947846 0.32134193
000130 bc 5a 99 bf d2 3b 04 3e ea 6f 2d 3e 44 f5 52 3e
       -1.1980815 0.12913445 0.16937223 0.20601374
000140 60 e2 68 be 36 5e ac be 4a 76 17 3e db b4 34 bd
       -0.22742605 -0.33665627 0.14791217 -0.04411779
000150 39 16 27 3c b9 31 39 be ae 8b 3e be b4 8d d3 be
       0.010198169 -0.18085374 -0.18607971 -0.41319048
000160 f2 56 b1 be 2e 7f 11 bd c1 ec d3 be f5 62 bb be
       -0.34636647 -0.03552168 -0.41391566 -0.36598936
000170 21 0a 14 3e d5 70 f4 3d eb cc d1 be 50 28 bb 3c
       0.14456989 0.119355835 -0.40976653 0.022846371
000180 6a 6c 30 3e e7 63 70 3e bb 4c c4 be 61 e6 48 be
       0.17228857 0.2347561 -0.3833979 -0.19619133
000190 4f 5d 66 3d dc 4b 21 bd f2 fb 9c be 43 bf 98 bd
       0.05624133 -0.039378986 -0.3066097 -0.07458355
0001a0 90 3a 7c 3e 82 60 c9 be 94 87 73 bd 16 c2 64 3d
       0.24631715 -0.39331442 -0.05945547 0.055849157
0001b0 8d d6 1a be c2 fb cf 3c 32 40 b7 3e 21 6c dc 3d
       -0.15120907 0.025388602 0.35791165 0.107628115
0001c0 b2 a5 ff 3d 99 7a 86 be ea 5e b2 3e b9 dc d3 bd
       0.12482776 -0.2626541 0.3483804 -0.10344834
0001d0 55 bf 5e bd e7 3f 71 be 82 08 29 be de c6 c5 bd
       -0.054381687 -0.23559533 -0.16507152 -0.096570715
0001e0 bb 2b 59 3e b1 62 19 be 99 78 41 3e 65 e4 dc be
       0.21208088 -0.14979054 0.1889366 -0.43143
0001f0 8a 76 4d bc fb ed 91 3d cf 27 17 3e e8 d4 68 be
       -0.012540469 0.07125469 0.1476128 -0.22737467
000200 34 ab d0 be 82 3f 82 3e 3e 87 a3 be 3b dc 14 be
       -0.40755618 0.25439078 -0.3193912 -0.14537136
000210 8c 78 87 bd 0f 07 1f be 0c a3 3c 3e d1 21 61 be
       -0.06614789 -0.15530036 0.18421572 -0.21985556
000220 eb a6 d7 be 57 64 06 be 51 06 d2 3e 8d 54 cd be
       -0.42119536 -0.13124214 0.41020444 -0.4010357
000230 f4 15 25 bd 05 46 fd 3d 72 bc 37 3d ea a2 3a 3e
       -0.04030414 0.12366871 0.04485745 0.1822621
000240 58 e5 27 bf d5 1c 2a be 87 53 63 be a6 be 54 be
       -0.65584326 -0.16612561 -0.22199832 -0.20775852
000250 c0 91 60 be f8 89 cb 3e 10 a2 f6 3e 5f 9a aa 3d
       -0.21930599 0.397537 0.4817052 0.08330225
000260 24 e5 be 3e 83 08 59 be df fc 3b 3f f5 63 32 3e
       0.37284195 -0.21194653 0.73432726 0.17420943
000270 4d 84 79 bd 4b f3 13 3e be 86 d9 be b3 5f 3f 3f
       -0.060917187 0.14448278 -0.42485613 0.747554
000280 f4 9b 04 bf 8c 0a 65 3e a2 52 a6 3e 71 2a d4 be
       -0.51800466 0.22367305 0.3248492 -0.4143863
000290 5b c9 7c bd 86 c1 79 3e b0 cf e1 3e 18 5e 9c be
       -0.061715465 0.2439023 0.44103765 -0.30540538
0002a0 7a 6a 28 3f 0d d1 af 3e a2 b1 0f 3f 64 40 97 be
       0.6578747 0.3433918 0.5613042 -0.29541314
0002b0 b2 ab 60 3f 90 d7 a5 bd 78 7d 8a 3e ee 0d 0b 3e
       0.87761986 -0.08097756 0.2704885 0.13579533
0002c0 f2 94 5f be 0e 41 f6 bd fe c6 9b 3e bb 62 cc 3e
       -0.21834162 -0.12024127 0.30425256 0.39919075
0002d0 09 3d c8 3e dc 54 3f 3e 77 36 f5 3e 8e 02 38 3f
       0.39109066 0.18684715 0.47893116 0.718789
0002e0 42 2a ba be 1b c2 8a 3d c2 4f ca 3d 4f 93 16 3f
       -0.36360365 0.06775304 0.09878494 0.58818525
0002f0 8e 73 f9 bd a5 35 b5 be 05 42 0a 3e 49 14 ce 3e
       -0.121802434 -0.3539249 0.13501747 0.4024985
000300 72 20 a5 bd 20 1d b0 3e b7 8d 8f be 16 3d db 3c
       -0.08062829 0.3439722 -0.28037807 0.026762526
000310 ee 18 8d be 8d 3a d9 be 0c 82 88 3c 99 a2 31 be
       -0.27558082 -0.42427483 0.016663574 -0.17347182
000320 c3 ba 82 be fd 7d ce 3e 6d 9d b2 be 20 df 19 3e
       -0.25533113 0.40330496 -0.3488573 0.15026522
000330 ec 64 00 be 58 e7 e4 3c 6a 8d 18 be 18 50 1f be
       -0.12538499 0.027942345 -0.14897695 -0.15557897
000340 d9 6f 1a be cc 02 b1 3e c5 5a a0 bd 63 62 ed be
       -0.15081729 0.34572446 -0.07829813 -0.46364126
000350 2b 97 8e be 5f 77 22 bf 6a 53 53 3f 53 24 9c be
       -0.27849707 -0.63463396 0.82549155 -0.30496463
000360 77 3a 88 3e 14 5a a2 3e ec b5 1f 3d 47 ac 3e bf
       0.26607105 0.3170935 0.038991854 -0.74481624
000370 0f aa 0b 3f 4d d4 d7 3d d6 a9 49 bd 2c 6d 41 3f
       0.54556364 0.1053854 -0.049234234 0.7555721
000380 f7 da cb be d7 4d c7 be c8 33 15 3e 2b 88 8d 3e
       -0.39815494 -0.38926575 0.14570534 0.2764295
000390 5a 3c 69 3d 66 e5 70 3d 42 46 8e be 45 3e 60 3e
       0.05694232 0.05881252 -0.27787977 0.21898754
0003a0 0c 3e 92 3e 25 0b d0 be f1 17 08 3f 2f 81 f8 bc
       0.28562963 -0.40633503 0.5316153 -0.030335037
0003b0 33 bf d6 3d 65 df 8b 3e 45 2c ec bd 4c 43 b1 be
       0.10485687 0.27318874 -0.11531881 -0.34621656
0003c0 44 1a bd be 41 d1 10 3e 8c a1 bf bd 08 d8 6f 3e
       -0.36934102 0.14142324 -0.093569845 0.23422253
0003d0 77 08 aa bd c9 2a f2 3d b3 57 4a be f6 47 b6 bd
       -0.08302396 0.11824567 -0.19760017 -0.08900444
0003e0 d8 31 b6 bd 2a 50 ca bd e6 75 0d 3e b9 f1 a1 be
       -0.08896226 -0.09878571 0.13814506 -0.31629732
0003f0 42 0f 8e bd 7d 41 4d 3e fd 11 c8 be 9c 67 05 be
       -0.06936504 0.20044513 -0.39076224 -0.13027805

sequential_10/dense_43/MatMul f4 [5, 16]
000000 97 7d d3 bd f0 1e 16 bf a1 ed 3c 3c 2e cb c3 be
       -0.10326689 -0.58640957 0.0115312645 -0.3824095
000010 37 ce 82 3d 0e 88 c6 bc 45 79 b5 be bd 9f c0 bd
       0.063869886 -0.024234798 -0.35444084 -0.09405468
000020 f5 c6 97 be ec 35 d6 be 57 ea d6 be 55 a1 09 be
       -0.2964398 -0.41838014 -0.41975662 -0.1344045
000030 e0 94 f3 3e 12 62 78 3e bd a5 9e 3e e4 2b f6 be
       0.4757452 0.24256161 0.30985823 -0.4808036
000040 2d 00 06 bf 41 30 4f 3d c2 f1 98 be 44 d7 2a bf
       -0.5234402 0.050583128 -0.29871947 -0.6673472
000050 ce 10 96 3f 54 cd 96 be c4 6d 99 3e ea dd d9 3e
       1.1723878 -0.29453528 0.29966557 0.4255212
000060 64 e2 af be 45 56 11 3f 2d 13 f5 3d 00 88 95 3f
       -0.3435241 0.5677226 0.11966548 1.1682129
000070 c0 36 48 3e ec 77 5f bd 42 bb 7d be 12 a1 9a be
       0.19552135 -0.054557726 -0.24778464 -0.30201012
000080 ef ce d6 3e cc 2e 08 bf 52 22 b9 3e c9 64 30 be
       0.41954753 -0.53196406 0.36158997 -0.17225946
000090 e8 b2 2a 3e 74 0d b3 be bc 8b d2 bc 0f 4d a1 3e
       0.1666981 -0.349712 -0.025701396 0.31504104
0000a0 b1 d6 6a be 81 44 3d bf c0 40 0e bf d1 a8 81 bf
       -0.22933461 -0.73932654 -0.5556755 -1.0129644
0000b0 f2 56 27 3e 50 6e f9 be 9d c2 51 3e 56 c7 e8 be
       0.16341761 -0.48716974 0.20484395 -0.4546458
0000c0 0f b2 2a bc c2 a3 07 3f 53 24 e9 bc 37 b6 f9 be
       -0.010418429 0.5298425 -0.028459704 -0.4877183
0000d0 4c 5d fa be 32 30 70 be 91 41 aa 3e a3 f9 32 bd
       -0.48899305 -0.23455885 0.33253148 -0.043695103
0000e0 5c 06 06 bf 82 b3 26 3f 2a c6 6e 3f 6d 61 a2 3e
       -0.52353454 0.6511766 0.93271124 0.31714955
0000f0 97 10 d6 be 72 42 3a 3f 24 6d 2e 3e 05 46 8d 3d
       -0.41809532 0.7275764 0.17033821 0.06898121
000100 dc aa da bd d8 bf f9 3e ab a5 05 bf 3a d8 50 3f
       -0.1067712 0.48779178 -0.52205914 0.81579936
000110 b0 79 fa 3d 12 a3 44 3e 3e 59 90 be 69 9f 88 be
       0.12230241 0.19202831 -0.28193086 -0.2668412
000120 7f ac c6 3d 10 a4 04 bf 1f 6e 3f bf c1 47 3d 3f
       0.0970087 -0.5181284 -0.74777406 0.7393761
000130 0b d6 42 3e 71 a1 a8 bf 02 23 de be 05 64 e3 3e
       0.19026963 -1.3174268 -0.43386084 0.44412246

sequential_10/dense_41/MatMul;sequential_10/dense_41/Relu;sequential_10/dense_41/BiasAdd f4 [16]
000000 74 b6 c0 3e a3 e9 6e bf ae 2a 52 be 88 d8 1d 3f
       0.376392 -0.9332525 -0.20524094 0.61658525
000010 04 b5 c4 be ca 20 09 3f d3 d2 d9 bc f9 50 d6 be
       -0.38419354 0.5356566 -0.026589787 -0.41858652
000020 8f 9e cc be b7 e6 40 3f 86 c6 bd bc 38 54 1d 3f
       -0.3996472 0.7535204 -0.023165952 0.6145663
000030 39 6e 35 40 33 54 00 3f 2d 62 ae 3e 52 01 e3 be
       2.8348525 0.5012848 0.34059277 -0.44336945
