scripts/models/capture_20x_1,5x1m_16x16_model_no_quant.tflite (tflite, 4236 bytes, 7 tensors)

dense_15/bias f4 [5]
-0.76604784 0.26713866 -0.722929 0.8042043 0.41763252
00000000: b61b 44bf 66c6 883e e011 39bf 55e0 4d3f
00000010: eed3 d53e

dense_14/bias f4 [16]
0.6522205 -0.18169521 -0.119239904 0.06529452 0.17188491 -0.1606539 -0.8059861 -0.20433386
0.39616245 0.2497154 -0.03937204 -0.041386355 0.6278171 0.14806712 -0.15113555 0.0895628
00000000: ecf7 263f 4f0e 3abe 0d34 f4bd 22b9 853d
00000010: 9902 303e 7582 24be 1b55 4ebf e53c 51be
00000020: ced5 ca3e 65b5 7f3e 9444 21bd bd84 29bd
00000030: 9fb8 203f e89e 173e 47c3 1abe b46c b73d

sequential_3/dense_12/MatMul f4 [6, 6]
1.1384159 -0.5908832 0.9249815 0.046443753 0.20493414 -0.6817634 0.7996811 1.1785114
-0.44426253 -0.05582167 -1.9146528 0.25593257 0.43982705 0.13280837 -0.22708192 -0.12791368
0.49117967 0.7327954 -0.45844942 -0.90544003 -1.3465229 0.35301474 1.1770592 0.502479
-0.22031596 -2.319933 2.6684961 0.23722315 -0.19507402 0.7619037 0.9430239 -2.0272372
-0.9296761 0.15791005 0.114482805 0.7891458
00000000: 9db7 913f 1f44 17bf 96cb 6c3f ce3b 3e3d
00000010: 41da 513e 0c88 2ebf e7b7 4c3f 76d9 963f
00000020: 6176 e3be 43a5 64bd 5813 f5bf 9809 833e
00000030: 0331 e13e ebfe 073e 2a88 68be cefb 02be
00000040: e77b fb3e 7b98 3b3f e2b9 eabe ebca 67bf
00000050: dd5a acbf 59be b43e e0a9 963f 77a2 003f
00000060: 829a 61be c879 14c0 a4c8 2a40 a0ea 723e
00000070: 7cc1 47be 1f0c 433f 046a 713f 41be 01c0
00000080: 41ff 6dbf 2cb3 213e f675 ea3d 7605 4a3f

sequential_3/dense_13/MatMul f4 [16, 6]
0.07837882 -0.36811233 -0.20253274 0.1999469 0.659656 0.61484754 0.105047494 0.43590125
0.13577944 -0.55999404 0.4325818 -0.2228645 -0.21782856 0.31686693 -0.5827218 0.01737739
0.1335823 -0.13437022 -0.2645436 0.66115654 0.32001746 -0.08975574 0.5443554 0.27477524
-0.10572211 0.09947557 0.004388765 0.09562395 0.07434399 0.5259531 0.04574726 0.024317162
0.19861981 -0.1623314 0.17658496 0.44539577 -0.22178979 0.19975396 -0.3614694 -0.21071821
-0.18263654 0.22747584 -0.5922153 0.7330025 0.0613494 -0.5417537 -1.0695263 -1.1975821
-0.38123637 0.5015917 -0.39229223 -0.20552213 0.20676738 0.5349478 -0.19496226 0.16393583
0.49298474 0.10497143 -0.0015465256 0.8597613 -0.23990348 -0.961958 0.53681165 0.30773813
0.030428864 0.21820164 -0.46771777 0.17102656 -0.15908857 0.023237444 0.06951608 0.3489842
1.0042037 0.25619262 0.26500702 -0.30152255 -0.5181214 0.6569472 -0.033136513 -0.22852062
0.28270906 0.34333494 0.5543331 -0.11199674 -0.5416772 0.3873462 0.2087119 0.67726034
-0.9156461 0.44500557 -0.4799064 -0.34983122 -0.07666297 0.18322049 -0.6683432 0.52413744
00000000: 1385 a03d 3879 bcbe be64 4fbe e1be 4c3e
00000010: 37df 283f a666 1d3f 2423 d73d 732e df3e
00000020: c409 0b3e c55b 0fbf 5d7b dd3e 9736 64be
00000030: 730e 5fbe 623c a23e 422d 15bf 075b 8e3c
00000040: ccc9 083e 5998 09be 4272 87be 8e41 293f
00000050: 54d9 a33e dbd1 b7bd e05a 0b3f 57af 8c3e
00000060: d584 d8bd d9b9 cb3d a1cf 8f3b 7dd6 c33d
00000070: a941 983d dda4 063f 7b61 3b3d c934 c73c
00000080: fe62 4b3e 343a 26be b0d2 343e ea0a e43e
00000090: dd1c 63be 4d8c 4c3e 8412 b9be 84c6 57be
000000a0: 1305 3bbe 6def 683e 6c9b 17bf 0da6 3b3f
000000b0: 8249 7b3d 5fb0 0abf 3de6 88bf 5f4a 99bf
000000c0: 6a31 c3be 5068 003f 87da c8be 6574 52be
000000d0: d4ba 533e 57f2 083f 30a4 47be cbde 273e
000000e0: 7f68 fc3e 43fb d63d cab4 caba 5119 5c3f
000000f0: 42a9 75be e142 76bf 7d6c 093f da8f 9d3e
00000100: f445 f93c 4070 5f3e b478 efbe 9621 2f3e
00000110: 1de8 22be 745c be3c 725e 8e3d 0fae b23e
00000120: bf89 803f ae2b 833e 00af 873e 2a61 9abe
00000130: 9ba3 04bf b12d 283f 27ba 07bd 4f01 6abe
00000140: 3ebf 903e 99c9 af3e c6e8 0d3f 8c5e e5bd
00000150: 5bab 0abf 3e52 c63e 93b8 553e ef60 2d3f
00000160: c867 6abf c5d7 e33e 4bb6 f5be 141d b3be
00000170: 7a01 9dbd 279e 3b3e 8a18 2bbf df2d 063f

sequential_3/dense_14/MatMul f4 [16, 16]
-0.661873 0.10799965 -0.16160497 0.030410577 0.3644291 -0.077827714 0.12522 -1.2958102
0.39179733 0.38328144 0.33645222 0.0014465067 -0.8724821 0.7496244 0.43286005 0.028332554
-0.3266359 -0.13247941 0.29122245 -0.38007545 0.2906049 0.1799102 0.38918725 0.22539644
0.16367963 0.01500495 0.08564589 -0.051565934 0.029785426 -0.1418036 0.5305741 0.20343618
0.25610697 -0.029177632 0.39884067 -0.39801937 -0.17888434 0.2065547 -0.3734544 -0.07492852
0.3874227 -0.1211471 0.07596103 0.30891278 0.1346036 -0.4172721 0.06677836 -0.07331843
0.36356223 -0.12057637 0.28096214 -0.09670575 -0.29731172 -0.28020087 0.30237553 -0.37089896
0.092911325 -0.41710132 0.4043788 0.35058492 -0.065897875 0.60092884 -0.60316616 0.16288716
0.049468275 -0.19347087 0.33487478 0.28373772 0.11219992 0.37793663 -0.4213868 0.26074156
0.2187755 -0.46881706 -0.24374208 -0.28209132 0.28304803 -0.26154724 -0.18878466 -0.42975798
-0.22960523 0.3112049 0.26902708 -0.23180914 -0.15440316 -0.020198306 -0.19131032 -0.300211
0.2664114 -0.37743863 -0.10494278 0.23199254 0.37515235 -0.29644454 0.37534866 0.30242467
0.40219998 0.7285806 0.22952019 0.21834548 -0.07569947 0.018714815 -0.039715696 -0.19701362
-0.33755386 0.29283133 -0.30986777 -0.21413687 0.14188638 0.034940314 0.07324491 0.07631049
-0.11542023 -0.3173516 -0.36129063 -0.33770272 0.110991776 0.2090432 -0.3233155 0.16136968
-0.22570023 0.1689998 -0.049366273 -0.5592528 -0.4300288 0.13765076 -0.33548638 0.3283583
0.12181257 0.37709665 0.3723622 0.4235313 -0.074592486 0.012393941 0.071849495 0.032504242
0.21269251 -0.19557373 0.67355734 0.2904184 0.3452553 0.47748992 -0.89449835 -0.3880505
-0.26633912 0.1442172 -0.14675973 0.3502389 0.29744396 0.02028626 0.23881891 0.9230397
0.5003131 -0.38082245 -0.47979513 -0.19456019 0.31097692 0.38009426 -0.21792588 -0.15461653
-0.23643617 -0.2959007 -0.22109306 0.24217859 0.42232007 -0.2863587 0.30228686 -0.4230838
0.34127304 0.3425834 0.16236776 0.18714772 0.24634953 -0.3899231 -0.42794082 0.1665043
-0.07984112 -0.24323249 -0.27187774 -0.12287106 0.111772515 0.054306433 -0.01530751 -0.015999172
-0.24627979 -0.088357456 -0.17094813 0.22165334 0.010862344 -0.028373443 0.013936014 0.3782752
0.29284942 0.33163232 -0.3737366 0.2175312 0.06581657 0.2490763 0.18235196 0.7959724
0.25865376 -0.26272747 -0.33964175 0.48415995 0.5346582 0.2832396 0.30800298 -0.14391267
-0.21228619 0.09424971 0.17952572 -0.16714947 0.035841152 -0.3093912 0.24827266 -0.4048526
-0.2478499 -0.21780404 -0.40884453 -0.25274175 0.25154153 -0.014139028 -0.025371872 -0.42298043
-0.13301219 -0.2888395 -0.07076962 -0.18811917 0.20406628 -0.36391768 0.11356571 0.022970915
0.35607198 0.0597919 0.18188962 0.2559516 0.14535847 -0.24680814 -0.23876382 0.21712819
0.30536908 0.30745983 0.11850559 -0.32379153 -0.28396225 -0.43556094 -0.36960208 0.1684041
-0.40660143 -0.42113104 -0.020181524 -0.3516689 -0.4074447 -0.3974031 -0.052580453 0.15623653
00000000: 8270 29bf ec2e dd3d c67b 25be 9a1f f93c
00000010: 7396 ba3e 2364 9fbd ac39 003e 1cdd a5bf
00000020: a999 c83e 773d c43e 7743 ac3e b698 bd3a
00000030: fd5a 5fbf 62e7 3f3f d59f dd3e ac19 e83c
00000040: d23c a7be afa8 07be 1c1b 953e 4099 c2be
00000050: 2aca 943e 613a 383e 8d43 c73e 53ce 663e
00000060: a29b 273e 52d7 753c 1d67 af3d cd36 53bd
00000070: 9100 f43c f734 11be b4d3 073f 9351 503e
00000080: 7420 833e ee05 efbc d834 cc3e 32c9 cbbe
00000090: 752d 37be 1383 533e 6a35 bfbe 2074 99bd
000000a0: 455c c63e f91b f8bd 7591 9b3d d129 9e3e
000000b0: 87d5 093e b0a4 d5be 18c3 883d f927 96bd
000000c0: d424 ba3e bef0 f6bd 45da 8f3e aa0d c6bd
000000d0: 3e39 98be 7d76 8fbe f7d0 9a3e 78e6 bdbe
000000e0: 4b48 be3d 4e8e d5be bd0a cf3e de7f b33e
000000f0: 77f5 86bd 79d6 193f 1969 1abf e4cb 263e
00000100: 3f9f 4a3d 3a1d 46be b574 ab3e 1246 913e
00000110: 12c9 e53d e980 c13e 03c0 d7be eb7f 853e
00000120: af06 603e ca08 f0be 8697 79be 466e 90be
00000130: aceb 903e 85e9 85be c450 41be 3d09 dcbe
00000140: a21d 6bbe 4056 9f3e ebbd 893e 605f 6dbe
00000150: dd1b 1ebe eb76 a5bc dae6 43be 42b5 99be
00000160: 1367 883e a33f c1be 3eec d6bd 748f 6d3e
00000170: f813 c03e 94c7 97be b32d c03e 68d7 9a3e
00000180: 28ed cd3e 4284 3a3f 5707 6b3e f595 5f3e
00000190: 5308 9bbd d04f 993c edac 22bd f0bd 49be
000001a0: dcd3 acbe fded 953e fda6 9ebe b246 5bbe
000001b0: aa4a 113e 931d 0f3d 6d01 963d ad48 9c3d
000001c0: 7161 ecbd e97b a2be 16fb b8be 5fe7 acbe
000001d0: a84f e33d 6c0f 563e 9c89 a5be 183e 253e
000001e0: f61d 67be 490e 2d3e 4a34 4abd 312b 0fbf
000001f0: bc2c dcbe 52f4 0c3e dfc4 abbe 941e a83e
00000200: de78 f93d d012 c13e 42a6 be3e 18d9 d83e
00000210: f2c3 98bd f50f 4b3c d425 933d 2b23 053d
00000220: 11cc 593e 7b44 48be 416e 2c3f b8b1 943e
00000230: 4dc5 b03e 8f79 f43e d8fd 64bf 8eae c6be
00000240: 9a5d 88be acad 133e 2f48 16be 8352 b33e
00000250: 934a 983e 5f2f a63c f28c 743e 544c 6c3f
00000260: 8514 003f 29fb c2be b5a7 f5be c93a 47be
00000270: 5e38 9f3e b79b c23e f627 5fbe cc53 1ebe
00000280: 531c 72be 4c80 97be 3866 62be aafd 773e
00000290: 563a d83e 9c9d 92be 58c5 9a3e 719e d8be
000002a0: 57bb ae3e 1767 af3e bc43 263e a7a3 3f3e
000002b0: 0d43 7c3e 00a4 c7be 0f1b dbbe 1a80 2a3e
000002c0: be83 a3bd f011 79be 8f33 8bbe d3a3 fbbd
000002d0: fde8 e43d 6c70 5e3d 5acc 7abc b210 83bc
000002e0: c530 7cbe c1f4 b4bd 070d 2fbe 18f9 623e
000002f0: f9f7 313c 6c6f e8bc e153 643c 49ad c13e
00000300: 5cf0 953e b6cb a93e 675a bfbe 80c0 5e3e
00000310: d6ca 863d dc0d 7f3e 79ba 3a3e d9c4 4b3f
00000320: 446e 843e 3784 86be 86e5 adbe d0e3 f73e
00000330: 5cdf 083f c804 913e 91b2 9d3e d85d 13be
00000340: 8d61 59be fe05 c13d 97d5 373e 3b29 2bbe
00000350: 2cce 123d 8668 9ebe 303b 7e3e d748 cfbe
00000360: 5dcc 7dbe 0608 5fbe 1254 d1be 5e67 81be
00000370: 0dca 803e 62a7 67bc acd8 cfbc e490 d8be
00000380: 5934 08be c5e2 93be aaef 90bd 50a2 40be
00000390: c0f6 503e 6b53 babe 2495 e83d 802d bc3c
000003a0: 114f b63e 5ae8 743d 4641 3a3e 170c 833e
000003b0: dad8 143e 46bb 7cbe 817e 74be da56 5e3e
000003c0: 5659 9c3e 606b 9d3e 0fb3 f23d 01c8 a5be
000003d0: 8063 91be d801 dfbe 7c3c bdbe 2072 2c3e
000003e0: 102e d0be 7d9e d7be b953 a5bc f20d b4be
000003f0: 979c d0be 6b78 cbbe 9a5e 57bd 78fc 1f3e

sequential_3/dense_15/MatMul f4 [5, 16]
-0.64885044 0.17066541 -0.4549931 0.061688114 0.010931886 0.23887283 0.26719752 0.13720825
-0.14844699 -0.15204492 0.106846385 -0.04412639 -0.3989916 0.25946307 0.024928868 0.3852279
0.2798435 -0.24629888 -0.30206624 0.55349773 0.537854 -0.19101483 -0.8991149 -0.40022248
0.63095385 0.85619485 0.1034181 0.1594983 0.9162648 -0.3022837 -0.44126353 0.7529941
-1.0803486 0.33243915 -0.27535465 0.0071067903 -0.29155034 0.34639305 -0.19047232 0.4989883
-0.64965844 -0.3443522 0.022302294 -0.46892488 -1.271049 0.10390878 0.2031101 0.35085827
-0.8133731 0.5983039 -0.35463983 -0.043683678 -0.09641431 -0.4051473 0.5800082 0.18684182
-0.93794864 0.525764 -0.16069889 -0.18838023 1.2396969 0.50987875 -0.27550888 0.28946027
1.4874635 0.10786072 0.48321408 -0.5859179 -0.119416505 -0.50775206 0.2007711 -0.095987834
-0.25008884 -0.38857403 0.11631523 -0.22175662 0.03871972 -0.22038874 -0.41175798 -0.11191318
00000000: 101b 26bf eac2 2e3e dbf4 e8be adac 7c3d
00000010: a71b 333c 149b 743e 1dce 883e 5280 0c3e
00000020: 7d02 18be aab1 1bbe 47d2 da3d e0bd 34bd
00000030: a148 ccbe 58d8 843e a037 cc3c 973c c53e
00000040: a647 8f3e c635 7cbe 6da8 9abe 07b2 0d3f
00000050: cdb0 093f 6499 43be 652c 66bf f6e9 ccbe
00000060: 3186 213f 962f 5b3f decc d33d 8653 233e
00000070: 5490 6a3f eec4 9abe 4bed e1be 39c4 403f
00000080: dd48 8abf 7735 aa3e 49fb 8cbe 14e0 e83b
00000090: 1646 95be 6e5a b13e 2d0b 43be 657b ff3e
000000a0: 0450 26bf ee4e b0be 4db3 b63c ec16 f0be
000000b0: bcb1 a2bf 20ce d43d 18fc 4f3e b2a3 b33e
000000c0: 3839 50bf 722a 193f 5a93 b5be a8ed 32bd
000000d0: de74 c5bd 786f cfbe 6b7b 143f 7653 3f3e
000000e0: 671d 70bf 7898 063f 408e 24be bfe6 40be
000000f0: 63ae 9e3f 6a87 023f 800f 8dbe 2334 943e
00000100: 3465 be3f 15e6 dc3d d667 f73e b7fe 15bf
00000110: a490 f4bd 0afc 01bf f096 4d3e 4595 c4bd
00000120: a50b 80be 2df3 c6be ae36 ee3d 2b14 63be
00000130: 9298 1e3d 96ad 61be f1d1 d2be bd32 e5bd

sequential_3/dense_13/MatMul;sequential_3/dense_13/Relu;sequential_3/dense_13/BiasAdd f4 [16]
-0.5560351 -0.31921092 -0.12049006 0.02137445 -0.08636638 0.07524769 0.20636676 0.16635825
0.33261275 -0.12521158 -0.06169605 -0.20238602 0.19038707 -0.15321518 1.3544023 0.3601534
00000000: 5158 0ebf 9d6f a3be 7ec3 f6bd 7819 af3c
00000010: dbe0 b0bd 761b 9a3d cf51 533e d159 2a3e
00000020: 384c aa3e 7737 00be ffb4 7cbd 483e 4fbe
00000030: d4f4 423e 71e4 1cbe 0e5d ad3f 0766 b83e
