scripts/models/capture_15x_1,5x1m_16x16_model_no_quant.tflite (tflite, 4252 bytes, 7 tensors)

dense_47/bias f4 [5]
0	0xbf23129f	-0.6370029
1	0x3f44da82	0.76895916
2	0xbf483c0d	-0.7821663
3	0x3f00c9ef	0.50308126
4	0x3e16a8f0	0.14712882

dense_46/bias f4 [16]
0	0xbddc2ad3	-0.107503556
1	0xbd146bb8	-0.03623554
2	0xbea8c958	-0.32966113
3	0xbe255160	-0.16144323
4	0x3e4b7360	0.19868231
5	0xbdabe830	-0.083938956
6	0x3f0aea3f	0.5426368
7	0x3e88339f	0.26601884
8	0x3ea1dc2e	0.31613296
9	0x3efa6983	0.48908624
10	0x3ec21e71	0.3791385
11	0x3ead2f8b	0.33825335
12	0xbdd6ae60	-0.10482478
13	0xbe800e64	-0.2501098
14	0xbe046434	-0.1292885
15	0x3d92b923	0.07164218

sequential_11/dense_44/MatMul f4 [6, 6]
0	0xbef7246a	-0.4826997
1	0x3dc52ece	0.09628068
2	0x3e1fdf15	0.15612443
3	0x3eb28216	0.34864873
4	0xbf2766f1	-0.6539145
5	0xbf8c1d9a	-1.0946534
6	0xbf00156c	-0.5003269
7	0x3f8fecc0	1.1244125
8	0x3f8c382e	1.0954645
9	0xbf2b5c2c	-0.6693752
10	0xbec0fd2b	-0.37693152
11	0x3eb00a99	0.34383085
12	0x3f1d3550	0.61409473
13	0x3e00278f	0.1251509
14	0xbf4c5e44	-0.7983134
15	0x3ec0b603	0.37638864
16	0x3ee2652b	0.4421781
17	0xbeab0926	-0.33405417
18	0xbefeafdd	-0.49743548
19	0x3ff867bf	1.9406661
20	0xbf7e74cc	-0.9939697
21	0x3e334fbf	0.1751089
22	0xbebfce8c	-0.3746227
23	0xbf254e1c	-0.6457231
24	0xbea8b90f	-0.32953689
25	0x3f9f1049	1.2426845
26	0xc03e2ee1	-2.9716113
27	0x3e80197b	0.2501944
28	0x3e725712	0.23666027
29	0x3d5be54d	0.053685475
30	0xbfef71e1	-1.8706628
31	0xbfb30632	-1.3986266
32	0x3f68c22a	0.9092127
33	0xbdc2698c	-0.09492788
34	0x3fbb0c77	1.4613179
35	0x3f516c3e	0.8180579

sequential_11/dense_45/MatMul f4 [16, 6]
0	0x3e806486	0.25076693
1	0x3e9145be	0.28373522
2	0xbdf72955	-0.1206843
3	0x3ea50485	0.3223001
4	0x3eb0024c	0.34376752
5	0x3e9e680c	0.30938756
6	0x3e87a3aa	0.26492053
7	0x3ea727cf	0.3264756
8	0xbedda579	-0.43290308
9	0x3eda91a1	0.4268923
10	0x3df30aa9	0.11867268
11	0x3ef3b20e	0.47596782
12	0xbf0fb875	-0.56140834
13	0xbe37e415	-0.179581
14	0x3d206d9f	0.039167043
15	0xbe60e30c	-0.21961612
16	0xbe6997b2	-0.22811773
17	0x3f418be4	0.7560408
18	0xbec85024	-0.39123642
19	0xbf0dbc1b	-0.5536515
20	0xbe16b62d	-0.14717932
21	0xbf728574	-0.94734883
22	0xbf1ae3cd	-0.60503846
23	0xbf384133	-0.71974486
24	0x3eeb278f	0.45928618
25	0xbe8d765f	-0.27629372
26	0xbf13ab85	-0.57683593
27	0xbc95d823	-0.018291539
28	0xbb59b3fa	-0.0033218847
29	0xbe978584	-0.29594052
30	0xbe2f19c5	-0.17099674
31	0x3dc1c66b	0.09461673
32	0x3e858f79	0.26086023
33	0x3f58aa28	0.8463464
34	0x3f17957e	0.5921248
35	0xbf9d1e5e	-1.2274892
36	0xbeff7858	-0.49896502
37	0x3f27b4ba	0.6551014
38	0xbf0d7466	-0.55255735
39	0xbea214ce	-0.31656498
40	0xbd5cc324	-0.053897038
41	0x3ef31a6c	0.47481096
42	0x3f1312da	0.5745064
43	0x3e7ac58c	0.2448942
44	0xbf05edb4	-0.5231583
45	0x3e4efe39	0.20214166
46	0xbdf2883b	-0.1184239
47	0x3ed87726	0.42278403
48	0x3e89a50e	0.2688374
49	0x3e7f39dc	0.24924415
50	0xbf091970	-0.5355444
51	0xbef7a37e	-0.48366922
52	0xba6f49e1	-0.0009128135
53	0xbeb84a51	-0.359942
54	0xbdbbef66	-0.09176521
55	0x3f40a773	0.7525551
56	0xbf034547	-0.51277584
57	0x3eee2011	0.4650884
58	0x3eb92b8e	0.36166042
59	0xbee337ba	-0.44378453
60	0x3eacf73c	0.33782375
61	0x3ec3c446	0.38235682
62	0xbe22a57d	-0.15883441
63	0xbeab021d	-0.3340005
64	0x3ebd17c7	0.36932203
65	0xbef93950	-0.48676538
66	0x3eeb262a	0.45927554
67	0x3e8da6b2	0.2766624
68	0x3db28332	0.0871643
69	0x3e4862d4	0.1956895
70	0xbca5c0a2	-0.020233456
71	0xbec856dc	-0.39128768
72	0xbf18ec2e	-0.5973538
73	0x3f0111dc	0.50417876
74	0xbf354f6c	-0.70824313
75	0xbf237a7b	-0.63858765
76	0xbe49bd8c	-0.19701213
77	0x3ed30d6a	0.41221172
78	0xbecc702d	-0.39929333
79	0xbf35377e	-0.707878
80	0x3ed87d09	0.42282894
81	0x3e2bbf15	0.16772111
82	0x3faa80a7	1.3320512
83	0xbee72f66	-0.4515335
84	0xbf06bc61	-0.52631193
85	0x3ed90f2c	0.42394388
86	0xbd20fa85	-0.039301414
87	0x3ec3e0f7	0.38257572
88	0xbf34ece5	-0.7067397
89	0x3e2c493e	0.16824815
90	0xbdc60534	-0.09668961
91	0x3ebbcf86	0.36681765
92	0xbe339fe5	-0.17541464
93	0x3ec351b6	0.38148278
94	0x3eb10922	0.3457728
95	0x3de968f7	0.113969736

sequential_11/dense_46/MatMul f4 [16, 16]
0	0x3d3257c5	0.043540735
1	0x3e8858b0	0.26630163
2	0xbf26f360	-0.6521511
3	0xbe4f2f5c	-0.2023291
4	0x3cb96cff	0.022634981
5	0x3f342ddb	0.7038247
6	0x3cb7cc3a	0.02243625
7	0x3e8cd6f3	0.27507743
8	0xbd021b8d	-0.031764556
9	0x3dcd47d3	0.10023465
10	0xbea6915f	-0.32532784
11	0x3ee19df8	0.44065833
12	0xbe14bc9e	-0.14525077
13	0x3e1770c9	0.14789118
14	0x3ed1274d	0.40850297
15	0x3e852ff7	0.26013157
16	0x3e89dedd	0.26927844
17	0x3e2ad7b3	0.16683845
18	0xbe0a838b	-0.13526742
19	0xbde07501	-0.10959817
20	0xbeae5ab4	-0.34053576
21	0xbed9a824	-0.42511094
22	0xbee01504	-0.43766034
23	0x3d1fe731	0.03903884
24	0x3eb62d3b	0.35581383
25	0x3eb28215	0.3486487
26	0x3e37f56b	0.17964713
27	0x3e91bd71	0.28464845
28	0x3ecb8eff	0.39757535
29	0x3c412240	0.011787951
30	0x38f95d10	0.000118905795
31	0xbde6b220	-0.112644434
32	0xbe8ce743	-0.2752019
33	0x3e3139db	0.17307226
34	0xbef74e05	-0.48301712
35	0x3e6f6b6d	0.23380823
36	0x3e78c7e6	0.24295005
37	0xbb8907d3	-0.004181841
38	0xbb18f4f4	-0.0023339363
39	0xbe5e7ffb	-0.21728508
40	0x3eabbc70	0.33542204
41	0x3d31c2fa	0.043398835
42	0x3ed315ef	0.41227672
43	0x3edd4ecd	0.43224183
44	0x3d92aed3	0.07162251
45	0x3e2a7152	0.16644791
46	0x3c83c858	0.016086742
47	0x3dffd04a	0.124909
48	0x3e938dc8	0.28819108
49	0xbee98ad2	-0.45613724
50	0xbf28eefb	-0.65989655
51	0x3f0e8f30	0.55687237
52	0x3c537789	0.012906917
53	0x3f0319ba	0.5121113
54	0x3e696b32	0.22794798
55	0xbeeab5b3	-0.4584175
56	0x3d1779b5	0.036981303
57	0x3f3d3360	0.7390652
58	0x3e35dccc	0.17760009
59	0xbee2ad76	-0.44272965
60	0x3f03bb3e	0.51457584
61	0x3e6d96ce	0.23202059
62	0x3f0df777	0.55455726
63	0xbf0049b3	-0.50112456
64	0xbeb0ec42	-0.3455525
65	0xbe1afbf8	-0.15135181
66	0x3eea6149	0.45777348
67	0x3e6d926f	0.23200391
68	0xbe2d9bf9	-0.1695403
69	0x3e25bd98	0.16185606
70	0x3e090b55	0.13383229
71	0x3df0b807	0.117538504
72	0xbea4b93c	-0.32172573
73	0xbebd7140	-0.37000465
74	0xbd484620	-0.048895
75	0xbe5ba1ac	-0.21448392
76	0xbef7b3ac	-0.48379266
77	0xbe153b6a	-0.14573446
78	0x3ec03732	0.3754211
79	0x3e9983b7	0.29983303
80	0xbe942f76	-0.2894246
81	0x3e4670c4	0.19378954
82	0x3f0a8427	0.541079
83	0x3e2aca2b	0.16678683
84	0x3eaad7f8	0.33367896
85	0xbf3522ac	-0.7075603
86	0xbf1f76a3	-0.622904
87	0x3d8f950c	0.0701085
88	0xbda65b20	-0.081228495
89	0xbee221d0	-0.44166422
90	0xbcb24b42	-0.021764401
91	0x3ece27bf	0.402647
92	0xbef1ff3c	-0.4726504
93	0xbf007530	-0.50178814
94	0x3ede12ed	0.43373814
95	0xbe98e2b8	-0.29860473
96	0x3ead4d7c	0.33848178
97	0xbe7663ba	-0.2406148
98	0x3ee6638a	0.44997817
99	0xbb3218e3	-0.0027175478
100	0xbde25b92	-0.11052622
101	0x3e6f7276	0.23383507
102	0xbec982b6	-0.39357537
103	0x3e61fd35	0.22069247
104	0x3ee0280d	0.43780556
105	0xbe2a1f80	-0.16613579
106	0xbd18b957	-0.03728613
107	0xbcd81b9b	-0.02638035
108	0x3e93c45a	0.28860742
109	0x3e79196b	0.24326102
110	0xbe8c8f92	-0.27453285
111	0xbea33456	-0.31875867
112	0xbe0c1bca	-0.13682476
113	0xbed26b89	-0.41097668
114	0x3f1b9027	0.60766834
115	0x3e0bc877	0.1365069
116	0xbe09518b	-0.13410012
117	0xbe99003b	-0.29882988
118	0xbecc4e4b	-0.39903483
119	0xbebcf1f6	-0.36903352
120	0x3cf264f1	0.029589148
121	0x3d8e218e	0.06939994
122	0x3e85d0f0	0.2613597
123	0x3e9c469b	0.30522618
124	0xbed8feaf	-0.42381808
125	0x3de4ddea	0.11175139
126	0xbd8b4547	-0.06800323
127	0x3e88639f	0.26638505
128	0xbe01efc9	-0.12689127
129	0x3e8bcfa9	0.2730687
130	0xbb58f964	-0.0033107633
131	0xbebb3dc0	-0.3657055
132	0xbe820844	-0.2539693
133	0xbe5d4c72	-0.21611193
134	0x3f0fbaae	0.56144226
135	0xbe346ef2	-0.17620447
136	0xbe97654a	-0.29569465
137	0x3e87aefc	0.2650069
138	0xbe2bcc29	-0.167771
139	0xbec70ff6	-0.38879365
140	0x3eddcf77	0.43322346
141	0x3f17283e	0.5904578
142	0x3e840a76	0.2578923
143	0xbedd6a70	-0.43245268
144	0x3b6adabf	0.003583595
145	0x3dfc1e7e	0.123105034
146	0x3e1a3d99	0.1506256
147	0x3f2f576a	0.6849276
148	0xbe9a098e	-0.30085415
149	0x3f091301	0.5354462
150	0x3de553f0	0.111976504
151	0x3ef46d88	0.47739816
152	0xbe68f2d8	-0.22748888
153	0xbe4a6b8d	-0.1976759
154	0x3ec8dc12	0.392304
155	0xbd4f36f4	-0.050589517
156	0xbdff7b4f	-0.12474691
157	0xbe25a986	-0.1617795
158	0x3df4068d	0.11915312
159	0x3f1e9ef0	0.6196127
160	0xbece6fc9	-0.4031966
161	0x3ecbe0ab	0.39819846
162	0x3e85a934	0.26105654
163	0xbf37116a	-0.71510947
164	0xbdcb17e5	-0.09916667
165	0xbd28ba04	-0.041193023
166	0x3ed49c6e	0.41525596
167	0xbf1a7bf9	-0.6034542
168	0x3e85a6cb	0.26103815
169	0x3e24d2a4	0.16095978
170	0x3e8e44e2	0.27786928
171	0xbe9941aa	-0.2993291
172	0x3df3a936	0.11897509
173	0x3f0fc2c8	0.5615659
174	0xbea53fb9	-0.3227518
175	0x3dee4d42	0.116358295
176	0xbe8dd143	-0.27698717
177	0x3d29339b	0.04130898
178	0x3d7827e2	0.06058491
179	0xbc56a50e	-0.013100876
180	0xbe8daf64	-0.27672875
181	0x3f28b3ca	0.65899336
182	0x3f04b88b	0.5184409
183	0xbe630f27	-0.22173749
184	0xbe28c43d	-0.16481109
185	0x3ed0fb35	0.40816656
186	0xbe151c9a	-0.14561692
187	0xbcdd1f1e	-0.026992377
188	0x3eb9d43b	0.36294731
189	0x3eb083f2	0.34475666
190	0xbdfdff9e	-0.12402271
191	0xbe904c34	-0.28183138
192	0xbe8dd54f	-0.27701804
193	0x3de107d0	0.10987818
194	0xbe23853f	-0.15968798
195	0x3e2e396c	0.17014092
196	0xbecbe265	-0.39821163
197	0xbed37f87	-0.41308233
198	0xbe34ee16	-0.17668948
199	0xbabbc15b	-0.0014324592
200	0xbe9b47e8	-0.30328298
201	0xbccd65f5	-0.025073031
202	0x3d4a31c7	0.049363878
203	0xbe348ff8	-0.17633045
204	0xbee21740	-0.44158363
205	0x3eefb0cb	0.4681457
206	0x3ef159a3	0.471387
207	0x3e6e01f0	0.23242927
208	0x3ebb9489	0.3663676
209	0xbe5adcff	-0.21373366
210	0xbce56a54	-0.028004803
211	0xbeab3ea8	-0.3344624
212	0x3d864093	0.06555285
213	0x3d860616	0.065441296
214	0xbd64a747	-0.05582359
215	0xbdae6c7e	-0.08516787
216	0xbd5d01aa	-0.053956665
217	0xbb81b96e	-0.0039588725
218	0x3ea89744	0.32927907
219	0x3e1e8314	0.1547969
220	0x3d91354c	0.07090244
221	0xbeb3c5b9	-0.35111788
222	0x3b826894	0.003979752
223	0xbdab86ba	-0.083753064
224	0x3dfb429f	0.12268566
225	0xbe3b331a	-0.18281212
226	0xbf339e0b	-0.7016303
227	0xbe5526b0	-0.2081554
228	0xbeb51d8b	-0.35374102
229	0x3f311838	0.6917758
230	0x3e86e84d	0.26349106
231	0xbe9ae5b9	-0.3025339
232	0xbec8d5bc	-0.39225566
233	0xbe93dc22	-0.28878886
234	0x3e1cd234	0.15314561
235	0x3e244f4b	0.16045873
236	0xbe6ae1b9	-0.22937669
237	0x3d4b7e71	0.04968113
238	0xbd84cca8	-0.064843476
239	0xbe1ea4f4	-0.15492612
240	0x3e587630	0.21138835
241	0xbe3d9d3f	-0.18517016
242	0x3ee3419b	0.4438599
243	0xbf012d34	-0.504596
244	0xbd05ec50	-0.03269607
245	0xbeb2e0bd	-0.34937087
246	0xbd2bdff0	-0.04196161
247	0x3d112062	0.035431273
248	0xbeb90bb7	-0.3614175
249	0xbdd07d55	-0.10180155
250	0xbeb02b5b	-0.34408078
251	0x3e228705	0.15871818
252	0x3eee931c	0.4659661
253	0x3f47a795	0.77990085
254	0x3efbdb7a	0.49190885
255	0xbd31be2c	-0.043394253

sequential_11/dense_47/MatMul f4 [5, 16]
0	0xbeaa5be3	-0.3327323
1	0x3de83446	0.11338095
2	0x3ebf35c4	0.37345707
3	0xbc869503	-0.016428476
4	0x3c64975c	0.0139521025
5	0xbe93e4e5	-0.2888557
6	0xbf040ba1	-0.51580244
7	0xbd988054	-0.07446352
8	0x3d5a75f2	0.053335138
9	0xbf2c9ecb	-0.674298
10	0xbef4c21d	-0.47804347
11	0xbf1930e0	-0.598402
12	0x3daec1ca	0.08533056
13	0x3ebfa4e7	0.37430498
14	0xbedb067d	-0.42778388
15	0x3efb2e61	0.49058822
16	0x3f30c06e	0.69043624
17	0xbeecb45c	-0.46231353
18	0xbdbc0588	-0.091807425
19	0x3dd51211	0.104038365
20	0x3e7cf6b1	0.2470348
21	0x3f36da24	0.71426606
22	0x3f232d18	0.6374068
23	0x3ede1564	0.43375695
24	0xbf0b3b7b	-0.54387635
25	0x3f4ec251	0.80765253
26	0xbec454b9	-0.38345888
27	0x3dc89c15	0.09795395
28	0xbe80851f	-0.25101563
29	0xbef3192f	-0.4748015
30	0x3f062718	0.524034
31	0xbeaa4c8b	-0.33261523
32	0x3e500408	0.20314038
33	0x3c8214fb	0.015879145
34	0xbdde736a	-0.10861857
35	0xbea68eeb	-0.32530913
36	0xbf5313ce	-0.82452095
37	0xbf0e022f	-0.5547208
38	0xbf800c86	-1.0003822
39	0xbf186697	-0.5953154
40	0xbdec9330	-0.11551511
41	0xbf25410b	-0.6455237
42	0xbe51fa9f	-0.2050576
43	0xbf606ba0	-0.8766422
44	0x3e9d2024	0.30688584
45	0x3ea892d0	0.3292451
46	0xbc6f2ce1	-0.014598102
47	0xbebf4268	-0.3735535
48	0x3e21f499	0.15815963
49	0xbe80591c	-0.25067985
50	0xbf188716	-0.59581125
51	0x3f687bc0	0.9081383
52	0xbf0b73fc	-0.54473853
53	0xbf028d26	-0.50996625
54	0x3ed33ff8	0.41259742
55	0xbf09a59b	-0.5376832
56	0x3e890a5f	0.26765725
57	0x3e1ac129	0.15112747
58	0xbe1003cc	-0.14063948
59	0x3f3e09c8	0.74233675
60	0x3e9ec022	0.3100596
61	0xbf018a81	-0.50601965
62	0x3ef88552	0.48539215
63	0xbd56fe48	-0.052488595
64	0xbf189e00	-0.5961609
65	0xbb4d6159	-0.0031338541
66	0xb9bc7f38	-0.0003595294
67	0xbf93362e	-1.1500909
68	0xbd1512aa	-0.036394753
69	0xbedf2b89	-0.43587902
70	0x3f072fee	0.5280751
71	0xbd0c5082	-0.034256466
72	0x3ec7aabc	0.38997447
73	0xbbe02d89	-0.0068413657
74	0x3f6ba0ea	0.9204241
75	0x3e1dbec7	0.15404807
76	0x3f0801d4	0.5312779
77	0xbe4be85a	-0.19912854
78	0xbf0a1a61	-0.539465
79	0x3f358cdc	0.7091806

sequential_11/dense_45/MatMul;sequential_11/dense_45/Relu;sequential_11/dense_45/BiasAdd f4 [16]
0	0xbbb11e35	-0.0054052123
1	0x3d6e7b64	0.058223143
2	0x3f029cb5	0.51020366
3	0xbd885bb7	-0.06658118
4	0xbc5a7afd	-0.013334987
5	0xbdc8488b	-0.097794615
6	0xbd45b563	-0.048268687
7	0x3eb9f690	0.36320925
8	0x3dd1fe89	0.10253627
9	0x3f007e0f	0.5019235
10	0x3d0ec8da	0.034859516
11	0xbe7b3c2c	-0.24534672
12	0xbe27eac4	-0.1639815
13	0xbf0b6b78	-0.5446086
14	0x3e8ca5f9	0.27470377
15	0xbedc6ada	-0.4305027
