scripts/models/capture_40x_1,5x1m_48x48_model_no_quant.tflite (tflite, 14092 bytes, 7 tensors)

dense_20/bias f4 [5]
00000000: 3923 dabe 4c7c 373f 8bff 6bbf e22e a73d
00000010: 23af 0c3f
-0.42604998 0.71674037 -0.921868 0.08163239 0.5495474

dense_19/bias f4 [48]
00000000: 4719 e6bd 1dae 80bd 7410 923c 0111 0bbe
00000010: 0000 0000 0509 c8bd 562b a43c 9eab 673e
00000020: 5e3c 83be 9ace 46be ac63 773d e8ba 6d3c
00000030: 04a0 bfbd 2aa2 e93e 0c68 babd 7b19 00be
00000040: e572 813c 9bda 463e 9019 f2bd 7e02 503e
00000050: ae9f c13c 81b4 823e d660 d43c 39d3 fabd
00000060: d0f2 e83d 6afc b2bd 0f6c a53e 04f0 c63e
00000070: 87d2 2f3c 6421 bf3c f863 2cbe 50dd a5bc
00000080: 27dd 0fbe 6720 8f3a ebd7 553e da27 de3c
00000090: 4318 b8ba e193 01be 28e3 90bd 953a 3c3e
000000a0: c756 853e d948 a2bd 7836 0abd db3a 573d
000000b0: 3188 a0bc fcd3 d43e efff ccbd 2353 a63d
-0.1123529 -0.062832095 0.017830111 -0.13580705 0.0 -0.09767345 0.020040195 0.2262406
-0.25631994 -0.1941475 0.06039779 0.014509894 -0.093566924 0.45631534 -0.091018766 -0.1250972
0.015801856 0.19419329 -0.11821282 0.2031345 0.023635712 0.2552834 0.025925081 -0.12247319
0.11374438 -0.087395504 0.32309005 0.38854992 0.010731346 0.023331352 -0.1683501 -0.020247132
-0.14049207 0.0010919691 0.20883147 0.027118612 -0.0014045316 -0.12654068 -0.070745766 0.18381722
0.26042768 -0.07924051 -0.03374335 0.052546363 -0.019596191 0.4156798 -0.10009753 0.08121326

sequential_5/dense_17/MatMul f4 [6, 6]
00000000: 13d4 823d 27fe ae3f 4f7e 3c3f c639 c9be
00000010: f630 27c0 285c 893f b05c 523e b0d1 ed3f
00000020: db65 04c0 1c30 83bf 30ff 30bf 11b8 21bf
00000030: 968f 0dbd 65d1 1bc0 13a7 31bf ce8b 4b3f
00000040: 9937 9fbf 0afe ce3f 9ff0 b03e 874c b3bf
00000050: 4c31 aebe ae90 babf 5dc0 dd3e 2c2a f93f
00000060: e35e 7abf 4278 603f a8f2 13be 657f 633e
00000070: 2f08 ae3f 4f45 e43f ebfd 7d3e fded 27c0
00000080: fe77 863f 7103 483e 6471 98bf 7055 4ebf
0.06388106 1.3671311 0.7363023 -0.3930189 -2.6123633 1.0731249 0.2054317 1.8579617
-2.0687168 -1.0249057 -0.69139385 -0.6317149 -0.034560762 -2.4346554 -0.6939556 0.795102
-1.2438842 1.6171277 0.3455858 -1.4007729 -0.34021986 -1.4575403 0.43310824 1.9465995
-0.97801036 0.876835 -0.14448035 0.22216566 1.3596247 1.7833651 0.24803893 -2.6239007
1.0505369 0.19532563 -1.1909604 -0.8059912

sequential_5/dense_18/MatMul f4 [48, 6]
00000000: 91a2 0e3d 66b8 833e 4c4a 3e3e 0095 8a3e
00000010: 839b 3abe 505f 5e3d 7807 b53e 3aaa 8fbe
00000020: ce9c 5ebe 64bf 4b3f 5617 eb3d 9865 173d
00000030: 947c e13e 3104 fe3c d0a1 d73e ae79 aa3e
00000040: 64e1 01bf b82e 40bb 0904 533e f434 99be
00000050: 4be3 073f 4b0c 8dbd 2642 21be 6b07 773e
00000060: 3643 6b3d 6d9d 273e fcf9 e23e aac4 863f
00000070: f5ca ef3e db87 973d 743a debe 8b87 b2bd
00000080: 8091 87be 907f c03d 6189 c83d 83b4 9abd
00000090: 1baf 9a3e f3e9 603d 41db 883f d834 bf3e
000000a0: 3ff5 7dbe 829a 473f 3928 1fbf 9fbb 81be
000000b0: 12c2 c9be 5703 393e da4d a83e 4e78 dabd
000000c0: c92f 8f3e fd0c 7d3e 2f95 fdbd 5d54 323e
000000d0: c8bd 213e d830 9e3b f9a0 283e 38ac 963c
000000e0: a201 393f fb4b 883f 7dec 193e 0883 b3be
000000f0: 6756 003f beef b83e 2419 42bf 4dc7 58bf
00000100: 0047 ea3d 98dc b0be 5f6d 07bc 9a21 d13e
00000110: 9cd7 bdbe e85f 923f 0bef 1abf a555 033f
00000120: 57d0 3a3f 59f6 ea3e dfe5 f3be 931f f6bd
00000130: bd43 aa3e 789a 7ebf ea58 c9be c4ba fe3e
00000140: ab36 7e3d 984b f7bd 9628 64be 92ce e0bd
00000150: eae8 a6be 9801 7abc 77d7 33bf 4fa9 ecbe
00000160: 7a7b 8ebd 2f2f febd de9b 9c3e 1fa0 c53e
00000170: 4f8f 043e 6e5a 26bb 970e 98be 6c45 853e
00000180: 18de 2abd c76a 1a3c e6eb f5bd 285f c83e
00000190: 92eb a63d 7857 5cbe 8421 3b3f f2e9 cc3e
000001a0: 9830 0d3f 82d7 cc3e 6891 133f 124e 30be
000001b0: 3750 e3bd 7c94 863e 2512 e4bd 3288 5ebe
000001c0: 4420 e3be 11dc b43d d52e b03e 8817 98be
000001d0: 3899 2d3f 7a07 dc3e 26e7 9b3e db07 b9bc
000001e0: 9c5d d6be 7d50 6cbe 6d53 373e de83 c93e
000001f0: 1d53 013f b4af 9bbe e67f 36bf 8711 fbbe
00000200: e488 f6bd 4a77 a73c d954 023e b8ca c9ba
00000210: 94b6 173e 0db2 f6bc 6862 9a3d 6e71 b93d
00000220: 2580 33be dbd7 d4be 6531 6cbe aefe 413e
00000230: d410 e2be f899 873e 4cb0 c03c 261c 05be
00000240: 751c 1dbf 4a62 2dbe 7771 efbe 663d 983d
00000250: 264b a03e bf0d a0bd 53d3 de3b 5450 a0be
00000260: 0912 be3d f537 1cbf 84de 5ebe c6f6 fe3e
00000270: e96a 113e 7346 54be 9e1f 3b3e 6201 88be
00000280: 572d 2abf 5baf a03e d234 2d3e 3146 153f
00000290: aa24 e6be b363 493f 7cdf dcbe 92cd bf3e
000002a0: 3b16 203e 116b 7f3e 63e3 edbe 3166 29be
000002b0: f1f8 ad3e efed 84be 1786 be3e c5cf 523e
000002c0: 8577 9d3e ef61 8abe c8f1 37be d00f e83e
000002d0: 52fe 20bf f11d 883f 05ca be3e 035a dcbe
000002e0: 3f4a 2cbe ea10 b2be 3fa0 03be bc16 bb3e
000002f0: 9882 36be ca45 003e 7c99 5ebe 5ae3 3abe
00000300: dfb5 b03d 6658 f4be 4ae1 2fbe 2a2e b4bd
00000310: 6216 cd3e 03c2 e9be 787d 1a3f a6cf 39bd
00000320: d096 c8bc 99f7 b23e f1d4 d1bd b825 f23d
00000330: 9b43 083c 175d 163e dbda 2abc c7f3 123d
00000340: 5036 603c b35f ad3d 495a 223f aec1 6ebe
00000350: e375 d73e 1963 2abe b913 783e 745f 58be
00000360: a820 25be 6883 9f3e a705 353e 03eb a7be
00000370: 31bc 6ebd 5dfd be3e 9b19 85bf ba20 463f
00000380: 7471 393f 0228 a63c 09af 223e 2928 68be
00000390: cc1c ad3d 9099 bf3d 3e98 9e3e ccc5 833e
000003a0: 3f31 edbc b9c3 da3d b717 dcbe b4ce 39bf
000003b0: b3dc c33e 860b 1c3d cea7 3d3e 2aa0 8b3e
000003c0: 4bea 54be b488 f63d 62a9 3bbe 066c e43e
000003d0: ee7b 9c3e 54f3 6d3e 61a6 15be b755 91be
000003e0: 3329 533e 1555 103e 44eb a93d 7c2b 74be
000003f0: 1a4f f83b f3e6 383e e194 9dbe f44e 1d3f
0.034823004 0.25726622 0.1858303 0.27066803 -0.18223386 0.054290116 0.3535726 -0.2805956
-0.21739504 0.79588914 0.1147906 0.03696212 0.44040358 0.031007858 0.4211564 0.3329596
-0.50734544 -0.0029324722 0.20607008 -0.29923213 0.53081197 -0.0688711 -0.1574789 0.24123923
0.057437144 0.16368647 0.44331348 1.0528767 0.4683453 0.07398959 -0.4340397 -0.08717259
-0.26478195 0.093993306 0.09791828 -0.07553961 0.3021172 0.05491061 1.0691911 0.37345004
-0.24800585 0.77970135 -0.6217075 -0.25338456 -0.39405876 0.1806768 0.32871896 -0.106674775
0.27966145 0.24711986 -0.1238197 0.17414995 0.15795052 0.0048276 0.16467656 0.018392667
0.72268116 1.0648187 0.1503162 -0.35060906 0.5013184 0.3612041 -0.7581961 -0.8467911
0.114393234 -0.345433 -0.008265822 0.40845948 -0.3707856 1.1435518 -0.60521 0.5130256
0.7297415 0.45891073 -0.47636315 -0.12017741 0.33254805 -0.9945445 -0.3932565 0.49751866
0.062063854 -0.12074965 -0.22281107 -0.109769 -0.32599574 -0.015259169 -0.7025065 -0.46222922
-0.06957145 -0.12411343 0.30587667 0.38598725 0.12945293 -0.002538349 -0.2969863 0.26029527
-0.04171571 0.009424872 -0.12007885 0.39135098 0.081504 -0.21517742 0.73098016 0.40022236
0.55152273 0.4000817 0.5764375 -0.17217281 -0.11099284 0.2628516 -0.11136273 -0.21731642
-0.44360554 0.08831037 0.3441073 -0.29705453 0.6781192 0.42974454 0.3044979 -0.022586754
-0.41868293 -0.23077579 0.17902918 0.3935842 0.50517446 -0.30407488 -0.7128891 -0.4903681
-0.120378286 0.020442624 0.1272768 -0.0015395498 0.14815742 -0.030114198 0.07538301 0.09054838
-0.17529352 -0.41570935 -0.23065718 0.18944809 -0.44153464 0.26484656 0.023521565 -0.12999019
-0.61371547 -0.16932026 -0.46766254 0.07433586 0.31307334 -0.07815122 0.006800094 -0.31311285
0.09280784 -0.61022884 -0.2176457 0.49797648 0.14200939 -0.20729999 0.1827378 -0.26563555
-0.66475433 0.31383786 0.1691468 0.5831023 -0.44949847 0.78667754 -0.43139255 0.37461525
0.1563348 0.24943186 -0.46462545 -0.16542889 0.3397899 -0.2596278 0.37211677 0.2058707
0.3075525 -0.27027842 -0.17963326 0.45324564 -0.6288806 1.0634137 0.37263504 -0.43037423
-0.16825198 -0.3477853 -0.12854098 0.36540782 -0.17823255 0.12526622 -0.21738237 -0.1825079
0.08628439 -0.47723693 -0.17175785 -0.087978676 0.4005614 -0.45655832 0.603477 -0.045364045
-0.024485976 0.34954527 -0.102456935 0.118236005 0.0083169 0.14683948 -0.010428156 0.035877015
0.013684824 0.08465519 0.63419014 -0.2331607 0.42082128 -0.16639365 0.24226274 -0.21130162
-0.16125739 0.31154943 0.17677937 -0.32796487 -0.058284942 0.37302676 -1.0398439 0.77393687
0.7243874 0.02028275 0.15887083 -0.2267157 0.08452758 0.093554616 0.30975527 0.25736845
-0.028954146 0.106818624 -0.42986843 -0.7258103 0.38254318 0.038096927 0.18521044 0.27270633
-0.207925 0.12037793 -0.18326333 0.44613665 0.305633 0.23237354 -0.1461425 -0.28385708
0.20621185 0.14094956 0.082968265 -0.23844713 0.007577789 0.1805685 -0.30777648 0.614486

sequential_5/dense_19/MatMul f4 [48, 48]
00000000: f4c7 71bd 5913 1dbd 15a2 8ebd 9fcb d0bd
00000010: b862 f73c 4df6 0ebd 6d49 3cbb 3d87 b13c
00000020: 4bd3 9cbd 4cd8 77be 0e72 3bbe 095d a63d
00000030: 38ce 0abe 7201 733e 2ea8 823d 77c0 c03d
00000040: f82b 8b3d 4a03 143e 5625 96bd df04 83bd
00000050: e6b0 173e 299d 04be 1811 8b3c bb58 76be
00000060: d358 46be c12b 663d 87a0 81be 7b22 303e
00000070: 4780 eebd e838 d33d 53c6 2cbe bb0e 483e
00000080: e48c 12be 7184 a7bd c41b 1ebe 8a44 b4bd
00000090: fd11 393c 0026 a9bd 6a1a 3cbd ddfd ddbb
000000a0: dd3a 443a 1710 213e b019 1bbc a52d ec3d
000000b0: ce2c 6d3d 24b1 423e 8eed bcbd 2072 c1bb
000000c0: 65c2 58bd 123f 933d da9a 313e 9881 d03c
000000d0: e52c 173e 2832 4d3e d4d6 483e a4ff 4e3e
000000e0: d237 3e3e d992 ddbd 13fb 93bd 1c1b a53d
000000f0: 14cb 65be b56a 2fbd 432c 83be 76e7 5e3c
00000100: a9b6 783d 22c9 31bd 19fd 0d3e ec58 26be
00000110: d97b 003e 5491 58bd fb1d 93bd fffd d73d
00000120: 6c4f 6abe 3bcf 27be 3aa1 283b 27fb 2a3e
00000130: 8547 0c3e 4383 08be a870 7dbe 8de0 0a3e
00000140: 605a 87bd 3f88 a6bd c213 44be b585 03be
00000150: b650 2cbb a0db 0ebd af3f 34be 269b 6ebe
00000160: ba36 a93d 4bc6 483e ca10 44be cdf4 35bd
00000170: 54f7 003d 53c1 69be 6839 71be 93bf 58bd
00000180: 17b3 19be 825f 4b3d cf9c 04bc 5f04 8cbe
00000190: b2c7 34be 1b8a 253e 05e7 7a3e 6e28 82b9
000001a0: 4ca5 2cbe 94f5 133e 9272 533e 34d0 f03d
000001b0: c393 8d3d a3e5 8b3e 45e5 a83e 5a4a 8e3d
000001c0: 4462 16be cdc5 1b3e 74ca 0ebe 2eeb 51be
000001d0: 768c 8fbe 8098 31bd 0585 02bd 6a66 ff3d
000001e0: 3274 f03d 328f 4d3e cedb e43d 4a28 7b3d
000001f0: faf8 4b3e b805 eabc d183 953e a813 203d
00000200: beab 8abe feba 3bbe 8dcc 47be 5dd9 dbbe
00000210: c2a5 723e 5d32 a4be 53d7 04be 0d67 54be
00000220: 3625 d53d a9b3 a6be d33c 80bb 2d0f acbe
00000230: 3fc1 d23e 7d8e 383e 01c8 fabd 437c 75be
00000240: ed1f 2cbe 783c 4dbe 18e3 92bd f52e 393e
00000250: 003d 6ebd c332 6cbe 84d6 87be df05 2cbd
00000260: 460f 8e3d c726 073e 43d0 1dbd d841 a83d
00000270: 9029 a93e f188 c83d fc11 5bbd 7eb0 1c3e
00000280: 2445 3a3e d686 083e 0054 ebb7 3f1d 9b3d
00000290: 9e5d 283d e05b 573d 8100 3b3e 1626 76be
000002a0: cce9 583d 0e29 9fbe e60b d9bd 117c 1d3e
000002b0: e76d 5b3e 10da f53d f453 e43d 9e73 b2bd
000002c0: 1483 22be c449 42be 7ecb 283d 5929 313e
000002d0: a48a 8bbe 456d 573e d805 513e 6855 94be
000002e0: 958f ebbd 1424 323d dac2 513e 8d47 893d
000002f0: 641d 0f3e 6667 75be 4629 ee3d 9e6d 2d3e
00000300: 3c8e 52be 9060 2ebe 4092 93bc 405f 9cbd
00000310: 5025 0cbe f081 3e3d f4f2 63be 801a 5e3c
00000320: 20c1 1b3d 808b 7dbe a09f 31be 3c5e 40be
00000330: 400a 07be 7471 67be 74fb 5abe 0076 5e3d
00000340: 28e3 ef3d a490 0bbe c02c 2abd 280b 0a3e
00000350: 8c2d 31be 00f0 bbbd a826 cc3d f045 923d
00000360: a0e0 eabc 9868 6cbe 00bc e4ba 68c8 183e
00000370: 78b5 f5bd 80f1 61be 809b 913c 08a2 b0bd
00000380: 003c f4ba 4036 f43d 80b8 f4bb 2043 63be
00000390: 00d6 063e b8ff ecbd 483a bf3d 50f4 0abd
000003a0: 6081 bdbd 509f 953d 4c0f 063e d020 67bd
000003b0: 7477 003e 1079 0bbe ec95 483e 4067 5cbe
000003c0: 7b7b c43c 9406 31be 0256 103e 55ad f8bd
000003d0: 2618 883e 522e e9bd 7f29 19bf e861 87bd
000003e0: d4fb 313d 9f91 653d 9287 00be 3a9e 2abe
000003f0: 493a 503e b2c6 743e 000e b0be 38bd ff3d
-0.05902858 -0.03834853 -0.069645084 -0.10195088 0.03019844 -0.03490286 -0.0028730289 0.021670932
-0.076574884 -0.24203604 -0.18305227 0.08123214 -0.13555229 0.2373102 0.06379734 0.0941171
0.06795496 0.1445438 -0.0733134 -0.063974135 0.14813575 -0.12950577 0.016975924 -0.24057285
-0.19369821 0.05619407 -0.25317785 0.17200653 -0.11645561 0.103135884 -0.1687253 0.19536869
-0.14311558 -0.08179558 -0.15440279 -0.08802135 0.011295793 -0.08259201 -0.045923628 -0.0067746476
0.0007485578 0.15728794 -0.009466574 0.115321435 0.057904057 0.19012886 -0.092249975 -0.0059034973
-0.052919764 0.07189764 0.17344227 0.02545242 0.1476322 0.20038664 0.196132 0.20214707
0.18575981 -0.108190246 -0.07225623 0.08061811 -0.2244075 -0.042826373 -0.25619707 0.013604989
0.060721073 -0.043404706 0.1386608 -0.16244859 0.12547244 -0.05287297 -0.07183453 0.10546493
-0.2288186 -0.16387646 0.0025730864 0.1669737 0.13699158 -0.13331322 -0.24750006 0.13562222
-0.066090345 -0.08131456 -0.19148162 -0.12843974 -0.0026293225 -0.03487742 -0.17602418 -0.23301372
0.082623914 0.19606893 -0.1914703 -0.044422913 0.03148587 -0.22827654 -0.23557055 -0.052917074
-0.15009724 0.04965163 -0.008094027 -0.27347085 -0.17654303 0.16165964 0.2450219 -0.00024825655
-0.16859931 0.1444915 0.20649174 0.117584616 0.06912949 0.27323636 0.3298742 0.06947775
-0.14685923 0.15212174 -0.13944417 -0.2049987 -0.2803685 -0.043358326 -0.03186514 0.12470706
0.117409125 0.20074156 0.11174737 0.06131772 0.19919196 -0.02856718 0.2920213 0.039081246
-0.27084154 -0.1833305 -0.19511624 -0.42939273 0.23696044 -0.32069674 -0.12972765 -0.20742436
0.10407488 -0.32558945 -0.003913501 -0.33605328 0.4116306 0.18023105 -0.12245179 -0.23973183
-0.16809054 -0.20042598 -0.07172221 0.18084319 -0.058163643 -0.23066239 -0.2653085 -0.041997787
0.06936507 0.13198386 -0.038528692 0.08215684 0.33039522 0.097917445 -0.053483948 0.15301701
0.18190438 0.13332686 -2.8053299e-05 0.075739376 0.041104905 0.052577853 0.18261911 -0.24037966
0.05295734 -0.3108601 -0.105979726 0.15379359 0.21428643 0.12004483 0.11148825 -0.087134585
-0.15870315 -0.18973452 0.04120969 0.17300929 -0.27254212 0.21037777 0.20412385 -0.2897141
-0.115019955 0.043491438 0.20484486 0.067031 0.13976055 -0.23965225 0.11628966 0.16936347
-0.2056207 -0.17029023 -0.018014073 -0.07635355 -0.13686109 0.046510637 -0.22260648 0.013556123
0.038025975 -0.24760246 -0.17346048 -0.18785948 -0.13187504 -0.22601873 -0.21384984 0.054311752
0.117132485 -0.13629395 -0.041546583 0.13480818 -0.17302531 -0.09176636 0.099683106 0.07142246
-0.028671563 -0.23086774 -0.0017451048 0.14920199 -0.11997503 -0.22064781 0.017774343 -0.08624655
-0.0018633604 0.1192441 -0.007468283 -0.22193575 0.13167572 -0.11572212 0.09337288 -0.0339244
-0.09253192 0.07305777 0.13091773 -0.056427777 0.12545568 -0.136204 0.1958844 -0.21523762
0.023984661 -0.17287666 0.1409531 -0.121424355 0.26580924 -0.11385788 -0.59828943 -0.06610471
0.043453053 0.05604708 -0.12551716 -0.16661921 0.20334734 0.23903921 -0.3438568 0.124872625

sequential_5/dense_20/MatMul f4 [5, 48]
00000000: 1cf0 3cbe 3290 433a 6601 b6be 7b1f 993e
00000010: 2fea 3cbe ea72 e6bd 7e49 95be 13fb a9be
00000020: be42 ae3e d0b6 343b 6ee3 6c3e 303d 6b3e
00000030: bea1 ba3d dddd 8d3d 9550 06bd 8375 febd
00000040: 4873 a53d 22a1 86be 5262 503e b751 f0bc
00000050: 786c 72be 2151 74be ea16 8dbd dc13 963d
00000060: 465a 8e3e 4508 b93c 91cc 263b 755e b23d
00000070: a36d 9e3e 3983 85be 45e1 bfbe 57e1 6dbe
00000080: 0ff5 acbd 1631 363e b3ca e2bd cdd6 513e
00000090: 05cf 77be 75ff 19be 74a0 cfbb 616c 82be
000000a0: af72 d2bd c8f5 b5bc d5ec 74bd 7fe5 a43e
000000b0: d6bb 213e e782 ecbe 73d3 82be c1ed 67be
000000c0: 20c2 83be e3a6 b33e ec4f 5b3e c45c 06be
000000d0: 2cc2 8cbd ad3e 10bf 1fe2 593e 2f9a 953e
000000e0: 40ed 3f3c 188d 1a3f 9729 42be b2ba 893e
000000f0: 489c a5be 7de7 323f 11a7 6cbd 4b2a cb3e
00000100: 1f8a 9e3c bcd0 523e 11bb 103d 13a6 da3e
00000110: 88e0 7c3e b1f0 d63e 940f 413e fdfa 143f
00000120: ceb8 8a3e d50e 9ebe 3549 ff3e 6525 1b3f
00000130: 6a58 9f3e 1e5d 273e d298 053f e3dc ebbd
00000140: f1c2 8bbe 3182 9d3d 9cd1 803e 40ed 843c
00000150: ffc1 babe 30d9 3bbd 77da acbe 6f71 323e
00000160: 991c be3e c5b6 89be 1638 dbbd ca9b 4a3e
00000170: 42e0 27be 09cb 243f b804 23be c832 683e
00000180: 384e 903e 41d9 3abd 56bc 17be b250 3a3d
00000190: a001 89bc 9be5 07bd 7b97 b3be 7a6d 0fbf
000001a0: 2de0 1cbe 13f8 3cbb e9dd 80be e54d d2be
000001b0: 172e 90bc 0095 0bbf 0153 c73d 4ed0 e13c
000001c0: 90de 373e a57b ccbe 74bf 023e e2f2 8cbe
000001d0: ab36 bcbe 5e0f b93b d59c 4ebe e6f9 ea3d
000001e0: aee0 95be 29cb d63d a756 95be fe41 bebe
000001f0: 0325 293e 7ffe a53e 3164 173e 0cb1 f3bc
00000200: e459 2fbc 2daa 853e 0b87 00bf 4735 8fbe
00000210: 336d b5bd 5983 60be 10d3 e83d a8b3 50bf
00000220: 13d5 f2bd e257 d3bd 81ee 93be 87d8 34be
00000230: c808 e9bd 5262 6cbf d75e 3fbe af8a a53d
00000240: bbe6 58be d898 42bc 2ea3 373e 1207 ff3c
00000250: 1249 113e 2e9b c33d 3c19 89be bd4c cb3e
00000260: db60 13bf 5604 35bf 26ea 043f d2c3 fc3e
00000270: 509e 0abe a62e 13bf 4faa 8a3e 55e1 373f
00000280: 1f21 3d3d 4b15 8d3d 6c45 d63d f05d 68be
00000290: 27ab 92be 259c b53e ef5a 2e3f 20f3 b93e
000002a0: a0c8 323e fbca 34bd 2bb7 a9be 6afb 013d
000002b0: 56b6 023f f5b0 d9bd 02be aa3e 38a9 ea3e
000002c0: 34c0 4bbe cc4b 9dbe 2bdf 933d 0b24 123e
000002d0: ba2d 58be 9f22 673f 7d32 17be 901c 9d3e
000002e0: 0464 9d3e 5c1c 713e c6e8 95be 323c e33d
000002f0: 5ef4 d93d 4588 a03e 2b52 d1be 751d e0be
00000300: 645d 40bd 7998 ee3c 76e8 4fbf b3db c0be
00000310: a0e0 223d 73a8 bf3e ffa0 0d3e 6cc0 4cbc
00000320: 1de8 d43e 0afb 0ebe c422 c8be bafb 95bf
00000330: 5ca0 2a3e 6e31 233f c59a 903e a12b cabe
00000340: a8c9 983e ee6e babd 79d6 a5be 20dd 283f
00000350: c03c cd3c 6312 0dbf 8fc5 8cbd 5d9c 5ebf
00000360: 20e1 e0be fd69 12be 57d1 da3d b186 8bbd
00000370: 756f d6be 9bbd c93d dce9 15bf 784d 0e3f
00000380: 114f dcbd fdbd a43e 6a1a 0a3f 593e ae3e
00000390: 4738 13be 102b 6abe f0ce 76bd 76d2 1b3f
000003a0: 6828 d1bd 11eb c6be 54d3 2a3e 8690 c73d
000003b0: e203 633d f91f 573f f840 0a3f db51 4d3e
-0.1845097 0.00074601464 -0.35547942 0.2990683 -0.18448709 -0.11252387 -0.29157633 -0.33199367
0.34035295 0.0027574785 0.23133633 0.2297256 0.09112881 0.06927083 -0.032791693 -0.12424757
0.08078629 -0.2629481 0.20350006 -0.02933584 -0.2367419 -0.23859073 -0.06889136 0.073280066
0.27803248 0.022586951 0.002545152 0.087094225 0.3094302 -0.26076677 -0.37476555 -0.23230492
-0.08445179 0.17792162 -0.11073818 0.20492096 -0.24200065 -0.15038855 -0.006336266 -0.25473312
-0.102757804 -0.022211924 -0.059796173 0.32206342 0.1579431 -0.4619362 -0.25551948 -0.2264929
-0.25734043 0.35088262 0.21417207 -0.13121325 -0.06872973 -0.56345636 0.21277665 0.29219195
0.01171428 0.6037154 -0.18961178 0.2690025 -0.32345796 0.69884473 -0.057776514 0.39680704
0.01935297 0.20587438 0.03533465 0.4270483 0.24695027 0.41980508 0.18853599 0.5819548
0.2709412 -0.3087069 0.4986054 0.60603935 0.31122142 0.16344115 0.5218631 -0.1151674
-0.27297166 0.07690848 0.2515992 0.01622641 -0.36476132 -0.045861423 -0.33760425 0.17426084
0.37131193 -0.26897255 -0.10704057 0.19785991 -0.16394141 0.6437231 -0.15919769 0.22675622
0.28184676 -0.045617346 -0.14817938 0.045487113 -0.016724408 -0.033177953 -0.35076508 -0.5602642
-0.15319891 -0.0028834387 -0.25169304 -0.41075054 -0.017600102 -0.5452423 0.097326286 0.027565148
0.17955995 -0.39938083 0.12768346 -0.27529055 -0.36760458 0.005647584 -0.20177014 0.114734456
-0.2927298 0.104879685 -0.29167673 -0.37159723 0.16518025 0.32420728 0.14784314 -0.029747508
-0.010702584 0.26106396 -0.5020606 -0.27970335 -0.08858719 -0.21925105 0.11368382 -0.81524134
-0.11857047 -0.10319497 -0.28892902 -0.17660724 -0.11378628 -0.92337525 -0.18688522 0.080830924
-0.21181767 -0.011877261 0.17933342 0.031131301 0.1418803 0.095510826 -0.26777065 0.39706984
-0.57569665 -0.7070974 0.5191978 0.4936815 -0.13536954 -0.57493055 0.2708306 0.71828204
0.046174165 0.06888827 0.1046246 -0.22692084 -0.28646204 0.3547069 0.68107504 0.36318302
0.17459345 -0.04413889 -0.3314756 0.031733908 0.5105947 -0.10629455 0.3334809 0.4583223
-0.19897538 -0.3072189 0.072203 0.14271562 -0.21111193 0.902872 -0.14765354 0.30685854
0.30740368 0.23545974 -0.29279155 0.11095466 0.106423125 0.31353965 -0.40883002 -0.43772474
-0.046964064 0.029125439 -0.8121408 -0.37667617 0.039765 0.37433204 0.13830946 -0.012497049
0.41583338 -0.13962951 -0.39089024 -1.1717446 0.16662735 0.637473 0.2824308 -0.3948641
0.29841352 -0.091031894 -0.32390192 0.6596241 0.025053382 -0.5510618 -0.06873619 -0.8695734
-0.43921757 -0.14298244 0.1068446 -0.068128 -0.4188191 0.098506175 -0.58559966 0.5558696
-0.10757268 0.321762 0.53946555 0.34031942 -0.14376937 -0.2286799 -0.060255945 0.6086801
-0.10212785 -0.38851216 0.16682178 0.097443625 0.055423625 0.8403316 0.54005384 0.20050757

sequential_5/dense_18/MatMul;sequential_5/dense_18/Relu;sequential_5/dense_18/BiasAdd f4 [48]
00000000: 3e6b 993f ee34 e93d 0602 6f3f 7d68 36bf
00000010: ab19 913f 6660 74be 773d a63f 14bf 4abf
00000020: 6c22 0e3f 8d1d a63f d4b2 27bf 7284 2a40
00000030: a739 b53e 9d52 993f bfab 01bf 0a02 883f
00000040: b6c3 b83e f527 2d3f c4b6 153f b4b4 6bbe
00000050: 3c9d 55be ba75 b5bf 9921 9f3e 0488 123f
00000060: 7186 33bf 6606 cabf 97d1 a3be e8e6 1440
00000070: 9313 b4bd 9e31 1b3f 275d 0840 01c2 903f
00000080: a640 dabf e499 903e e6d6 833e aebb 75bf
00000090: 5bdb fe3e 763a d23f 5733 0c3f 50a3 f2bf
000000a0: d186 e43e 6f66 0dbf 50b7 973f 2e9e e53f
000000b0: 6cc8 8f3f 86b5 4c3e 32aa f23f cfae e33e
1.1985853 0.11387049 0.9336246 -0.71253186 1.1335958 -0.23864898 1.2987508 -0.7919781
0.55521274 1.2977768 -0.65507245 2.6643338 0.35395548 1.1978337 -0.5065269 1.0625622
0.36086816 0.67639095 0.58482003 -0.23018152 -0.20860761 -1.4176552 0.3108032 0.57238793
-0.70127016 -1.5783203 -0.31995842 2.3265934 -0.08792796 0.60622585 2.1306856 1.1309205
-1.7050979 0.2824241 0.25749892 -0.959895 0.4977673 1.6424091 0.5476584 -1.8956089
0.44634107 -0.55234426 1.1852818 1.7938898 1.1233039 0.1999112 1.895819 0.44469306
