scripts/models/capture_5x_1,5x1m_16x16_model_no_quant.tflite (tflite, 4168 bytes, 7 tensors)

dense_3/bias f4 [5]
0	0xbecff8bd	-0.4061946
1	0x3f138bf3	0.5763542
2	0xbf031614	-0.51205564
3	0x3e7c6722	0.24648717
4	0x3dc36579	0.09540839

dense_2/bias f4 [16]
0	0xbe00fb19	-0.12595786
1	0x00000000	0.0
2	0xbb791a12	-0.0038009924
3	0x3e93afb9	0.28845003
4	0xbd4d95cb	-0.05019168
5	0x3da5349d	0.08066676
6	0xbe488a27	-0.19583951
7	0xbd8bfbe2	-0.06835152
8	0xbe5f289f	-0.2179284
9	0x3db31e0c	0.08745965
10	0x3eb2db87	0.3493311
11	0x3e4cb787	0.19991885
12	0x3e33792d	0.17526694
13	0x3e69cc64	0.22831875
14	0x3d951149	0.072786875
15	0x3e6f64e7	0.23378335

sequential/dense/MatMul f4 [6, 6]
0	0xbfd91b1f	-1.6961402
1	0x3f6d715a	0.92751086
2	0x3e8bec61	0.2732878
3	0x3e3ba25f	0.18323658
4	0x3e2701cf	0.16309284
5	0x3f405f0a	0.7514502
6	0x40123407	2.2844255
7	0x3e6db4a4	0.2321344
8	0xbe62737f	-0.22114371
9	0xbba403a6	-0.0050053177
10	0xbe367dc6	-0.17821416
11	0xbe7616c5	-0.24032123
12	0xbf550013	-0.8320324
13	0x3f01e8f7	0.507461
14	0xbe92d226	-0.28675956
15	0x3e43d657	0.19124733
16	0x3e9da3ac	0.30788934
17	0x3c80c52a	0.015719015
18	0xbf0ce704	-0.5504
19	0x3f9df173	1.233931
20	0xbf8f1333	-1.1177734
21	0xbe178c4d	-0.14799614
22	0xbe4c29ed	-0.19937868
23	0xbe16aca1	-0.1471429
24	0xbf01d037	-0.50708336
25	0x3e929247	0.28627226
26	0x3e05fc14	0.13084441
27	0xbe2e06d8	-0.16994798
28	0x3e47cc19	0.19511451
29	0x3d5936d5	0.053030808
30	0x3f56af6d	0.8386143
31	0x3f9b715d	1.2143971
32	0xbf2b222a	-0.66849005
33	0xbe0fc90f	-0.14041542
34	0xbe4d7162	-0.20062783
35	0xbf0576b1	-0.52134234

sequential/dense_1/MatMul f4 [16, 6]
0	0x3cc227b4	0.023700573
1	0xbb6ab87a	-0.0035815523
2	0xbee2ada4	-0.44273102
3	0xbf0152e2	-0.50517094
4	0x3e07b8cf	0.13254093
5	0x3ec0cdf0	0.37657118
6	0xbe8891d3	-0.26673755
7	0x3efc8024	0.49316514
8	0x3ec6f4d2	0.38858658
9	0xbe55fa62	-0.20896295
10	0x3ebd7512	0.3700338
11	0xbf062320	-0.52397346
12	0xbccff36e	-0.025384631
13	0x3d723de1	0.059141044
14	0x3eac3dc7	0.33640882
15	0x3d30082e	0.04297655
16	0x3f001a6a	0.50040305
17	0x3e4f15b6	0.20223126
18	0x3f7e6d96	0.99385965
19	0xbe17ebad	-0.14835997
20	0x3f1b3b7a	0.6063763
21	0x3ed1bdcf	0.40965125
22	0x3cf747c7	0.030185593
23	0xbe2e9383	-0.17048459
24	0x3e03200f	0.12805198
25	0xbea627fb	-0.32452378
26	0x3ee49c74	0.44650614
27	0x3da4ba4f	0.08043348
28	0xbc0317b3	-0.008001256
29	0xbea70cfb	-0.3262709
30	0xbeca3e3c	-0.39500606
31	0x3f34c43f	0.7061195
32	0xbef9642f	-0.48709247
33	0x3cda38a8	0.026638344
34	0x3dfd1721	0.12357927
35	0xbecc817e	-0.39942545
36	0x3ef0ffdb	0.47070202
37	0xbf32e260	-0.6987667
38	0x3cf81c1c	0.030286841
39	0xbf033690	-0.5125513
40	0x3dac11e5	0.084018506
41	0xbf476c1d	-0.7789934
42	0xbe17517f	-0.14777182
43	0x3ed720f2	0.42017323
44	0xbd75a60d	-0.05997281
45	0x3ecb376e	0.39690727
46	0xbe1161a7	-0.14197408
47	0x3d962e2d	0.07333026
48	0xbf117713	-0.5682232
49	0x3f1ea1d0	0.61965656
50	0xbe2e7180	-0.17035484
51	0xbf13a641	-0.5767556
52	0xbf1adc71	-0.60492617
53	0x3e0b4ff4	0.13604718
54	0xbd976c3c	-0.07393691
55	0x3d104537	0.03522226
56	0xbee47bc9	-0.4462569
57	0xbefbf7ee	-0.49212593
58	0xbf12415c	-0.5713098
59	0x3d81554a	0.06315096
60	0xbe9bccd6	-0.30429715
61	0x3e8edac0	0.27901268
62	0xbcaca02a	-0.021072466
63	0x3de68fb1	0.11257876
64	0x3ed38b6f	0.41317317
65	0xbeaeb061	-0.3411894
66	0x3d706124	0.05868639
67	0xbed1c725	-0.40972248
68	0xbe111a92	-0.14170292
69	0xbe9b64a3	-0.30350217
70	0x3ee08832	0.4385391
71	0x3dce5b4d	0.10076008
72	0x3d712559	0.058873508
73	0x3f60c01a	0.87793124
74	0xbdbd0061	-0.09228588
75	0x3f19be73	0.6005623
76	0x3dbec4bd	0.093148686
77	0x3f521b4b	0.82072896
78	0x3d800330	0.06250608
79	0x3ed26a71	0.41096833
80	0x3e5cde60	0.21569204
81	0x3e9d4570	0.3071704
82	0xbed1b3e5	-0.4095756
83	0x3e94e062	0.2907744
84	0xbf04f6aa	-0.5193888
85	0x3f3f21ce	0.74660957
86	0xbeb09a53	-0.3449274
87	0xbf02853e	-0.5098456
88	0x3e76fd6a	0.24120107
89	0xbe59dc73	-0.21275501
90	0xbec58d3a	-0.3858431
91	0x3da70366	0.08154945
92	0x3eaa1731	0.3322082
93	0x3e477d14	0.19481307
94	0x3f0709ed	0.5274952
95	0x3e46fa88	0.19431508

sequential/dense_2/MatMul f4 [16, 16]
0	0x3e773933	0.24142914
1	0xbe98cbeb	-0.29843077
2	0x3ecf676a	0.40508586
3	0xbe21402c	-0.15747136
4	0xbdf11e28	-0.1177333
5	0x3e6a35a3	0.22872023
6	0xbe6e48d0	-0.23269963
7	0x3e0f8493	0.14015417
8	0x3e53a1f9	0.20667256
9	0x3e42012f	0.18945764
10	0x3ea2f4e1	0.31827453
11	0xbdc252e0	-0.094884634
12	0xbbdade13	-0.0066793053
13	0xbea53340	-0.32265663
14	0xbead77a5	-0.33880344
15	0xbd52d52b	-0.051472824
16	0x3dee11c4	0.11624482
17	0xbeceba2d	-0.40376416
18	0xbc3dd200	-0.011585712
19	0xbec3019a	-0.3808716
20	0xbe356d14	-0.17717391
21	0xbea51e1e	-0.3224954
22	0xbe7c658f	-0.24648117
23	0xbec1f1fe	-0.37879938
24	0x3e664e2a	0.22490755
25	0xbe0f78b4	-0.14010888
26	0xbd871410	-0.065956235
27	0xbe3fe22e	-0.18738624
28	0xbed449ec	-0.41462648
29	0xbdf0df64	-0.117613584
30	0xbd773978	-0.06035754
31	0x3ed80831	0.4219375
32	0x3c50f820	0.01275447
33	0xbd791070	-0.06080669
34	0xbdaf984b	-0.085739695
35	0xbdddab50	-0.10823691
36	0xbd445257	-0.047930088
37	0x3e860111	0.2617269
38	0x3e44e8d8	0.19229448
39	0xbe850043	-0.25976762
40	0xbe2ffdc4	-0.17186648
41	0xbe9f22fb	-0.31081375
42	0x3daf1d94	0.085505635
43	0x3e72d88b	0.23715417
44	0x3e2c4ac8	0.16825402
45	0xbeb0474f	-0.34429404
46	0xbec0e642	-0.37675673
47	0x3abc8d00	0.0014385283
48	0xbda85eb2	-0.08221187
49	0xbe45b047	-0.19305526
50	0x3e31d8a2	0.17367795
51	0x3e856cb9	0.2605951
52	0x3ec2412a	0.3794034
53	0x3e717c87	0.2358266
54	0x3ec83b8c	0.3910793
55	0xbe37b53b	-0.17940228
56	0x3f135df0	0.5756521
57	0x3e8dea61	0.2771788
58	0x3ea3113f	0.31849095
59	0x3eb15ed4	0.3464266
60	0x3ede757e	0.43449014
61	0x3ef23f91	0.47314122
62	0x3e9fa6e9	0.3118203
63	0xbe69943f	-0.22810458
64	0x3d86e2a9	0.06586201
65	0x3ebb3462	0.36563402
66	0x3e1c8173	0.15283756
67	0xbd9e577d	-0.07731531
68	0xbe3fd9a8	-0.18735373
69	0xbea1351f	-0.3148584
70	0xbe18715f	-0.14886998
71	0xbe036e63	-0.12835078
72	0xbe2e5680	-0.17025185
73	0x3ec5b38b	0.38613543
74	0x3edcaa23	0.43098554
75	0xbe95033a	-0.29104024
76	0xbea30e7c	-0.31846988
77	0xbeb28512	-0.3486715
78	0x3e7a2c50	0.24430966
79	0x3ec2e1ae	0.38062805
80	0xbecf333d	-0.4046878
81	0x3ea04ed5	0.31310144
82	0xbdc28e8f	-0.09499847
83	0xbdbb9cc2	-0.091607586
84	0xbebc7abf	-0.36812398
85	0x3f023745	0.50865585
86	0x3e476541	0.19472219
87	0x3e0dfd47	0.13866149
88	0x3f29f094	0.6638272
89	0x3eab9052	0.33508545
90	0xbd9f4843	-0.07777455
91	0xbe24b153	-0.16083269
92	0x3e80570b	0.2506641
93	0x3e12ec81	0.14348032
94	0x3ea44ee8	0.3209145
95	0x3ed8a89a	0.42316133
96	0xbea5f432	-0.3241287
97	0x3cdb1f09	0.026748197
98	0xbed9c3a5	-0.42532077
99	0xbf0595c1	-0.5218163
100	0x3eb51097	0.3536422
101	0x3e36c315	0.17847855
102	0xbd40770c	-0.046988532
103	0xbef8aff8	-0.48571754
104	0xbb9cccc5	-0.0047851526
105	0xbe9d250c	-0.30692327
106	0x3e983c74	0.29733622
107	0xbe47c273	-0.1950777
108	0x3ea88cbe	0.32919878
109	0x3e5a739a	0.21333161
110	0xbed8b97c	-0.42329013
111	0x3e065299	0.13117446
112	0x3e2b8204	0.16748816
113	0x3ca1b0a6	0.019737553
114	0xbc98361e	-0.018580493
115	0xbeaf2cfa	-0.34214002
116	0xbec3b36b	-0.38222823
117	0xbd89b5c5	-0.06724123
118	0xbe9b965d	-0.30388156
119	0xbe9beaaa	-0.30452472
120	0x3e44b0c1	0.19208051
121	0x3e3fd216	0.18732485
122	0x3e054b7a	0.13017073
123	0xbd252660	-0.0403198
124	0x3e1cbe84	0.15307051
125	0x38bdd330	9.051559e-05
126	0xbea54784	-0.32281125
127	0xbe813ac6	-0.25240153
128	0xbd83b66d	-0.06431279
129	0xbeb04a7c	-0.34431827
130	0x3ea9ff19	0.33202437
131	0x3d81a7c0	0.06330824
132	0x3db1753d	0.086649396
133	0xbec7928a	-0.38978988
134	0x3e51d684	0.20491987
135	0x3e41294f	0.18863414
136	0xbf034c3a	-0.5128819
137	0x3e3ad918	0.18246877
138	0x3d69cc7a	0.05707977
139	0x3ecaabb4	0.39584124
140	0xbeb56e94	-0.35435927
141	0xbe649c1c	-0.22325176
142	0x3eb9119f	0.36146256
143	0x3e30b762	0.17257455
144	0xbe81f6c0	-0.25383568
145	0xbe1a82c2	-0.15088943
146	0xbd68ec68	-0.05686608
147	0x3f374eb6	0.7160448
148	0x3dfa96de	0.12235807
149	0xbea1f345	-0.31630912
150	0x3f35f921	0.71083266
151	0xbdbe35e5	-0.09287623
152	0xbf37ffc0	-0.7187462
153	0x3e3063dc	0.17225593
154	0xbeab1b8f	-0.33419463
155	0xbe85f916	-0.261666
156	0xbf1a8f01	-0.60374457
157	0x3e639219	0.222237
158	0xbd552a48	-0.052042276
159	0xbd265c56	-0.040615402
160	0x3c0a152d	0.0084279
161	0xbe9ee964	-0.31037438
162	0x3d15d379	0.03657863
163	0x3f441966	0.76601255
164	0xbe80900d	-0.25109902
165	0xba9b1185	-0.0011830783
166	0xbcca691f	-0.024708329
167	0xbe88b5f5	-0.26701322
168	0xbe9268a2	-0.28595454
169	0xbe7c763f	-0.24654482
170	0x3e579be4	0.21055561
171	0xbd3c5216	-0.04597672
172	0xbe815a63	-0.25264272
173	0x3e72db76	0.2371653
174	0xbeeb2ecf	-0.4593415
175	0xbe4ab93d	-0.19797225
176	0xbe8aebe8	-0.27133107
177	0x3e4a6de6	0.19768485
178	0x3dcb0c26	0.099144265
179	0x3e0701a1	0.13184215
180	0xbd1c4017	-0.03814706
181	0xbdf30589	-0.1186629
182	0xbf0845ae	-0.5323132
183	0xbd95af7e	-0.07308863
184	0xbe38aa25	-0.18033655
185	0xbea47000	-0.321167
186	0x3e6cb101	0.23114397
187	0x3e9b460d	0.30326882
188	0x3f07671e	0.5289172
189	0x3ebe6c2d	0.37191907
190	0xbdb0ba6e	-0.08629309
191	0x3e9ee017	0.31030342
192	0x3e84867d	0.25883856
193	0xbed9a4f2	-0.42508656
194	0x3edf761a	0.43644792
195	0x3e67a1e2	0.22620347
196	0xbeadb5b2	-0.33927685
197	0xbeba2854	-0.36358893
198	0xbeca62ec	-0.39528596
199	0xbee33bb4	-0.44381487
200	0x3df00e09	0.11721427
201	0xbe748d12	-0.23881939
202	0xbc0c14ed	-0.008549911
203	0xbd4d2859	-0.050087307
204	0x3ed6ddf2	0.41966206
205	0x3ef093b9	0.46987703
206	0xbe6766d3	-0.22597818
207	0x3da3b6f4	0.0799388
208	0x3ea806d8	0.3281772
209	0x3dca4ef5	0.09878341
210	0x3e116f9e	0.14202735
211	0x3f11aa90	0.5690088
212	0x3e7d95a4	0.24764115
213	0x3dcfbfec	0.10144028
214	0x3e818ed2	0.25304276
215	0xbe94ee8d	-0.2908825
216	0x3c1fe343	0.009758773
217	0xbed4222d	-0.41432324
218	0xbed1b96a	-0.40961772
219	0x3e761dc1	0.24034788
220	0xbefe05fa	-0.49613935
221	0xbe9a5e36	-0.30150002
222	0xbed96500	-0.4245987
223	0xbec29a3f	-0.38008305
224	0xbb7ce3c2	-0.0038587903
225	0x3df8484e	0.12123166
226	0x3ea34031	0.31884912
227	0xbdf3d3b1	-0.11905611
228	0x3e91bb56	0.28463238
229	0x3e8efe3d	0.27928343
230	0xbef62dc6	-0.48081797
231	0x3ea991aa	0.33118945
232	0x3e49e3d4	0.19715816
233	0x3e9700a0	0.29492664
234	0x3e03fc4b	0.12889211
235	0x3ea2fe44	0.31834614
236	0x3e45e076	0.19323906
237	0x3ecf3212	0.40467888
238	0x3eda5850	0.42645502
239	0x3ed19c33	0.40939483
240	0xbe13ce80	-0.14434242
241	0x3e9584b1	0.29202798
242	0xbecc728c	-0.39931142
243	0x3dc2f42b	0.095192276
244	0xbe0a05bb	-0.13478749
245	0x3cebb626	0.028773379
246	0xbedf5b53	-0.43624362
247	0xbdda66cc	-0.10664138
248	0xbe3e612c	-0.18591756
249	0xbe09e4a2	-0.13466123
250	0x3cdd6f7a	0.027030695
251	0xbde16c48	-0.11006981
252	0x3f0b874a	0.5450331
253	0x3ea93f1f	0.3305597
254	0xbeaeb9fb	-0.34126267
255	0x3ec7bd8d	0.39011803

sequential/dense_3/MatMul f4 [5, 16]
0	0xbeb08ddf	-0.3448324
1	0x3ecbb652	0.39787537
2	0xbc06c772	-0.008226262
3	0xbf23f64c	-0.64047694
4	0xbe9a0d98	-0.30088496
5	0xbead9caa	-0.33908588
6	0xbe63be42	-0.22240546
7	0xbeb14643	-0.34623918
8	0x3c7f885b	0.0155964745
9	0x3ebfaac9	0.37434986
10	0xbf0deb4a	-0.5543715
11	0xbeebba4b	-0.46040568
12	0xbe4dc9bc	-0.20096487
13	0xbe875340	-0.26430702
14	0x3d6dba98	0.058039278
15	0x3f086c88	0.53290606
16	0xbddd6ebd	-0.10812137
17	0xbe78aa1e	-0.24283645
18	0xb993e67a	-0.00028209743
19	0x3f2a1828	0.6644311
20	0xbe557ad7	-0.20847641
21	0x3f3da9ca	0.740872
22	0xbed59e22	-0.41722208
23	0xbef8d3ef	-0.48599193
24	0xbe97f3c2	-0.2967816
25	0x3e896d89	0.2684138
26	0xbe445ac6	-0.19175252
27	0xbeb62c28	-0.35580564
28	0xbe29258f	-0.16518234
29	0x3dea8c0a	0.114524916
30	0x3f283462	0.6570493
31	0x3d9346be	0.071912274
32	0xbd0ad7f9	-0.033897374
33	0x3e01855c	0.12648529
34	0xbf009a05	-0.50235015
35	0xbf724a3d	-0.9464453
36	0x3ebb88fc	0.36627948
37	0xbec30a31	-0.38093713
38	0xbc4f7e86	-0.012664443
39	0xbe76b7f9	-0.24093617
40	0x3eb45bdd	0.35226336
41	0xbf1f8b0b	-0.6232154
42	0xbf1a50c8	-0.6027951
43	0x3cdffe60	0.027342975
44	0x3eac3f54	0.33642066
45	0x3d45008f	0.048096236
46	0xbf029081	-0.51001745
47	0xbee756d4	-0.45183432
48	0x3e5cc7f2	0.21560648
49	0xbea2d408	-0.31802392
50	0x3e4b2843	0.19839577
51	0x3ed217c0	0.41033745
52	0xbd879de9	-0.06621916
53	0x3e3774f2	0.17915705
54	0x3eb881c2	0.36036497
55	0xbef9fda0	-0.48826313
56	0xbeed7ce1	-0.46384338
57	0xbf64cd0f	-0.89375395
58	0x3e40c0d3	0.18823557
59	0x3eb8fcab	0.3613027
60	0x3f4751d9	0.77859265
61	0xbf2359e1	-0.6380902
62	0x3f0139b4	0.50478673
63	0x3f41ed06	0.75752294
64	0x3dffee64	0.12496641
65	0x3eca8fb2	0.39562756
66	0x3e0d4c24	0.13798577
67	0x3d6550a3	0.055985104
68	0xbea063b8	-0.3132608
69	0xbec47b09	-0.38375118
70	0x3e39c805	0.18142708
71	0xbd5fc2a0	-0.05462897
72	0xbe609fb7	-0.21935926
73	0x3f4a522c	0.79031634
74	0x3f4bae31	0.7956267
75	0xbf0d4f67	-0.55199283
76	0xbe83dcd1	-0.25754407
77	0x3f03f124	0.51539826
78	0xbd8f555f	-0.06998705
79	0xbdbcf6e8	-0.09226781

sequential/dense_1/MatMul;sequential/dense_1/Relu;sequential/dense_1/BiasAdd f4 [16]
0	0xbe7a4e7a	-0.24443999
1	0xbe3ab566	-0.1823326
2	0x3df1c0f6	0.118043825
3	0x3f5ae540	0.8550606
4	0x3e2dbd3b	0.16966717
5	0xbe7fc2ec	-0.249767
6	0x3f1e76bb	0.6189992
7	0xbe87c4c1	-0.265173
8	0xbec9bb62	-0.39400774
9	0xbda62add	-0.08113644
10	0xbdaa161a	-0.08304997
11	0x3dd2fa8a	0.10301693
12	0x3d4169b6	0.047219954
13	0x3e2d8cda	0.16948262
14	0xbebf9188	-0.3741572
15	0xbdc880a6	-0.09790163
