scripts/models/capture_25x_1,5x1m_16x16_model_no_quant.tflite (tflite, 4252 bytes, 7 tensors)

dense_55/bias f4 [5]
00000000: 5bd5 0bbf e349 c03e f859 5dbf e120 dc3d
00000010: 3b86 6d3f
-0.5462243 0.3755637 -0.86465406 0.10748459 0.92782944

dense_54/bias f4 [16]
00000000: 3f95 97be 76b5 133d fa2a 813f 61a8 30be
00000010: 570d f53c 36dc 32be 31be 343e 60be d03e
00000020: f0c3 313e 4696 333f 005d 2e3e aada ed3d
00000030: 4c91 ae3f d4c3 86bc d485 13be 76c7 3dbe
-0.29606053 0.036061727 1.009124 -0.17251731 0.029913587 -0.17466816 0.17650677 0.40770245
0.173599 0.70151174 0.17027664 0.116139725 1.3638091 -0.0164508 -0.1440652 -0.1853312

sequential_13/dense_52/MatMul f4 [6, 6]
00000000: da1f 803f a848 613e 5e76 c9bf 1c4f b9bd
00000010: 57de c93f 466e 6fbf ebfb 193f b81b abbf
00000020: 400a dd3e c9fc c6bc 3dd1 3d3e a0f6 663f
00000030: 446b 38bf 6b1f 1940 1fd4 a7bf af75 4abe
00000040: e659 273f aca6 06bf 36e0 4cbd 1e65 6d3f
00000050: 279e 6abe a013 c0bc 90eb 4dbf d0bd a4be
00000060: 5205 99be 9446 f1bf 3f19 0540 6c07 0d3e
00000070: 2b4a 6f3f d8f3 25bf 682c 783f 4b39 a43f
00000080: 91ab 8f3f 7916 56be f5f9 c9bf 4c71 6cbf
1.000972 0.22000372 -1.5739248 -0.09048292 1.5770978 -0.9352764 0.6015002 -1.3367834
0.43171883 -0.02429046 0.1853685 0.9022007 -0.72038674 2.3925426 -1.3111609 -0.19771455
0.6537155 -0.5259807 -0.05001851 0.9273242 -0.22911893 -0.023446858 -0.80437565 -0.32176065
-0.29886872 -1.8849664 2.079666 0.13772362 0.93472546 -0.648252 0.9694276 1.2829984
1.1224233 -0.2090701 -1.5779406 -0.9236038

sequential_13/dense_53/MatMul f4 [16, 6]
00000000: 1217 bdbe 1cb5 41bf f61d 553f 5027 c03e
00000010: 9747 d6bd 9fda e63e 4b4d 37bf c5d7 393e
00000020: 8cca aebe 4234 d3bd cd46 903e 6987 b0be
00000030: c46c 123f 09c2 ae3e fbbd 993d c9d3 90be
00000040: d2c4 b3bc 6820 b7be 436c 673f da0a d23e
00000050: e4c5 34bf 2d89 2c3e 8334 b2be 4929 f03e
00000060: 607c 513f 2cad 51bb bd13 9ebe 3240 66be
00000070: 4a7b c43e 2bdb 843d 06b3 fdbd 25db 283f
00000080: cca3 9cbe e77a b9be 84ad c8be 0a4d 15bf
00000090: 9f28 363e 4a8f 9d3d 616d 3d3e 141d 48be
000000a0: 81eb 1dbf 5d1c c73e 31ba fc3e 7ff3 963c
000000b0: cab4 183f 469a bdbd 1255 723f d9d6 95be
000000c0: 155b 6e3e f1ad 80be 6cad 283f ddca 31bd
000000d0: e8d8 d43d f694 713e a8d0 143f a9b4 2b3e
000000e0: 9203 61be 9747 103e 0e4b bcbe 6243 913d
000000f0: 8bee 8dbe 3cdc 563e df7d aabe 664f a7be
00000100: 1d98 7f3f 5caf 153e 91b1 b33e 6fa4 5abd
00000110: c238 7cbe 79d7 9cbe e92b 35be 1e8f 7f3e
00000120: 6da0 31bf c81b 063e c84b ccbe 8af6 953e
00000130: 0691 dabe fc7d 1f3f 97c2 bebd 78ef 86be
00000140: a033 4d3f 1d7f ca3e e3e1 44bf 3cf7 133f
00000150: 69ac 2d3f b8b5 353e 41e6 cbbc 0655 da3e
00000160: ba41 a03e e939 e83e 339b d83e f48d a0be
00000170: 44d5 86ba 2b85 003f 3a3f 11be 64d8 f8bc
-0.36931664 -0.75666976 0.8324884 0.37529993 -0.104628734 0.4508867 -0.71602315 0.18148716
-0.34138906 -0.10312702 0.28179017 -0.3447831 0.57197213 0.34132412 0.07506939 -0.2828658
-0.021944437 -0.35766912 0.9039957 0.41023904 -0.7061446 0.16849203 -0.34805688 0.46906498
0.81830406 -0.0031994088 -0.30874434 -0.22485426 0.38375312 0.064871155 -0.12387662 0.6595939
-0.30593717 -0.3622658 -0.39194882 -0.5832068 0.17788933 0.07693346 0.18498756 -0.19542342
-0.61687475 0.38888827 0.49360803 0.018426655 0.5965086 -0.09257941 0.94661057 -0.29265478
0.23276933 -0.25132707 0.6588962 -0.043406356 0.10392934 0.2359198 0.58130884 0.16768135
-0.21974018 0.1408981 -0.36776012 0.070929304 -0.27721056 0.2098245 -0.33299157 -0.32677764
0.9984148 0.14617676 0.3509641 -0.053379472 -0.24631026 -0.30633143 -0.17692532 0.24956939
-0.69385415 0.13096535 -0.39901567 0.29289657 -0.4268877 0.6230161 -0.09314459 -0.26354575
0.801569 0.39550105 -0.76907176 0.57799125 0.678412 0.17745101 -0.024890067 0.42642993
0.31300145 0.45356682 0.42305908 -0.31358302 -0.0010286947 0.502032 -0.14184275 -0.03037662

sequential_13/dense_54/MatMul f4 [16, 16]
00000000: 7c94 f5bc 836b 083e 5289 80be 3de2 fcbe
00000010: 592b c63e 924d 53bf 05f5 babe c8c1 513e
00000020: 3953 b23e b00b 033d 427b 613f 9a46 863e
00000030: 7bce cb3e 7028 dfbe 4d9f 4cbe 8000 54bc
00000040: 46cc 6dbd 2d06 b7bd b1d1 cf3d bcf7 b0be
00000050: 24ca d9bc 26c8 debe 1188 89be 0ef1 5b3e
00000060: 2b53 b73e a48a d43e d842 9bbe 37e2 e93e
00000070: 4c2c 323e 43e0 be3e fdc8 d83e 3d74 cebe
00000080: be6c b93e f51d d03e c083 ec3e 4402 b6be
00000090: 224a 8bbe 722c 6e3e 176e 9cbe 94a6 adbd
000000a0: bc44 243d b85f 903e edec 64be 20a7 a2bd
000000b0: 077d c23d c2ae 02bf 262e debc 0f2b dabe
000000c0: 447f c5bc f0f4 43be ba82 cebd a72f c3bd
000000d0: 5fa9 953e cf05 9ebe 8932 a33c 9d0b 8d3e
000000e0: 557e 513e a9af b13e c51c 033e 42e2 47be
000000f0: df4c 9ebe ba04 8c3d ce22 77bc 56af e03d
00000100: 038b af3e c69a febe f7a8 153e a7c3 5c3e
00000110: d845 85be 7641 033d 0a94 efbd dd28 a5bd
00000120: b3b9 34bd fba3 a93e 742a 863e 6f9c d6bb
00000130: 6412 a9bc 9782 d53e 6fc3 3c3e 7385 aebe
00000140: e337 a43e cc3c c1be 44cc 003d 3e62 fabc
00000150: 99f9 a9be 4443 54be 8205 60be 7793 843e
00000160: 8e7b 75be f492 47be 9de7 3c3e ff1c 7abe
00000170: 2d23 e4be 9ee4 683e 2898 c83e f8af a6bd
00000180: a6a8 b33d e3ee 1d3e 423d 44be c272 ce3d
00000190: e3d6 ec3e eada 223f db9b 063e 7598 453f
000001a0: 00ed dbbd 1e81 5fbe 598d 66bd bb43 b23e
000001b0: 0a0c b1bc 9403 4dbf d0bb 613c 713d e8bd
000001c0: 15a4 893e b48a 2cbe 1b64 b43d c2a1 e53e
000001d0: 0d2c 3a3e 208f e2be e2f4 33be 1e60 303d
000001e0: a8ae 30be a18b 47bd 0528 3abe 64f0 d4be
000001f0: fa02 d13e 156f 823e 4aa3 6f3c 5e8a 7c3e
00000200: 887b 763e 9aae afbd cd34 bb3e 8fcd 27be
00000210: 0a77 cbbd 0a5f a93e 8ce5 f5bd c0f1 b03d
00000220: 053c 7abe 459a 8fbe 858d 00bf e9b6 213e
00000230: 4fac b5be 5b35 b33e b718 04be e560 893e
00000240: 5941 74be d220 d93e e060 31be 9732 ebbd
00000250: 31e2 39be 37d0 603e 929d 3d3e f8b1 bb3e
00000260: a807 873e e08d 8d3e 39c2 cbbe e18b dabe
00000270: 414e 5a3e 4a47 6bbe 1534 c23e 4b6d f2be
00000280: 6f50 9a3f 6f2e 033f 7d74 55be fadf 543f
00000290: 6619 3d3f 2cf6 43be 5883 0a3f 7515 01be
000002a0: 8410 09be dc58 a23e 3c54 373f 1307 97be
000002b0: cb07 d93e b217 5c3f 938b 93bc c538 a0be
000002c0: 1692 2e3f 38de 74be 91a1 6bbd d496 a43d
000002d0: 1fbd 133e aa14 bebe 0170 293e bd8b b0be
000002e0: 1975 39be 7482 2dbe d0af 2d37 1711 a2be
000002f0: 38ad 81bd b415 59bd 1711 b83e b129 073d
00000300: 964b 353e be96 24bf 45be d2be 6558 03be
00000310: 2405 273e 81f4 fa3e 7b37 9d3e 46ce e6be
00000320: 8704 7dbe 514b 2e3e e129 8fbe a65f 5b3e
00000330: 6397 8dbe 1737 bc3e a210 a2be 0d5f 32bb
00000340: 3475 2d3e 77ca c13e e0ff 553c a2f2 003e
00000350: 7ed2 b8be 3f92 cabe bc58 8dbe 1f74 d0be
00000360: 02f0 90be c3e0 963e f7b3 e6bd 502b 253e
00000370: 6d0f 69be 3ea1 a8be 818f 45be 8355 cbbe
00000380: 69fb 5c3e 60d9 353e 4354 0e3e 9c4c 86bd
00000390: 591b d73e ba5d 91be 4112 b7be 9019 b93e
000003a0: b767 20bd 0c63 d63e 4879 e0be e894 82be
000003b0: 75d5 6ebe d2d6 ad3d bdce 48be eabf d1be
000003c0: f53f 9b3e 9bdc 943e 0490 0b3f bf06 563d
000003d0: a229 9cbc 8902 403e 0dc9 8fbe 1253 5a3f
000003e0: a721 adbe 7d1a 073e bf87 593e ad08 ccbe
000003f0: 2690 51bf 6d05 723e a244 25be cf18 803e
-0.02997803 0.13322262 -0.25104767 -0.49391356 0.38704947 -0.8254024 -0.3651506 0.20484078
0.3482912 0.031993568 0.880787 0.2622574 0.3980597 -0.4358554 -0.19982643 -0.012939572
-0.05805614 -0.08936725 0.10147417 -0.34564006 -0.026585646 -0.43512076 -0.26861623 0.21478674
0.3580564 0.41512024 -0.30324435 0.456804 0.1739971 0.37280473 0.42340842 -0.40323058
0.36215776 0.40647855 0.46194267 -0.35548604 -0.27204996 0.23259142 -0.30552742 -0.08479038
0.040104613 0.28198028 -0.22356005 -0.07942033 0.09496503 -0.5104791 -0.027121615 -0.42610976
-0.024108537 -0.19136405 -0.10083528 -0.09530573 0.29230782 -0.30863807 0.019921558 0.27547923
0.20458348 0.3470433 0.12803943 -0.19519904 -0.30918023 0.06836839 -0.015083982 0.10970943
0.34285745 -0.49727458 0.14615236 0.2155901 -0.2602985 0.03204485 -0.11698158 -0.08064435
-0.04412241 0.3313292 0.26204264 -0.00654941 -0.020638652 0.41701195 0.18433927 -0.3408619
0.32073888 -0.37741697 0.031444803 -0.030564424 -0.3319824 -0.20728785 -0.21877101 0.25893757
-0.23972914 -0.19489652 0.18447728 -0.24425124 -0.44558087 0.2274346 0.39178586 -0.08139032
0.087724015 0.1542316 -0.19163993 0.10080482 0.46257696 0.63615286 0.13145392 0.77185756
-0.107385635 -0.21826598 -0.056287143 0.348173 -0.021612186 -0.80083585 0.013777688 -0.11339844
0.26882997 -0.16849786 0.08808156 0.44849974 0.18180867 -0.4424982 -0.17573884 0.043060414
-0.17254126 -0.048717145 -0.18179329 -0.41589653 0.40822583 0.25475374 0.0146263335 0.24662158
0.24070561 -0.085782245 0.3656372 -0.16387008 -0.09934814 0.33080322 -0.12006673 0.0863986
-0.24436958 -0.28047386 -0.5021594 0.15792431 -0.35483024 0.35001644 -0.12900053 0.26831737
-0.23853053 0.42407852 -0.17322111 -0.114842586 -0.18152691 0.21954428 0.1851714 0.36659217
0.2637303 0.27647305 -0.39796618 -0.42684844 0.21318914 -0.22976413 0.3793036 -0.4734901
1.2055796 0.5124273 -0.20845218 0.8315426 0.7386688 -0.19136876 0.54106665 -0.12605841
-0.13385206 0.3170842 0.71612906 -0.29497585 0.42388758 0.85973656 -0.01801089 -0.31293312
0.6819166 -0.23912895 -0.05752713 0.08036581 0.14427613 -0.3712514 0.16546632 -0.34481612
-0.18111075 -0.16944295 1.0352538e-05 -0.31653664 -0.06331867 -0.052999213 0.3595054 0.032998744
0.17704615 -0.64292514 -0.4116079 -0.12826689 0.16310555 0.49014667 0.3070639 -0.4507925
-0.24708758 0.17020918 -0.2796164 0.21423206 -0.2765456 0.3676078 -0.31653315 -0.00272173
0.1693924 0.3784978 0.013061494 0.12592557 -0.36098093 -0.39564702 -0.2760676 -0.40713593
-0.2830811 0.29468355 -0.11264794 0.16129804 -0.2275979 -0.32935518 -0.19293024 -0.39713678
0.2158028 0.17758703 0.13899331 -0.06557581 0.42013052 -0.2839182 -0.35756114 0.36152315
-0.03916141 0.41872442 -0.4384253 -0.2550423 -0.23323615 0.08488239 -0.19610114 -0.4096673
0.30322233 0.2907456 0.54516625 0.052252527 -0.01906282 0.18750967 -0.28083077 0.85283005
-0.33814737 0.13193698 0.2124319 -0.3985037 -0.8186058 0.23634882 -0.16139463 0.25018927

sequential_13/dense_55/MatMul f4 [5, 16]
00000000: c06b db3e 305c e63e cdda 25bf 18cd 08bf
00000010: f504 9d3e b632 bb3d ab83 dcbd 5e55 02bf
00000020: 4147 c53e 17dc 873d a174 18be c159 2c3e
00000030: 277e 10be afb0 a53e a087 05bf f71e 753e
00000040: 57af 42bf 573f 2f3f 92b0 133f a696 873d
00000050: 2a8e 38be 47d6 e5be 0b1d 423f d1d8 453f
00000060: 1484 a0be 27c1 243f 94e5 a13f 0e69 cd3e
00000070: 0a24 4abf 9dd0 923e 35cc dbbd ff06 e33e
00000080: 818d 8a3b b9d1 e43e d5bc 77bf c229 b8bc
00000090: 1045 c33e 3172 5bbe 1600 e6bd 2bbb eebe
000000a0: bd48 06be 97d2 9abf 2737 7dbf 117c dfbd
000000b0: 9867 863e 3027 00be fe30 d03e bee3 e9bd
000000c0: f0e5 a3be a13e 06be 935f e3be 6734 98be
000000d0: df73 253d d2cb 79be e468 f1be fa98 6f3e
000000e0: 2c34 dc3e 37aa ffbd 61ad 803f 0e0c a9bd
000000f0: fc48 9b3f 0c3d 043e 2dbc e3be 19e9 71bf
00000100: 0759 5b3f 501b 433e 5949 813f 2381 f43e
00000110: db3b 15bf 9e5a bfbe 0ff7 2a3f f158 393e
00000120: a71f d53e 4205 3c3f 2e4f 6abf 0e45 0bbf
00000130: aec4 debd 614a ad3e 774d cb3e e5ec c13e
0.42855644 0.44992208 -0.6478699 -0.5343795 0.30667844 0.09140532 -0.10767301 -0.5091151
0.38530925 0.06633776 -0.1488824 0.16831113 -0.14110623 0.3236136 -0.5216007 0.23937593
-0.760488 0.68456024 0.576913 0.06620531 -0.18022981 -0.44890043 0.75825566 0.7728396
-0.31350768 0.6435723 1.2648187 0.40119213 -0.7896124 0.28674784 -0.10732309 0.44341275
0.0042282944 0.44691256 -0.9677251 -0.02248085 0.38138628 -0.2143028 -0.11230485 -0.46627173
-0.13113685 -1.2095517 -0.9891228 -0.10912336 0.2625091 -0.12514949 0.40662378 -0.114203915
-0.32011366 -0.13109829 -0.44408855 -0.2972748 0.040393706 -0.24394158 -0.47150338 0.233982
0.43008554 -0.12483638 1.0052911 -0.082542524 1.2131648 0.12913913 -0.44479504 -0.94496304
0.8568272 0.19053388 1.0100509 0.47754773 -0.5829446 -0.37373823 0.6678323 0.18100335
0.4162571 0.7344552 -0.9152707 -0.54402244 -0.108773574 0.3384581 0.39707538 0.3787605

sequential_13/dense_53/MatMul;sequential_13/dense_53/Relu;sequential_13/dense_53/BiasAdd f4 [16]
00000000: aea6 343c 98e2 9abe fda5 91be 3be9 813e
00000010: 4fe2 1dbf 7f3c 013f 325b 853e bc02 a6be
00000020: 037d 6abc 4d06 db3c 0d6b ffbe 054d c0be
00000030: d97c e93e f3d1 043f 2118 32be 5b15 b3bd
0.011026068 -0.30251002 -0.28446952 0.25373253 -0.61673445 0.50482935 0.2604614 -0.3242396
-0.014312032 0.026736403 -0.4988636 -0.3755876 0.45603064 0.5188286 -0.17392017 -0.087443076
