scripts/models/capture_25x_1,5x1m_32x32_model_no_quant.tflite (tflite, 8140 bytes, 7 tensors)

dense_19/bias f4 [5]
00000000: 0e38 b1be f58f fb3e d198 35bf 62e0 3f3e
00000010: 82e9 c03e
-0.3461308 0.49133268 -0.70936304 0.18737939 0.37678152

dense_18/bias f4 [32]
00000000: f4b8 2cbd ba41 e3bd 6e46 6d3d 7494 fd3e
00000010: 1150 273e cad1 203b 56b2 383e fb5c 69be
00000020: 1bc9 0ebe bf2e d2bd a878 2bbd e160 85be
00000030: 79d8 81bd 9d2a 903e 0000 0000 1802 393e
00000040: 63ac c63e f305 bebd f23f 4a3e b2bb 63ba
00000050: b374 79bd b48c 8a3d 04f6 ca3d e8bc c3bd
00000060: ebb3 3a3e 8017 31bb 5bc3 e1bd c343 523e
00000070: 7b16 f5bd a763 6dbe d37c c43e 1cb1 e43d
-0.042168573 -0.11096521 0.057928495 0.49527323 0.16339137 0.0024539107 0.1803678 -0.22789375
-0.13943903 -0.10262822 -0.041863114 -0.26050475 -0.06340117 0.2815751 0.0 0.18067205
0.38803396 -0.092784785 0.19750956 -0.00086873316 -0.06090231 0.06765118 0.09910205 -0.095575154
0.18232696 -0.0027022064 -0.11023589 0.20533662 -0.119671784 -0.23182546 0.38376483 0.111665934

sequential_4/dense_16/MatMul f4 [6, 6]
00000000: b6c7 95bf a8eb ae3f 6803 a9be 15cf 5d3e
00000010: ccdb cd3e 2147 b6bf adc3 77be d5bf e03f
00000020: 0999 f1bf 4dd0 a4bd 2d35 2c3f d541 7ebf
00000030: bc66 9b3f 6e13 9dbf 62a5 77be 84e0 423e
00000040: ccd3 343f 6844 efbf f93d eabe f2b4 a5bf
00000050: 355f 07c0 b587 b63e da3a 1abe b2c3 fd3e
00000060: 8c24 493f ad23 e73f 9ded 0cc0 bedb 52be
00000070: 4046 08bf 3997 75bd a3af 4abe 6906 9a3f
00000080: 8359 5b3f 9ced 263d c1d4 e4bf 9820 95bf
-1.1701572 1.3665667 -0.3301041 0.21661027 0.40206754 -1.4240457 -0.24195738 1.7558542
-1.8874828 -0.08047543 0.6726864 -0.993192 1.2140727 -1.2271554 -0.24184182 0.19030958
0.70635676 -1.8692751 -0.45750406 -1.2945845 -2.115186 0.3565041 -0.15061513 0.49563366
0.7857139 1.8057762 -2.2020028 -0.20591637 -0.53232193 -0.05995867 -0.19793563 1.2033206
0.8568346 0.040753946 -1.7877427 -1.1650572

sequential_4/dense_17/MatMul f4 [32, 6]
00000000: 0753 9cbd 6d1a d13e 2f73 a6bd a330 ee3c
00000010: b3e5 c03e 3c11 8abe d410 c8bd 4c96 fa3d
00000020: 6d2a b33e a9b2 383e 26e6 25be a040 e8bd
00000030: 7b0f 6ebe 2f85 f73e b57a 343f ba1d fdbe
00000040: 8ffc d43e 0126 9a3e a955 c63d 197f 7dbe
00000050: 2df2 4dbe bc26 04be af85 993e f1ff 9cbe
00000060: afd1 42be 04ba e9bc 8dc9 e83c 04e3 3e3d
00000070: 4a8d b53e 49e5 6c3e 46b8 8dbb b406 353e
00000080: bfb5 373d 0b6b b13e 9e79 dfbd 7848 f1be
00000090: 7e38 ed3e 5a5f 7d3e 65bc 293f 28c4 b73e
000000a0: 8311 9e3e dcb6 403e 4287 b9be 085b 8dbe
000000b0: ae10 93be 67ce 9f3e 94c9 063d abe8 853e
000000c0: 324c 30bf 94a8 18bf 5001 d53e 5e8f 263f
000000d0: 78b0 37be 1553 37be be65 b0be 5e50 623e
000000e0: 5991 a6be a85e 2fbe d138 b2bd 4d28 afbe
000000f0: deaf 933e c75f 053f 9795 823e 134c 8f3e
00000100: 0ac9 733e decb ee3e 9dc6 bebe 63ed 70be
00000110: 981b 793d e95f be3d 3678 14bf dbff 0e3e
00000120: e935 163f 4b9d 7b3e 0676 7dbf 7a79 8e3d
00000130: 2aca f93e d0d7 0f3f 8499 dabe f5c4 be3e
00000140: a2c1 86be 5744 45be 98f9 383e ed00 d0bd
00000150: 66f1 8fbe 68fc cb3d 999f 0e3f 749d 793d
00000160: b692 22be 1170 93bd e34e 2ebf df62 d3be
00000170: 7caa 2dbf 476e ee3e e8e7 a13e 7b6c 00bf
00000180: 0327 d8bd 9af3 39bd 5882 a2be a0a4 b3bd
00000190: cc83 0d3e 3552 04bd 929e 9e3e ff60 973e
000001a0: 6350 f03e 9ff0 87be 78e2 303c 8135 b23e
000001b0: 8087 29be 5337 5bbe c949 713c 808c 693e
000001c0: 2721 373e 9b39 45be 1ea5 f1be 364f 393e
000001d0: e838 31be 0f99 6bbe be1f 873e 8f15 5f3e
000001e0: 126b 503d eaed 8cbd 71d0 5ebe 0497 d2be
000001f0: 00aa 4db9 7a2b dfbd 6739 d9be 446b 42be
00000200: dbf1 f0be c2e1 ed3d d6e2 763e fb31 e3be
00000210: 5b76 643e 388e 56bd b809 03bf a553 223d
00000220: 481e 8fbe 7256 0e3f 8291 0abe 4ea9 b83e
00000230: 765e 77be d3c0 ec3e 8130 1f3f 1841 7bbe
00000240: bc08 d6be bafd 51be 4187 243f 4119 2cbe
00000250: ba1b d73e 798e 903d fdef 2d3e 4e0b f23d
00000260: fd2f 923e cbae 5bbe b2ea 1ebe 96c6 a4be
00000270: 32b7 b7be abc0 3cbe 1216 71be ca78 1e3e
00000280: c89f a83e 0a26 b7be 5adb 09bf 4427 8cbe
00000290: 6625 383e 803c 8cbe 1a29 5e3e 154b 5bbe
000002a0: 7e83 0cbe 075c c03e 7f67 013f 739f 5e3f
000002b0: 1c57 273e e7f3 de3e 2bf4 3e3e 9d33 303f
000002c0: 64af 5bbe 3457 2bbf d755 363f 5036 bb3e
000002d0: 593d 743e 6f9a 56bc ecef 8fbc fac9 0a3d
000002e0: 3ec0 ee3d dc91 26be 9479 36be 02e2 2d3e
000002f0: 02a5 06be e858 303f 8516 aabe 0aaa 1c3e
-0.07633024 0.40840474 -0.08127438 0.029075926 0.37675247 -0.26966274 -0.09768835 0.12235698
0.34993306 0.18036903 -0.16201076 -0.11340451 -0.23248093 0.483438 0.70499736 -0.49436742
0.41598937 0.3010712 0.09684307 -0.24755515 -0.20111914 -0.12905401 0.29984805 -0.30664018
-0.190253 -0.028531082 0.02841642 0.046603218 0.35459358 0.2313434 -0.0043249456 0.17678338
0.04485106 0.3465198 -0.109118685 -0.47125602 0.46332163 0.24743405 0.6630309 0.35891843
0.30872735 0.18819755 -0.36236006 -0.27608514 -0.28723663 0.3121216 0.032907084 0.26154074
-0.68866265 -0.5963223 0.41602564 0.6506251 -0.17938411 -0.17902787 -0.34452623 0.2210097
-0.32532766 -0.17125952 -0.08702243 -0.34210435 0.28845114 0.5209927 0.25504753 0.27987728
0.23807159 0.46639913 -0.37260905 -0.23528056 0.06081733 0.09295637 -0.5799593 0.13964789
0.5867601 0.24571721 -0.99008214 0.069567636 0.4878705 0.5618868 -0.42695248 0.3725964
-0.26319605 -0.19264351 0.18063962 -0.101564266 -0.2811386 0.09960252 0.55712277 0.060941175
-0.15876278 -0.07199109 -0.6808912 -0.4128637 -0.67838264 0.4656851 0.31622243 -0.5016553
-0.10554316 -0.045398332 -0.3174007 -0.08771634 0.13819808 -0.03230496 0.30980355 0.2956619
0.4693633 -0.26550767 0.010796182 0.34806445 -0.16555595 -0.21407823 0.014727064 0.22807503
0.1788374 -0.19260256 -0.47196287 0.18096623 -0.17306864 -0.23007606 0.26391405 0.21785568
0.05088336 -0.06881316 -0.21759202 -0.4113084 -0.00019613653 -0.10896964 -0.42426607 -0.18986231
-0.4705952 0.116153255 0.24109969 -0.4437407 0.22310774 -0.052381724 -0.51186705 0.03963055
-0.2795279 0.55600655 -0.1353207 0.3606667 -0.24157128 0.46240863 0.62183386 -0.2453655
-0.4180354 -0.20506945 0.6426888 -0.16806509 0.4201334 0.070584245 0.1698608 0.118185624
0.28552237 -0.21453397 -0.15519217 -0.3218276 -0.35881954 -0.18432872 -0.23543575 0.15475765
0.32934403 -0.3577121 -0.5385033 -0.27373707 0.17983016 -0.27389908 0.21695367 -0.2141536
-0.13722035 0.3757021 0.5054855 0.8696205 0.16341823 0.43545458 0.1864783 0.68828756
-0.21453625 -0.66929936 0.7122473 0.36564875 0.23851527 -0.013098343 -0.017570458 0.033884026
0.11657761 -0.16266578 -0.17819816 0.16980746 -0.13148883 0.6888566 -0.33220306 0.1529924

sequential_4/dense_18/MatMul f4 [32, 32]
00000000: 092d 99bb f6a3 fa3d be41 6bbe 9239 373e
00000010: 2461 e73c 6bf5 913e 8d80 55be 3ac5 b53d
00000020: 2b2b 66bd dfe4 d43d 3541 17be 8156 7e3e
00000030: dc69 073e d192 f1bd 0ae1 af3e fb58 803e
00000040: 41f7 23bd ed39 893e be43 5f3e 4504 84bd
00000050: 7a34 e8bd 04eb 45be bdb1 0bbe c7c6 8bbe
00000060: dc7a 56be 9a1c b03e 89d3 763e 9c57 1bbd
00000070: 6e36 d3be 13f8 aebe 929b 7bbe 2726 88be
00000080: 3214 543e 948f 8b3e 1148 653e c0f6 4cbe
00000090: 9031 9fbc 0de8 fd3c 5fe2 31be 9af8 c3bd
000000a0: 3ab3 313d 840e 453e bb47 ac3d 9442 853d
000000b0: 5797 573e 1d8d a23d 5b9f ecbd b3a9 eb3c
000000c0: 684e 763e ed5e 923d 0e1c 0ebd a273 99bd
000000d0: 418b 433e 51c0 033e 66f7 59be 00a6 3f3c
000000e0: d13b 713e f6a1 543c e77d 273e 97ed 66bd
000000f0: ea9a 4bbe 375d dabd b413 133d 0bd9 5abe
00000100: 0728 b23e 8e8b 463d a409 a9bd 0ff6 883e
00000110: 0b15 a73b 61a0 1bbe b913 babe 4f02 f23b
00000120: 660e 823b 8d41 7bbe 1e4a 143e f128 c3be
00000130: e0e5 d13c bd03 d23d 8fec 8dbe 4524 31bd
00000140: 5572 8bbd 3cbc c8ba 6cf5 20bd 2675 c33d
00000150: 9dc9 9fbe 212e 993e 96c9 a8bd b0da 043f
00000160: 4b53 ecbd 5aff 3ebe dfab 553b c7c4 8a3d
00000170: ea60 3bbe ca3d c3be 6819 a2bc 9064 49be
00000180: bb4a b4be 4d54 f03e 814f 15bf 6af5 943e
00000190: 84a2 d23d ab89 e33e e2e4 b9be a325 373e
000001a0: c1ec 96be 87d3 843d 2efa bcbe 090c 703e
000001b0: 1f15 21be 3bfc 2f3e 33f7 a83e be3f 9c3e
000001c0: 19ba 433e db86 773d ee88 273e a694 dc3c
000001d0: 8fda c8be 8ec7 4d3e 4e64 eebe f342 123e
000001e0: b831 adbe 6110 583e 7f27 5dbe 4099 cabc
000001f0: e7ca 32be 7f95 99be 2cc7 15be 8d4c e83e
00000200: 8508 0f3e 6bf2 1abd 1966 92be e3c5 3f3d
00000210: 96c8 353e 4965 ea3d 1ea0 333e 6a02 2a3e
00000220: 41c0 28be 9bc9 4cbe 0008 3bbe 7013 0fbe
00000230: 059a c9bd 1aec a1be b906 d53d c22d cb3e
00000240: fb57 90be 49d1 c83e b92f 12bd c4c0 333e
00000250: a5eb 53be fed0 36be a5c7 833e 5c2e 933e
00000260: 176f 193e d340 afbd 3c02 ba3c e87f 0e3e
00000270: 37eb f23d 2e04 99be 1310 85be 3137 8a3e
00000280: bae2 8e3d ff77 0ebe 0685 96be 2b94 11be
00000290: 6d4b 933e 0c20 c73d d5cd fa3d e5a9 78bd
000002a0: 3b40 473e 7b9a ba3d 8c42 45be 90f3 8fbd
000002b0: 8cdc 12be 74ff 6ebe 8f8b d6bd 02aa cb3d
000002c0: 1e58 33bd bc25 8c3d 841b 80bd 3608 9c3d
000002d0: 7030 47be ecfc 803d e137 193d dea2 633e
000002e0: 6c30 adbd bb3f 4cbe 9911 be3d 97be bebd
000002f0: 0c56 2abe d1d9 8c3e 22b6 90bb aa4c e8bd
00000300: 9ee7 513e 2533 0a3e 527f c9be 8538 0f3e
00000310: 2406 e23d d444 023e c382 07be 85f0 70bd
00000320: 2ded b7be 13cb d2bc dafa 283e 5cbf b23e
00000330: ab0b 393d 4530 09be df34 483e 6df2 b43e
00000340: 977d 2e3e ba44 633e 51ec 113e 4cc2 9abb
00000350: 934f 243e d157 03be 4d7e 8c3e ea5a 4ebe
00000360: 04b5 86bd 9fdf 42be 8ca0 373e 098b 0a3d
00000370: a63b 66bd db49 a7be 2373 f4bd e11b 863e
00000380: daf1 63be 7a5e 94be 1337 ed3d db73 b8bd
00000390: 4422 323e 71af 0f3d 1ec0 723e 48a0 553e
000003a0: 92ba 56be 6f94 4c3e 696b 15be 825e a23e
000003b0: a5bc b7be e38a 743e cce3 d5bd c66e a33d
000003c0: e69c 293e ae02 eb3c 57fb 7dbe 5c15 c7bd
000003d0: 60a1 a93e 3475 723e ad76 3f3e 5d52 7fbc
000003e0: c667 493e cd2f 2ebe 322e 87be 9386 933d
000003f0: 2f45 31bd 7b6a b7bc eb58 473e 5ef8 47be
-0.004674558 0.12238304 -0.22974297 0.17893055 0.028244562 0.28507552 -0.2084982 0.088755086
-0.056193512 0.10395216 -0.14770968 0.24837686 0.13223976 -0.11795581 0.3435138 0.25067887
-0.04003072 0.26802006 0.21803185 -0.06446127 -0.11338134 -0.19327933 -0.1364202 -0.27300093
-0.20945305 0.3439682 0.24104132 -0.037925348 -0.41252464 -0.3417364 -0.24571064 -0.26591608
0.20710829 0.2725798 0.22390772 -0.20016003 -0.019432813 0.03099444 -0.1737151 -0.09568901
0.043383814 0.19243819 0.08412119 0.065068394 0.21053825 0.079370715 -0.11553832 0.028767442
0.24053347 0.07147012 -0.034694724 -0.07492758 0.1909609 0.12866332 -0.21285781 0.011697292
0.23557974 0.012978068 0.16356622 -0.056378927 -0.19883314 -0.106623106 0.035907462 -0.21371858
0.34796163 0.048472933 -0.08253792 0.26750228 0.005098944 -0.15197898 -0.36343172 0.007385529
0.0039690016 -0.24536724 0.14481398 -0.38117173 0.025622308 0.10254619 -0.27719542 -0.04324748
-0.068089165 -0.0015314887 -0.039296553 0.09543829 -0.31208506 0.29918006 -0.082415745 0.5189619
-0.115393244 -0.18652096 0.0032603664 0.067758135 -0.18298689 -0.3813308 -0.019787505 -0.19667268
-0.35213265 0.46939316 -0.5832444 0.29093486 0.10284904 0.4444097 -0.36307436 0.17885451
-0.29477504 0.06485658 -0.36909622 0.23442091 -0.15730713 0.17186062 0.33001098 0.3051738
0.1911396 0.060431343 0.16360828 0.02692635 -0.39229247 0.20095655 -0.465609 0.14283352
-0.33826995 0.21099998 -0.21597098 -0.024731278 -0.17460214 -0.2999687 -0.1462676 0.45370904
0.13968094 -0.037828844 -0.2859352 0.04681958 0.17752299 0.114451 0.17541549 0.16602483
-0.16479589 -0.19998781 -0.1826477 -0.13972259 -0.0984383 -0.31625444 0.10401673 0.39683348
-0.28192124 0.39222172 -0.035690043 0.17554003 -0.2069536 -0.17853162 0.25738254 0.28746307
0.14983784 -0.08557286 0.022706144 0.1391598 0.1186127 -0.29886 -0.25988826 0.26995233
0.069768384 -0.13912962 -0.29398364 -0.14216678 0.28768483 0.09722909 0.122462906 -0.0607089
0.19458096 0.09111496 -0.19263667 -0.07028878 -0.14341944 -0.23339635 -0.104758374 0.09944536
-0.043785207 0.06843135 -0.06255248 0.076187536 -0.19452071 0.06298241 0.037406806 0.22230098
-0.08456501 -0.19946186 0.092807 -0.09313696 -0.16634387 0.2750993 -0.004416243 -0.113427475
0.20498511 0.13496073 -0.3935495 0.13986404 0.110363275 0.12721568 -0.13233475 -0.058823127
-0.35923138 -0.025731599 0.16501942 0.3491162 0.045177143 -0.1339732 0.19551419 0.35341206
0.17040096 0.22194186 0.14250304 -0.004722869 0.1604598 -0.12826468 0.2744011 -0.20151868
-0.06577495 -0.19030617 0.17932338 0.033824 -0.05620923 -0.32673535 -0.11936023 0.26193145
-0.22260228 -0.2897833 0.1158277 -0.09006473 0.17395884 0.035079423 0.237061 0.20861924
-0.20969608 0.19978498 -0.14591755 0.3171273 -0.35886112 0.23881106 -0.104438394 0.07980113
0.16563758 0.028687801 -0.2480291 -0.09720871 0.33130932 0.23677522 0.18697615 -0.015583602
0.19668493 -0.17010422 -0.26402432 0.07203402 -0.04327887 -0.022389641 0.19467513 -0.19528338

sequential_4/dense_19/MatMul f4 [5, 32]
00000000: 3980 a3bd 4ea4 7b3d 2b3a fe3d 9bca f23d
00000010: 9905 1cbd bd7c 76bd 1021 a2bd 5ca6 d23d
00000020: a248 053d bd3e 7bbd fbb8 36be 058a 3ebd
00000030: 890c c93e 4a1e 02bf 9c3a b83e 55d3 d4be
00000040: 59f7 30be 8667 9abe 9fa8 273e 7ae6 b73d
00000050: 94a7 29bd e7fd 123d 8b72 abbe c7d1 9bbe
00000060: 6f22 6fbe c6c7 d3bd cbcc 18be cabd dbbe
00000070: 2260 aa3e 8d43 883d b0ad cfbe 2528 03bf
00000080: a637 613e 02e6 2c3d 5352 f7be 2cf1 6f3f
00000090: 58d8 f33d a047 573e 3494 a63e 66f5 bdbe
000000a0: 594e 17bf dbb9 b93d 6217 b3be dea7 11bf
000000b0: 9e1b fd3d 5f08 3b3f 4809 98be 05e6 c23d
000000c0: d33f b4be d418 acbd d87e e43e a2ab 64be
000000d0: eeb0 263f 0224 383e 9a52 183e 4bd1 a23e
000000e0: c8f3 17bc 4091 ad3e 14cd abbd 35d7 8e3e
000000f0: 0728 18be 3b3c 76be 3c48 bc3e 49b5 c83e
00000100: 1254 acbe 6c36 c53e 4dcd bd3e 48fe f6be
00000110: d4a1 28bf 3081 ff3c a2e6 0dbf e5de b13d
00000120: 5a41 943e f136 133e bc7c 8cbe 42e2 6c3e
00000130: a4c4 363c c408 8ebe 2a60 a0be 36c1 3cbf
00000140: 8184 853c ec66 a6be c676 02bf d958 913e
00000150: 0575 1a3e fb11 c2be e040 53bf 13d8 183e
00000160: 745c 40bf 7530 b3bd 0810 9d3e de23 cdbe
00000170: 0694 a53e 431e a43e 7839 ccbe 3a11 0fbf
00000180: b7f1 0ebf 0318 56bd f2eb c63e 1383 40bf
00000190: 6121 18be a2cc fb3c 4f05 2fbe 556a 593e
000001a0: 2b84 003d 39f0 5dbd d1cd 8abe 50b5 d73e
000001b0: c701 d13e c6eb 273f 487b 0ebd 31a9 993d
000001c0: e175 813e fcc1 80be 68ff 0c3e 9f50 0abb
000001d0: 6b1c 94bd bfca 803d 8b84 443f 3201 05be
000001e0: b06d 84be 5470 c2be ab28 9cbe 02b4 30bf
000001f0: 3620 023f adcc 0dbe 4bf4 56be f1b1 683f
00000200: 7de8 6ebe 7ca8 783e c90e ccbe d6f5 093f
00000210: 8a77 9e3e e872 7f3e a9a3 0f3f a512 a53e
00000220: 7081 44bd 6cb9 b13e b5ba 9c3e 330a 52be
00000230: 542f 0e3d a191 9fbe 2207 893e da5e c93e
00000240: 76a3 6f3f 8d8f a2be 5eb1 f03e 83fb 183c
00000250: 0dbd 0fbf ad40 e03d 9b18 dfbd 61c6 41be
00000260: 43e7 303f 9b8e aabe 03a0 c6be a754 593e
00000270: 2970 72be bb79 733d fbbd 5dbe 55e6 1bbf
-0.07983441 0.06143599 0.124134384 0.1185505 -0.038091276 -0.060177553 -0.079164624 0.10285637
0.03253997 -0.06133913 -0.17844002 -0.046518344 0.39267376 -0.5082747 0.35982215 -0.41567484
-0.17281856 -0.30157107 0.16372918 0.08979507 -0.04141958 0.03588667 -0.33485827 -0.30433485
-0.23352979 -0.10340838 -0.14921872 -0.42918235 0.3327647 0.06653509 -0.405622 -0.5123313
0.21993884 0.04221154 -0.48304996 0.93727374 0.11906499 0.21023417 0.32534945 -0.37101287
-0.59103924 0.09068652 -0.34978777 -0.5689677 0.12358783 0.7305965 -0.2969458 0.09516529
-0.35204944 -0.08403173 0.44628024 -0.22331098 0.65113723 0.17982486 0.1487526 0.31800303
-0.009274431 0.3389988 -0.08388725 0.27898565 -0.14859019 -0.24046414 0.3677386 0.3920081
-0.3365789 0.38518083 0.37070695 -0.48240876 -0.6587193 0.031189531 -0.5543004 0.08685092
0.2895611 0.14376427 -0.27438915 0.23133186 0.011155281 -0.27741063 -0.31323367 -0.73732316
0.016298534 -0.32500398 -0.50962484 0.28388098 0.15083702 -0.37904343 -0.82520866 0.14926176
-0.7514107 -0.08749477 0.30676293 -0.40066427 0.32339495 0.32054338 -0.39887595 -0.5588566
-0.5583758 -0.052268993 0.38851887 -0.75200003 -0.14856483 0.030737225 -0.17091869 0.21231969
0.031376045 -0.054184172 -0.2711015 0.42130518 0.40821669 0.65594137 -0.03478554 0.07502974
0.25285247 -0.25147998 0.13769305 -0.0021105183 -0.07231983 0.06288671 0.76764745 -0.12988737
-0.25864935 -0.37976325 -0.30499777 -0.6902467 0.508304 -0.13847609 -0.20991628 0.9089652
-0.23330875 0.24283022 -0.3985503 0.5389074 0.30950576 0.24946177 0.561091 0.32240787
-0.047975004 0.34711778 0.30611196 -0.20511703 0.034713104 -0.31165794 0.26763254 0.39330178
0.93608797 -0.31750146 0.4701032 0.009337309 -0.56147844 0.10949836 -0.10893365 -0.18923332
0.6910288 -0.33311924 -0.38793954 0.21223699 -0.23675598 0.059442263 -0.21654503 -0.60898334

sequential_4/dense_17/MatMul;sequential_4/dense_17/Relu;sequential_4/dense_17/BiasAdd f4 [32]
00000000: 0110 fd3e 333d d33e 1f34 153f 4b1b a4be
00000010: 6c43 dc3d 76f2 5e3e b66e f53e d04a 0d3e
00000020: d7c6 87bd 6b3d 2abe 087c 8b3f 269d bebd
00000030: 1eae 4cbc 297d 843e 08d6 153f 735c 33bf
00000040: af34 9ebe 5e53 f23e 0f22 eabd 2963 a53d
00000050: cf18 c8be 8d35 99be f78c 3fbd 249f 703f
00000060: dd8b 553e 838c dcbe 44d7 83be 53c6 80be
00000070: bf11 903f 6f58 8d3e 2606 3ebe dd70 1e3f
0.49426273 0.4125763 0.58282655 -0.32052073 0.10755047 0.21772179 0.47936028 0.1379807
-0.066297226 -0.16624992 1.0897226 -0.093073174 -0.012492685 0.2587674 0.5852971 -0.7006294
-0.3089957 0.4732923 -0.114322774 0.08075554 -0.39081427 -0.29923669 -0.046765294 0.9399283
0.20854135 -0.43075952 -0.25750172 -0.2515131 1.1255416 0.27606532 -0.18557033 0.61890966
