scripts/models/capture_25x_1,5x1m_16x16_model_no_quant.tflite (tflite, 4236 bytes, 7 tensors)

dense_19/bias f4 [5]
00000000: a070 62bf e1fd 463f c30a 64bf 8124 973f
00000010: 8f2e 3bbe
-0.884531 0.7773114 -0.8907892 1.1808015 -0.1827948

dense_18/bias f4 [16]
00000000: daa6 01be f20f 74be 98cd 5e3e 1b60 f9bd
00000010: bbc1 1e3e 7d74 183f 27eb 343b a2b0 a3be
00000020: 70d1 ddbe 3d79 c2bd 89b2 633f f28e 2ebf
00000030: 9b86 e43e db1d 10bd 147f 09be 40db d13e
-0.12661305 -0.23834208 0.21758115 -0.12176534 0.1550359 0.59552747 0.0027605982 -0.31970698
-0.4332385 -0.094957806 0.889443 -0.6818687 0.44633946 -0.035184722 -0.13427383 0.40987587

sequential_4/dense_16/MatMul f4 [6, 6]
00000000: 346f e3be cbd5 853f 7c9c b6bf 5efc b83d
00000010: 0096 023f faee 94bf 8ca6 d9be 6a50 b53f
00000020: 5128 d0bf 8618 133e 7a7a c73e d41d 8dbf
00000030: ed72 603f 0108 8abf d762 873e 8cdd 4e3d
00000040: fef7 67be f1e3 8ebf c37b 65be 80e7 01c0
00000050: 2e8d f6bf 27c1 923e fe5b 113f 1b76 343e
00000060: 6ac6 cd3e 7e29 ef3f 4c61 f8bf c2a7 95be
00000070: 73db 82bf 50b1 e33d 2283 a6be 57c1 023f
00000080: d0f2 933f 0b5a 523e c03e 9dbf 3a17 79bf
-0.4442078 1.045587 -1.4266505 0.0903251 0.5101013 -1.163543 -0.42509878 1.4165165
-1.6262304 0.14364824 0.3896063 -1.1024728 0.8767536 -1.0783693 0.26442596 0.050504252
-0.22653195 -1.1163312 -0.22410493 -2.0297546 -1.9261835 0.2866299 0.56780994 0.17623179
0.4019044 1.8684537 -1.9404693 -0.29229552 -1.022322 0.11117804 -0.3252192 0.51076263
1.1558475 0.20542161 -1.2284775 -0.97301066

sequential_4/dense_17/MatMul f4 [16, 6]
00000000: d01b 7538 3ab8 60be 575f f83e 02c4 84be
00000010: fdfd 643d 68d3 d8be 2823 1abd dca5 223e
00000020: e1a8 9c3e 7c2b 8d3e 5d12 ab3e f21f 4b3e
00000030: f0ef f8bd 9e2d 7b3d 88c7 ef3e 1bac f4bd
00000040: 8d22 fc3e c5ca 353e e9a4 963e 9c35 13be
00000050: 668b cfbe c8ea be3e db21 13bd 1623 f4be
00000060: e965 34bd 2ed5 bf3e f61c e1be fbb5 673e
00000070: 39e8 fd3e a5c7 79be e603 2abf f453 66bf
00000080: 0574 debe 6929 1ebd e954 b23e 2036 49bf
00000090: 950f bd3e 888b 1c3e 4be2 3c3e cb7e 3b3e
000000a0: a467 db3e 14d5 e2bd 5251 363e 8b45 113c
000000b0: a8a0 df3e 807f 77bd d708 88be 8f35 f1be
000000c0: a588 5fbe 0c63 6abd bced efbe 4f99 e0be
000000d0: b545 443f f446 1a3f 62ac 8fbe 1696 04bf
000000e0: 51d7 20be 8016 e1be fe0b 50bf 111a 863e
000000f0: 8875 c23d 4034 84be 7e02 983e 08c8 e9bc
00000100: a3ae 823e 3e68 52be 3324 c1be f4f1 dfbe
00000110: 51c5 2b3e a902 e8bd e4f4 143f db0a ae3e
00000120: 96ff 273d 1707 1ebe ad71 153f 644e 873f
00000130: 159a 92be aaa2 9d3e 0cee 2dbf 5f44 3cbf
00000140: 810e 4c3f e909 8a3f 8c27 8dbe 3692 20bd
00000150: 05e2 b9be fc4d 963e c2d8 f63d 892f 113e
00000160: a5b9 bd3e ed92 303d ade7 c8be 6269 4ebd
00000170: 03d5 a4be 3858 3e3f d041 0bbf 4d4b 21bf
5.8438454e-05 -0.21945277 0.4851024 -0.25930792 0.055906285 -0.4234879 -0.037631184 0.15883583
0.30597594 0.27572238 0.33412448 0.19836405 -0.121551394 0.0613228 0.46831918 -0.11946889
0.4924511 0.17753132 0.2942269 -0.14375919 -0.4053604 0.372885 -0.03592096 -0.47683018
-0.0440425 0.3746733 -0.43967408 0.22628014 0.49591234 -0.24392565 -0.664122 -0.8997185
-0.4344789 -0.03861371 0.34830406 -0.78598213 0.3692595 0.15287602 0.18445699 0.18310086
0.4285251 -0.11075798 0.17804459 0.008866678 0.43677258 -0.060424328 -0.26569244 -0.47111174
-0.2182947 -0.057223365 -0.46861064 -0.43866965 0.76668864 0.60264516 -0.28061205 -0.5179151
-0.15707137 -0.4396248 -0.812683 0.26191762 0.094950736 -0.25821114 0.296894 -0.028537765
0.25523862 -0.20547578 -0.3772293 -0.43739283 0.16774489 -0.113286324 0.58186173 0.33992657
0.04101523 -0.15432392 0.5837658 1.0570798 -0.2863318 0.30788165 -0.67941356 -0.73541826
0.7970963 1.0784274 -0.27569234 -0.039201938 -0.36305252 0.29356372 0.12053062 0.1417829
0.37055698 0.04310887 -0.39239255 -0.05039347 -0.32193765 0.7435336 -0.54397297 -0.63005525

sequential_4/dense_18/MatMul f4 [16, 16]
00000000: 1748 3d3d 6d3d 043e d53f 7b3d bf2b a33e
00000010: f9b9 79be 5a74 a8be 717e 823e cf96 9a3d
00000020: 09c1 3e3d d071 9b3e 005b 833e 3403 9c3e
00000030: 6816 cfbd 27e2 9c3e c4cb 573e 08d6 f93d
00000040: 8880 813e 9274 753e 3a94 d73e ebc8 26be
00000050: 33c2 c33e ae3b b1be 4064 94be eeab bf3e
00000060: f67e 893d cbdb 753e 2f2a 2c3d 9a15 31be
00000070: 8e21 e7be 3b38 763e 3d77 4abd 6c6c 70be
00000080: db01 dc3e 2975 bcbd 9a52 913d b4d9 44bd
00000090: e2cb fa3d 08dc bd3e b155 d73e 7bca cabd
000000a0: 02f9 7d3e 0f4a 4a3d 5637 98be 54a8 133e
000000b0: 28d2 33bf fde9 07bd 0d33 06bd 57b4 94be
000000c0: d147 84be b2da cc3e 7fff c13e 20f8 30bd
000000d0: 175b c2be 194a 9cbe ad13 d53e 3f5f bf3e
000000e0: 9dd7 253e c7cf 53be 4700 c23d ec33 7dbe
000000f0: 0be6 febc 34b2 dc3d a3a3 213e 4903 8dbe
00000100: 03bb a63e 73ce 8ebd b586 6f3a 8cf6 cf3c
00000110: 6837 08bf 3a3e 6d3e af41 933b 1611 4b3e
00000120: 7a89 d93e 6b63 0d3f 8710 493e 27d9 dabe
00000130: aa0a b03e e9f5 923e e996 bf3d 1ba5 933e
00000140: cb87 203e 0998 babe 94c8 4dbe 3e4d f1be
00000150: c6e0 93be 51e7 e63d f06c 3ebe eb7a cbbd
00000160: 974c 3a3f 7986 c0be 811e fa3d c097 50be
00000170: 8415 8e3e c0a9 3a3e 28b7 b8bd 2e71 58be
00000180: e3a4 933e d00e 663e b717 793e c0eb 773d
00000190: a9e6 20bf 6da7 973d 93a5 0b3e f07f 4bbd
000001a0: bd30 18bc 2d2f db3e 1547 ef3d 3287 9c3d
000001b0: 64f0 a43e 7b42 70bf 24f7 5abe 96cc 533f
000001c0: 7654 90be 0f54 b1be 4f83 8abe ac2d e13d
000001d0: e767 873e c4bd d7be d0e5 f8bd 4220 d8be
000001e0: dbdd 393e 07e5 7cbd 356d f43d cacf f7bd
000001f0: 7428 db3d 72b7 083e adef 843e d544 80be
00000200: 643b 843e 5cad 79be 4a69 edbd 7086 dc3d
00000210: 6936 5fbd aecb 883e 6f2a 6fbd e21b 17be
00000220: c4e6 72be 6534 eb3d 1ddf 4fbe b65f c63e
00000230: bff6 9ebe d91f d03e 0b10 863e f873 163d
00000240: 6d01 633d 1e0d b0be b507 d73d 8044 c0bd
00000250: 7fe2 6a3b 3b6c f3be da82 aa3e 20bb a63e
00000260: f4f3 bb3d 53e4 983e 7709 b4be 95c4 03bd
00000270: 44ee 07be b695 6cbe 428f a83d fe01 a6be
00000280: cc57 71bd 93dc c83d ce3e 253d 2846 833b
00000290: 163c c93a add7 383d b9a3 2abe 2137 53be
000002a0: 1418 2cbe 58d8 31bf b21a a1bd 5eaa ad3e
000002b0: 4759 8b3f 3884 ffbe 9d80 25be d776 98be
000002c0: 355f 8a3e 875a db3e 0dee 89be eeff bebd
000002d0: f4b0 863d 7097 013f 260d febd 0b69 bbbe
000002e0: 1f90 a23d c7b0 333f 7bda cc3c 6664 433e
000002f0: 3731 5ebf cf8e 6cbe 7282 a03d dcf7 9b3e
00000300: f09a de3e 71ba c5bc ee6e 943d 42a2 ac3e
00000310: 7229 ec3e 73a9 1ebe bef1 51be e911 c2be
00000320: b494 763f d73c 1abf 5a53 a7bd 17df 153e
00000330: 4a09 1ebf 0af0 b83e 9066 aebd 3d80 05bf
00000340: 984a f2bd 607e c33e edfd e03a a64f 9a3e
00000350: 4731 2a3d 0e1a 7a3e 3861 17be 5870 353d
00000360: 7c87 18be fca6 9abe b722 ccbe 562c 213d
00000370: 40ba 7abe bcfb b33d 6238 6a3e a765 2bbe
00000380: 5404 80be c6fd 60be ca4c c43e f332 9abd
00000390: 22fe 3a3e 884a 083f 7e17 62be a0ef 023d
000003a0: 28a3 9e3d be13 dcbe 10df cdbe 584b 31be
000003b0: 5260 783d 1ab4 543e 2cb1 23be a63f fc3d
000003c0: e4e0 503e 7998 07be a8ff 94be e0c7 0c3f
000003d0: 40f9 443e 1c05 863f 703c e43d c32c 21bf
000003e0: 659b 62be 4540 09bf 8cee 9c3d 435c 193d
000003f0: 9f59 3e3d eb58 36bf 3b09 bb3e 7b8e c33e
0.04621133 0.12914057 0.06134017 0.31869313 -0.24387349 -0.3290127 0.25487092 0.07548296
0.04657081 0.3036027 0.25655365 0.30471194 -0.101116955 0.3064129 0.21073824 0.12199026
0.25293374 0.2397025 0.42105275 -0.16287582 0.382341 -0.34615844 -0.28982735 0.3743586
0.06713669 0.24009626 0.042032417 -0.17293397 -0.45142788 0.24044888 -0.04943012 -0.2347886
0.42970166 -0.09202034 0.07095833 -0.04805918 0.12245919 0.37081933 0.42057565 -0.09901901
0.2480202 0.049387034 -0.29729718 0.14419681 -0.7024255 -0.033182133 -0.03276353 -0.29043838
-0.25836042 0.400106 0.3789024 -0.04320538 -0.3796012 -0.30525282 0.41616574 0.37377355
0.16195531 -0.2068473 0.09472709 -0.24726838 -0.031115552 0.10776177 0.15785079 -0.2754157
0.32564554 -0.06972971 0.00091371994 0.025386117 -0.53209543 0.23168269 0.004493914 0.19830737
0.424877 0.55229825 0.19635211 -0.427438 0.34383136 0.2870324 0.09354956 0.28836903
0.15676801 -0.3644412 -0.20096046 -0.47129244 -0.28882426 0.11274589 -0.18596244 -0.09935554
0.72773117 -0.37602594 0.122128494 -0.20370388 0.2775079 0.18228817 -0.09019309 -0.21136925
0.28836736 0.22466588 0.24325453 0.060527563 -0.6285196 0.07404981 0.1363738 -0.049682558
-0.009288964 0.4280943 0.1168348 0.07642974 0.32214653 -0.9385144 -0.21383339 0.8273405
-0.2818944 -0.34634444 -0.27053306 0.10995039 0.2644646 -0.42136967 -0.12153208 -0.4221211
0.18151037 -0.061741855 0.11934892 -0.121001795 0.10701075 0.13351229 0.25964108 -0.25052515
0.2582656 -0.24382538 -0.11592348 0.107678294 -0.05449525 0.26717895 -0.058390077 -0.1475673
-0.23720843 0.11484603 -0.20299955 0.38744897 -0.31047627 0.40649298 0.26184115 0.03673169
0.05542128 -0.34385008 0.10499517 -0.09388065 0.0035840569 -0.4754351 0.33302957 0.3256464
0.0917739 0.29861698 -0.3516347 -0.032169897 -0.13274485 -0.23103985 0.08230449 -0.32423395
-0.05892162 0.09807696 0.0403431 0.004006166 0.001535299 0.04512756 -0.16664018 -0.20626499
-0.1680606 -0.6947074 -0.0786642 0.33919042 1.088662 -0.49905562 -0.16162343 -0.29778168
0.27025762 0.42842504 -0.2693943 -0.093261585 0.0657672 0.506217 -0.124048516 -0.3660358
0.07937645 0.70191616 0.025006523 0.19081268 -0.86793846 -0.23101352 0.078373805 0.3046254
0.43477583 -0.024136754 0.07247721 0.33717543 0.4612537 -0.15494327 -0.20502374 -0.3790429
0.9632065 -0.60249084 -0.08170195 0.14635883 -0.61732924 0.36120635 -0.08515656 -0.521488
-0.11830634 0.38182354 0.001716552 0.30138892 0.0415509 0.24424002 -0.1478318 0.044296592
-0.14895433 -0.30205524 -0.39870235 0.039348923 -0.24485111 0.08788249 0.22873071 -0.16737996
-0.25003302 -0.21971807 0.38339835 -0.07529249 0.18261006 0.53238726 -0.22079274 0.031966805
0.07745963 -0.42983812 -0.40209246 -0.17313898 0.060638733 0.20771828 -0.15985554 0.123168275
0.20398289 -0.13241757 -0.291013 0.54992485 0.19235706 1.0470309 0.1114434 -0.62958926
-0.22129591 -0.5361369 0.07662687 0.037441503 0.046472188 -0.7122943 0.3653048 0.3819464

sequential_4/dense_19/MatMul f4 [5, 16]
00000000: c14c 8ebd 85a2 c43d cb69 9c3d 4101 8c3e
00000010: 876b dfbe d72e 17bf f497 fd3c ff14 8a3d
00000020: 1d3a 0fbd 0e9a acbd 5d64 fabe 1da2 71bd
00000030: ec83 ce3e 7ac7 eabe e36e ef3e 78cb 40be
00000040: 7905 383d e8f5 1cbe fe4e 62be 99cc c93e
00000050: a268 823f 3a2b 303f ddf2 e43e cff8 05be
00000060: 35b4 e7be 5a46 38bd cb24 14bf 247d 37bf
00000070: 3d63 3d3f 685d 033f 2030 f4be 6b21 94be
00000080: 5713 dbbe 29c1 043f a197 be3e 3378 bebd
00000090: e910 b8bf 591d 06bf c633 0dbf a593 be3d
000000a0: 6d68 b43e 77f7 313e f6e8 41bf 26a6 933e
000000b0: e3c7 46bd 5a3e a33e e310 d7be bc3a f6be
000000c0: 0ee9 d9be e877 083e 721d fe3e 3cdf c9be
000000d0: 0884 5dbe 7cdd 383f f4a9 38bf 41c8 453e
000000e0: 1623 4c3e 2281 08bd 4644 c93e 295c 3e3f
000000f0: 0bf7 823f a73d b13e eaf3 d93b a748 3fbf
00000100: af11 debe 7f48 9d3e b5c0 38bf db90 983e
00000110: 1bab 043f 4b14 a23e c948 673f 183a 7c3e
00000120: d4f0 e2be e07c 1b3f 6a7a d33e 8c5f f5be
00000130: 996d 54bf 9ee4 abbe 6083 cc3e 714e 6c3f
-0.069482334 0.09601311 0.07637366 0.27344707 -0.43636724 -0.59055847 0.030956246 0.06742286
-0.03496753 -0.08427821 -0.48904696 -0.058992494 0.40335023 -0.45855314 0.46764287 -0.18827617
0.044927094 -0.15328181 -0.22100446 0.39413908 1.0188181 0.6881596 0.4471654 -0.13083194
-0.45254675 -0.044988967 -0.5786864 -0.71675324 0.7397955 0.513144 -0.47692966 -0.28931746
-0.42788193 0.5185724 0.3722506 -0.0930027 -1.438016 -0.5238853 -0.55157125 0.09305505
0.3523592 0.17379557 -0.75746095 0.288377 -0.04853047 0.31883508 -0.4200507 -0.48091686
-0.4256062 0.1332699 0.4963184 -0.39428127 -0.21632397 0.7221296 -0.7213433 0.19314672
0.19935259 -0.033326276 0.393099 0.74359375 1.0231642 0.3461735 0.0066513913 -0.74720234
-0.43372867 0.30719373 -0.7216905 0.29798016 0.51823586 0.31656107 0.90345436 0.24631536
-0.44324362 0.6073742 0.41304332 -0.4792446 -0.8297973 -0.3357286 0.3994398 0.9230719

sequential_4/dense_17/MatMul;sequential_4/dense_17/Relu;sequential_4/dense_17/BiasAdd f4 [16]
00000000: ed14 c6bd 99b5 153e 164b 923d b972 ca3e
00000010: b2ec d43e 4bd5 8cbe f0af 383d 873b 5dbe
00000020: e18e ed3e 5da4 9dbe 8a04 d93c 0691 b8be
00000030: 7925 ae3f 71e2 5f3e 94bb 9b3c 5a55 ba3e
-0.0967196 0.14620055 0.07143228 0.3954065 0.41586834 -0.2750648 0.045089662 -0.21604739
0.4639807 -0.30789462 0.026491422 -0.36048144 1.3605186 0.21863724 0.019010343 0.36393243
