scripts/models/capture_20x_1,5x1m_32x32_model_no_quant.tflite (tflite, 8140 bytes, 7 tensors)

dense_15/bias f4 [5]
-0.53453183 0.2410891 -0.620955 0.56303954 0.35135838
00000000: 14d7 08bf 10e0 763e e8f6 1ebf 5c23 103f
00000010: 3fe5 b33e

dense_14/bias f4 [32]
0.3199607 -0.13336462 0.091561414 -0.077867895 0.0 -0.143936 -0.039128877 -0.063905284
-0.014733049 0.04963047 -0.11691026 0.0 0.39890024 -0.033983152 -0.09209728 0.07252339
0.017542526 0.4120447 -0.085104354 0.023491677 -0.010234436 0.017584966 0.2301851 0.18501326
0.14149491 -0.043016348 -0.045165688 0.0 0.25968105 0.087109454 0.28909332 0.25522026
00000000: e4d1 a33e bc90 08be 8d84 bb3d 3479 9fbd
00000010: 0000 0000 f563 13be 9a45 20bd c6e0 82bd
00000020: e362 71bc 5249 4b3d a56e efbd 0000 0000
00000030: a73c cc3e eb31 0bbd 809d bcbd 2587 943d
00000040: 58b5 8f3c 86f7 d23e 314b aebd 9e71 c03c
00000050: 56ae 27bc 590e 903c a5b5 6b3e 1e74 3d3e
00000060: 0be4 103e e931 30bd a8ff 38bd 0000 0000
00000070: eaf4 843e 7166 b23d 0a04 943e 3bac 823e

sequential_3/dense_12/MatMul f4 [6, 6]
0.8247751 -0.18626747 0.41172734 0.03769735 0.19602646 -0.7287963 1.2333151 0.46854174
0.52765185 -0.3474686 -1.3348222 1.0281668 0.39147365 0.75857496 -0.41135132 -0.1532448
-0.0664436 0.40386456 -0.25149074 -1.0337747 -0.9248421 0.34378985 0.7622369 0.41634142
0.11454516 -2.425127 2.7134612 0.08957057 0.39356896 0.7806559 0.3016738 -1.4010228
-1.7231433 -0.10312668 0.8600592 1.4088641
00000000: 7624 533f e6bc 3ebe edcd d23e 8968 1a3d
00000010: 29bb 483e 6592 3abf 45dd 9d3f b4e4 ef3e
00000020: 3114 073f 68e7 b1be 74db aabf f89a 833f
00000030: 3c6f c83e f831 423f a49c d2be 34ec 1cbe
00000040: 9513 88bd 56c7 ce3e 65c3 80be bb52 84bf
00000050: 74c2 6cbf 3905 b03e f521 433f b42a d53e
00000060: a796 ea3d 4835 1bc0 59a9 2d40 c670 b73d
00000070: df81 c93e 11d9 473f fd74 9a3e b754 b3bf
00000080: f68f dcbf 1534 d3bd d72c 5c3f a955 b43f

sequential_3/dense_13/MatMul f4 [32, 6]
-0.071888424 0.13052802 0.49729207 -0.016238242 -0.11732888 -0.58581257 0.3771956 -0.40943083
0.12082504 0.4812598 -0.41056895 0.16891496 -0.14044823 -0.38357306 0.19948153 0.22109011
0.2102374 0.42430177 -0.103101335 0.64651585 0.14996149 0.5222625 0.3398636 0.4607609
0.0068031377 0.25211468 0.06085456 -0.0006461367 0.6154836 0.059573345 0.06680011 0.341477
0.2807731 0.14094688 0.10403435 -0.0067141736 -0.13583046 -0.22788566 -0.13485643 -0.011879025
-0.45537996 0.30212933 -0.3581117 -0.30018207 -0.09767788 0.21222602 0.31308722 0.054712694
-0.30000472 0.34763256 0.3156771 -0.14004095 0.08944402 0.8348401 0.19844887 0.40236914
-0.0274943 -0.13069232 0.5004915 -0.3387885 -0.36456913 0.3166507 -0.06391473 0.03561855
-0.2281919 -0.23574036 -0.34723595 0.16190037 0.16342974 -0.010666161 -0.42293188 -0.037022654
0.21710426 0.2784278 -0.3202505 -0.14153606 -0.2488005 -0.342678 0.23657937 0.67679054
0.49117732 -0.26174232 -0.5319837 0.07638528 -0.3139172 0.16753164 -0.15688136 -0.21817012
-0.16858804 0.34278852 -0.38753933 0.10332553 -0.31316617 -0.18729237 0.13545087 0.40641844
-0.18303856 0.10153128 0.11834443 0.01968878 -0.19997798 -0.045526084 -0.044775013 -0.24530886
-0.19370395 -0.19040915 -0.30823064 -0.27274254 0.52441835 -0.104457125 -0.13669363 0.3255294
0.3576837 -0.1536713 0.107811965 0.0016760535 0.0090152975 0.2028941 0.21390063 -0.26589692
-0.15733837 0.20167486 0.20052707 -0.03482063 -0.27781913 0.28739825 -0.21263056 -0.25134462
0.14263552 0.494299 0.4670128 0.6005754 0.0835218 -0.18897457 0.34467936 0.17358895
-0.81256473 -0.49812302 0.33425468 -0.1879657 -0.31037956 -0.405749 -0.24909535 -0.6516737
0.52246445 -0.23397112 0.18788934 0.22342968 0.33474967 0.028155623 -0.076260045 0.27515203
0.3145054 -0.32688272 -0.040691823 -0.114283375 -0.12816766 -0.17299238 0.31540117 0.65616715
-0.45527184 0.5038246 -0.05265329 0.33144313 0.31811407 -0.027134296 -0.06710561 0.611344
0.1085835 0.09345095 0.22958389 0.29262513 0.24010454 0.21240033 -0.33592707 0.19616233
0.043969236 -0.03672019 -0.39080194 0.17997268 -0.09244981 0.402799 -0.072621025 0.15162262
-0.095896706 0.5813671 -0.41444278 0.70454985 0.21024236 -0.44572094 0.34866074 -0.5563745
00000000: 3d3a 93bd 23a9 053e 119d fe3e 1006 85bc
00000010: 204a f0bd d0f7 15bf c81f c13e eba0 d1be
00000020: 1e73 f73d af67 f63e 1836 d2be 0bf8 2c3e
00000030: a9d1 0fbe b063 c4be e344 4c3e 7265 623e
00000040: 7948 573e 153e d93e cb26 d3bd 1082 253f
00000050: 818f 193e ffb2 053f 9a02 ae3e dae8 eb3e
00000060: dbec de3b 2d15 813e a242 793d 8061 29ba
00000070: 5590 1d3f 2e03 743d 7fce 883d 13d6 ae3e
00000080: 7ec1 8f3e 6154 103e f60f d53d 9202 dcbb
00000090: 2417 0bbe dc5a 69be ce17 0abe 3ea0 42bc
000000a0: 9027 e9be b2b0 9a3e 6b5a b7be 77b1 99be
000000b0: 570b c8bd c751 593e f84c a03e 6b1a 603d
000000c0: 389a 99be e5fc b13e 6ea0 a13e e566 0fbe
000000d0: 6d2e b73d 15b8 553f 2e36 4b3e 5403 ce3e
000000e0: ba3b e1bc 35d4 05be 3620 003f b075 adbe
000000f0: cea8 babe 0a20 a23e bae5 82bd c2e4 113d
00000100: 23ab 69be ec65 71be e9c8 b1be 36c9 253e
00000110: 205a 273e 1fc1 2ebc 878a d8be 11a5 17bd
00000120: 9450 5e3e 178e 8e3e e0f7 a3be d4ee 10be
00000130: 8fc5 7ebe 7e73 afbe dd41 723e 2542 2d3f
00000140: 987b fb3e 1703 86be 1530 08bf e36f 9c3d
00000150: c1b9 a0be 6a8d 2b3e 82a5 20be fd67 5fbe
00000160: 58a2 2cbe fa81 af3e 8e6b c6be 569c d33d
00000170: 5157 a0be 92c9 3fbe a2b3 0a3e 1416 d03e
00000180: 766e 3bbe a2ef cf3d 915e f23d 5d4a a13c
00000190: 07c7 4cbe 8f79 3abd 0166 37bd 3f32 7bbe
000001a0: 545a 46be 9efa 42be 68d0 9dbe e9a4 8bbe
000001b0: 4840 063f 9eed d5bd 6af9 0bbe caab a63e
000001c0: 5122 b73e 025c 1dbe 85cc dc3d 06af db3a
000001d0: e6b4 133c 79c3 4f3e c408 5b3e a423 88be
000001e0: 4f1d 21be db83 4e3e f856 4d3e 14a0 0ebd
000001f0: 4f3e 8ebe dd25 933e d3bb 59be 3eb0 80be
00000200: 0c0f 123e c214 fd3e 4d1c ef3e 4fbf 193f
00000210: 7a0d ab3d 8d82 41be d079 b03e 4dc1 313e
00000220: 3e04 50bf fb09 ffbe 6e23 ab3e 157a 40be
00000230: 12ea 9ebe 55be cfbe da12 7fbe 16d4 26bf
00000240: 3bc0 053f 2096 6fbe 1066 403e c0ca 643e
00000250: 4f64 ab3e 9fa6 e63c 3a2e 9cbd bae0 8c3e
00000260: da06 a13e 2c5d a7be 78ac 26bd 670d eabd
00000270: 623e 03be ea24 31be 437c a13e 92fa 273f
00000280: 6419 e9be a6fa 003f faaa 57bd eab2 a93e
00000290: d9df a23e be48 debc ab6e 89bd 0a81 1c3f
000002a0: 0761 de3d 3663 bf3d 0a18 6b3e f6d2 953e
000002b0: f7dd 753e 797f 593e a2fe abbe c7de 483e
000002c0: 1619 343d e967 16bd 3117 c8be c24a 383e
000002d0: 5356 bdbd ac3b ce3e 55ba 94bd f642 1b3e
000002e0: 7e65 c4bd 79d4 143f d831 d4be 615d 343f
000002f0: c649 573e 8935 e4be a983 b23e 8f6e 0ebf

sequential_3/dense_14/MatMul f4 [32, 32]
-0.16039956 -0.31137556 0.15596798 0.37193674 0.16175884 0.124368325 -0.27848643 0.4478471
-0.36736104 -0.032739077 0.06399208 -0.28288582 0.14955157 0.34661883 -0.2802858 0.08941594
0.19674385 -0.031634495 0.2588001 0.16574901 0.18808804 0.5928561 -0.3042393 -0.043360278
-0.0043619266 -0.28328392 -0.3066409 -0.04061922 0.37268585 -0.08941718 -0.0795123 -0.87233347
-0.19402432 0.12340041 0.2209468 0.4886951 0.106828466 0.08626584 0.016937459 0.08811279
0.45684308 -0.0038803853 0.24783997 -0.271738 -0.0037699253 0.21815515 -0.14396395 0.022574922
0.08743283 0.28215453 -0.24938144 -0.22948515 -0.100666456 0.002157365 -0.35467428 -0.012726348
-0.39683056 -0.21641941 -0.0623339 -0.0600092 0.030786702 0.15573508 0.39088705 -0.22768822
0.30970562 0.41363814 -0.010159812 -0.24777605 0.15223488 0.049194485 0.18186703 0.031675946
0.1305435 -0.33486822 -0.12732193 0.2763949 -0.28895855 -0.09099144 0.25256103 0.16452523
-0.23519109 0.18722792 -0.113186054 -0.09366885 0.2979699 0.2000679 -0.0800333 -0.36126825
-0.07634906 0.09597373 0.5031553 0.338582 0.23223317 0.2038231 0.16415921 -0.065576814
0.12834862 0.14519146 -0.18061121 0.15731192 -0.01665118 0.08127995 -0.120460585 -0.2312054
0.26118466 -0.107690856 -0.21225369 -0.14702488 -0.09512972 -0.024814412 -0.08906731 -0.28804922
0.08247299 0.23767109 0.19909883 -0.08189697 0.09984035 -0.3031094 -0.29220995 0.06871099
0.020213619 -0.20686808 -0.0678514 0.1045639 -0.3191994 0.08345098 0.0858429 -0.046672225
0.053084344 0.21268848 0.080682546 -0.29193157 0.12227413 -0.17030619 0.11209196 -0.0018993914
-0.13187888 -0.061075047 -0.24925892 -0.02213952 -0.0607367 -0.23599699 0.18658099 -0.0934753
0.12647092 -0.084933296 -0.033201724 -0.080155626 -0.11582264 -0.285218 0.032627642 -0.12748848
-0.21749115 0.03074181 -0.22981144 -0.17266083 -0.26386595 -0.04251957 -0.23602846 -0.21156248
-0.32694602 0.09490639 -0.15783177 -0.24882855 0.094561495 -0.12509443 0.22481939 0.29170707
0.14650083 -0.28432983 -0.026652003 0.11923992 -0.15339011 -0.27076742 0.11858913 -0.097791955
-0.063374974 0.06674436 -0.2255018 0.112305775 -0.29181033 0.081689715 -0.23529275 -0.020882308
-0.29203373 0.061177902 -0.06332664 0.23782983 0.13218433 0.30082163 -0.26639527 -0.121980704
0.037741452 0.14731532 -0.0056656743 -0.051106364 -0.28259298 -0.2111473 0.10392165 0.106807
-0.1921973 0.18854737 0.14276212 0.019791821 -0.1198939 -0.0021109413 0.1911704 -0.014022231
-0.21059822 0.0410896 -0.30704594 0.19380316 -0.07262497 -0.09198045 -0.30306986 0.1650422
-0.036982518 -0.20686887 -0.16893232 -0.17746696 0.012906245 -0.24705087 -0.08687438 0.031766716
-0.10827817 -0.29880574 0.11377877 -0.26849404 -0.19077505 -0.03879305 -0.3022132 -0.14512728
-0.08794285 -0.09559287 0.039713137 0.20300545 -0.2206308 0.034384966 0.22618142 0.06793076
-0.3004195 -0.21251339 0.02697234 0.21362859 0.118332475 -0.22770059 0.06034185 -0.17772165
0.03929658 0.14467432 -0.01213604 -0.09454022 0.014126053 -0.12436728 -0.17922896 0.041325834
00000000: c83f 24be 9e6c 9fbe 12b6 1f3e 7e6e be3e
00000010: 1ca4 253e d2b4 fe3d c695 8ebe 374c e53e
00000020: bf16 bcbe 6919 06bd 480e 833d 69d6 90be
00000030: 0c24 193e 0678 b13e 9f81 8fbe b41f b73d
00000040: 3877 493e 2c93 01bd 7281 843e 1cba 293e
00000050: 279a 403e 6bc5 173f 41c5 9bbe 8c9a 31bd
00000060: 7eee 8ebb 970a 91be 0900 9dbe 5760 26bd
00000070: aed0 be3e 5b20 b7bd 58d7 a2bd 3f51 5fbf
00000080: 50ae 46be 5bb9 fc3d e13f 623e 3f36 fa3e
00000090: e2c8 da3d 25ac b03d 6dc0 8a3c 7a74 b43d
000000a0: 56e7 e93e 104e 7ebb c3c9 7d3e 3e21 8bbe
000000b0: da10 77bb 1064 5f3e 496b 13be 0bef b83c
000000c0: fc0f b33d 8f76 903e d95d 7fbe 28fe 6abe
000000d0: 372a cebd 9462 0d3b de97 b5be 2c82 50bc
000000e0: 602d cbbe 0d9d 5dbe d551 7fbd 35cc 75bd
000000f0: 6534 fc3c 0479 1f3e 5922 c83e 1a27 69be
00000100: bc91 9e3e 61c8 d33e 5775 26bc 01b9 7dbe
00000110: 76e3 1b3e 2880 493d 5a3b 3a3e a3be 013d
00000120: 32ad 053e d973 abbe ae60 02be a283 8d3e
00000130: 60f2 93be b859 babd ae4f 813e 4d79 283e
00000140: efd5 70be adb8 3f3e 17ce e7bd 74d5 bfbd
00000150: 838f 983e 99de 4c3e 80e8 a3bd 27f8 b8be
00000160: e55c 9cbd e08d c43d c9ce 003f 9f5a ad3e
00000170: 88ce 6d3e 01b7 503e 5a19 283e 234d 86bd
00000180: d26d 033e 12ad 143e 25f2 38be 6016 213e
00000190: 0e68 88bc 1a76 a63d 0ab4 f6bd 1cc1 6cbe
000001a0: ffb9 853e 068d dcbd 0859 59be b18d 16be
000001b0: 5fd3 c2bd 9847 cbbc ec68 b6bd 307b 93be
000001c0: 99e7 a83d 0d60 733e 90e0 4b3e 99b9 a7bd
000001d0: 1979 cc3d 2831 9bbe 8b9c 95be 59b8 8c3d
000001e0: 0897 a53c 3ad5 53be adf5 8abd 9925 d63d
000001f0: 1b6e a3be 59e8 aa3d 67ce af3d 602b 3fbd
00000200: f86e 593d 02cb 593e e43c a53d 0e78 95be
00000210: dc6a fa3d bf64 2ebe 7890 e53d 00f5 f8ba
00000220: 420b 07be d429 7abd bb3d 7fbe f05d b5bc
00000230: 0cc7 78bd 32a9 71be 160f 3f3e fa6f bfbd
00000240: 9881 013e 82f1 adbd 88fe 07bd a228 a4bd
00000250: 6c34 edbd 1808 92be 90a4 053d 578c 02be
00000260: 00b6 5ebe 40d6 fb3c b153 6bbe 00ce 30be
00000270: 7019 87be 0029 2ebd 72b1 71be d6a3 58be
00000280: 7865 a7be 485e c23d a79e 21be e9cc 7ebe
00000290: 75a9 c13d c118 00be 0e37 663e a15a 953e
000002a0: 5004 163e ae93 91be 4d55 dabc 0f34 f43d
000002b0: 4c12 1dbe 07a2 8abe dcde f23d 2647 c8bd
000002c0: bdca 81bd 44b1 883d f2e9 66be 9200 e63d
000002d0: 2a68 95be f04c a73d 95f0 70be 6011 abbc
000002e0: 7285 95be ae95 7a3d 66b1 81bd aa89 733e
000002f0: 545b 073e 4b05 9a3e f664 88be 05d1 f9bd
00000300: c896 1a3d d4d9 163e 1fa7 b9bb e854 51bd
00000310: 07b0 90be ff36 58be e0d4 d43d a1bd da3d
00000320: 5ecf 44be 9012 413e 3c30 123e 7522 a23c
00000330: ef8a f5bd b857 0abb 2cc2 433e 80bd 65bc
00000340: 0fa7 57be 924d 283d 2035 9dbe 5674 463e
00000350: 66bc 94bd 3f60 bcbd f92b 9bbe d300 293e
00000360: fb7a 17bd 6fd5 53be 98fc 2cbe e6b9 35be
00000370: b774 533c e7fa 7cbe 32eb b1bd d11d 023d
00000380: f2c0 ddbd 11fd 98be d804 e93d 0d78 89be
00000390: 895a 43be 76e5 1ebd b0bb 9abe 3f9c 14be
000003a0: 621b b4bd 32c6 c3bd 3eaa 223d a9e0 4f3e
000003b0: 0aed 61be 40d7 0c3d 1a9c 673e 481f 8b3d
000003c0: 96d0 99be 1c9d 59be 19f5 dc3c 74c1 5a3e
000003d0: 4c58 f23d 582a 69be 0429 773d aafc 35be
000003e0: 73f5 203d 8125 143e 3ed6 46bc 4e9e c1bd
000003f0: f670 673c 46b4 febd cc87 37be 4745 293d

sequential_3/dense_15/MatMul f4 [5, 32]
-0.39881366 0.2878604 -0.379102 0.017338675 0.027911544 0.12091521 0.2960858 0.13840885
-0.31295887 0.08850628 0.051561385 0.0032864213 -0.02000138 0.22795945 0.03429545 0.29054037
-0.14765447 -0.4612914 0.20954265 -0.33920377 0.015106615 0.4160238 -0.07236392 0.07444072
-0.33218408 -0.05686334 -0.3677287 -0.37235737 -0.19461377 0.3305097 -0.74139434 -0.15223627
0.8646295 -0.5640569 -0.061189137 0.30273825 0.38885593 -0.13513869 -0.36997637 -0.35178584
-0.022810094 0.4329462 -0.15552282 0.10234827 0.64664745 -0.38172957 -0.35438508 0.45080775
0.042098172 0.1428927 0.1946217 -0.44880834 -0.1400337 0.36418507 0.51165795 -0.063905396
-0.115399756 0.35778362 0.30401084 0.16185093 0.4608686 0.61035335 0.47811326 -0.17568402
-0.6584136 0.3407692 -0.5673597 0.09901945 -0.19906975 0.22426316 -0.09763399 0.3915721
-0.48869747 -0.14432003 -0.012794783 -0.3314678 -0.69078535 0.07123371 0.15839802 0.25012287
-0.071855985 -0.3192273 0.20336223 -0.3959754 -0.21495003 -0.23085901 -0.7738839 -0.31583792
0.019953974 0.14548536 0.25342208 -0.26716697 -0.6095777 0.30449995 -0.9030542 -0.04156429
-0.34072095 0.15592265 -0.1484367 -0.08621493 -0.19700247 -0.28793508 0.07097108 0.159769
-0.02817754 0.17547663 -0.19098955 -0.14328346 0.5564847 0.3632905 -0.19466749 0.4911585
-0.30841497 0.46032178 -0.11455215 -0.11415499 -0.42789498 -0.620704 0.40801808 -0.71538574
0.2118371 -0.25644377 -0.117588915 -0.28401804 0.2668626 0.5090172 0.38581648 0.9291141
-0.05106751 0.5049192 0.47515932 -0.33842045 0.010468692 -0.3128426 0.06914678 -0.09174141
-0.1685536 -0.17844678 0.4495173 -0.20622459 -0.09766259 -0.016637154 -0.3220445 -0.22706889
0.0992497 0.3765761 0.4120645 0.0084854085 -0.31288671 0.23879336 -0.107293785 0.09513741
-0.62856275 -0.34508947 -0.19579817 -0.39671117 -0.2077396 -0.89634156 0.8113386 -0.7898429
00000000: 4e31 ccbe 7062 933e a819 c2be d609 8e3c
00000010: c0a6 e43c 65a2 f73d 8f98 973e 0dbb 0d3e
00000020: 253c a0be c842 b53d 0832 533d 0061 573b
00000030: efd9 a3bc 346e 693e 6379 0c3d b5c1 943e
00000040: bc32 17be 632e ecbe 5992 563e 1eac adbe
00000050: bc81 773c 1201 d53e 8933 94bd 6074 983d
00000060: 0814 aabe 89e9 68bd f046 bcbe a0a5 bebe
00000070: d548 47be 9138 a93e 05cc 3dbf d3e3 1bbe
00000080: 5c58 5d3f 0866 10bf 76a1 7abd 8200 9b3e
00000090: 2018 c73e cc61 0abe 8b6d bdbe 461d b4be
000000a0: 3cdc babc 20ab dd3e 6041 1fbe f89b d13d
000000b0: b08a 253f 0f72 c3be f671 b5be 46d0 e63e
000000c0: 226f 2c3d 7752 123e e94a 473e 35ca e5be
000000d0: ff64 0fbe 7776 ba3e 04fc 023f d5e0 82bd
000000e0: b556 ecbd 6a2f b73e 4fa7 9b3e 40bc 253e
000000f0: f8f6 eb3e 1e40 1c3f 43cb f43e 83e6 33be
00000100: cb8d 28bf 4d79 ae3e 7c3e 11bf b6ca ca3d
00000110: f1d8 4bbe 3ea5 653e 54f4 c7bd 237c c83e
00000120: 8e36 fabe a1c8 13be 36a1 51bc 26b6 a9be
00000130: 4fd7 30bf fbe2 913d 1733 223e 1b10 803e
00000140: 3b29 93bd c371 a3be 303e 503e 4abd cabe
00000150: dc1b 5cbe 4e66 6cbe 411d 46bf 82b5 a1be
00000160: 8476 a33c 1dfa 143e 8ac0 813e 1cca 88be
00000170: 490d 1cbf 6be7 9b3e 8f2e 67bf 513f 2abd
00000180: fa72 aebe 30aa 1f3e caff 17be 7491 b0bd
00000190: 04bb 49be 3a6c 93be 4959 913d 7c9a 233e
000001a0: 96d4 e6bc 25b0 333e c492 43be e6b8 12be
000001b0: c875 0e3f 3601 ba3e ea56 47be 2079 fb3e
000001c0: 91e8 9dbe 4caf eb3e 519a eabd 17ca e9bd
000001d0: 0d15 dbbe 75e6 1ebf bfe7 d03e 8523 37bf
000001e0: d3eb 583e 994c 83be 75d2 f0bd d06a 91be
000001f0: 37a2 883e f44e 023f bd89 c53e 6cda 6d3f
00000200: 2a2c 51bd 6242 013f 1548 f33e 7245 adbe
00000210: e084 2b3c e82c a0be d49c 8d3d ece2 bbbd
00000220: 5199 2cbe c1ba 36be 2227 e63e 8a2c 53be
00000230: 5303 c8bd a44a 88bc 04e3 a4be bf84 68be
00000240: 6d43 cb3d 95ce c03e 1efa d23e 6206 0b3c
00000250: b032 a0be 3f86 743e d8bc dbbd 67d7 c23d
00000260: 7de9 20bf 91af b0be 517f 48be ba1d cbbe
00000270: b1b9 54be a476 65bf e3b3 4f3f 2533 4abf

sequential_3/dense_13/MatMul;sequential_3/dense_13/Relu;sequential_3/dense_13/BiasAdd f4 [32]
0.106643975 0.86115384 0.17947721 0.19593576 -0.015253467 0.14543313 0.35434195 0.3083213
0.012038983 -0.43002456 -0.07687743 0.005390385 -0.18033628 0.47784558 0.072644465 -0.045249812
-0.020616775 -0.046346307 0.2601702 -0.024635423 0.022609213 0.36994138 0.78037363 -0.21420515
0.34362143 -0.28792992 1.0524738 0.20239012 0.23526828 0.1717257 0.10176477 -1.1692183
00000000: 2868 da3d 9474 5c3f e0c8 373e 62a3 483e
00000010: ade9 79bc 6cec 143e 4f6c b53e 4adc 9d3e
00000020: 283f 453c 2e2c dcbe ea71 9dbd d4a1 b03b
00000030: 13aa 38be 2da8 f43e 9fc6 943d de57 39bd
00000040: 83e4 a8bc a0d5 3dbd 0735 853e 3ad0 c9bc
00000050: f536 b93c f568 bd3e 91c6 473f 9858 5bbe
00000060: 26ef af3e 8d6b 93be 76b7 863f 5b3f 4f3e
00000070: 2bea 703e ddd8 2f3e 0c6a d03d f2a8 95bf
