scripts/models/capture_40x_1,5x1m_32x32_model_no_quant.tflite (tflite, 8140 bytes, 7 tensors)

dense_16/bias f4 [5]
000000 43 10 23 bf 1f fb 21 3f 4f f6 5d bf 4c 06 9f 3e
       -0.6369669 0.63273805 -0.8670396 0.31059492
000010 48 88 0f 3f
       0.56067324

dense_15/bias f4 [32]
000000 0d b5 74 be b4 f2 21 bf c9 f0 af bc ec fa 5d bd
       -0.2389719 -0.6326096 -0.02147712 -0.054194376
000010 dc a4 be 3e 74 73 2d bc 2b 0d 64 bd 8b 70 a4 3e
       0.37235153 -0.010586608 -0.05567662 0.32117113
000020 d1 93 1d 3e e1 ec 9e 3e 80 b6 aa 38 71 6d ff bd
       0.15388419 0.310401 8.140225e-05 -0.12472046
000030 6a e5 a9 bc 90 6c ed 3e 38 cc e7 bc ca b6 76 bd
       -0.020739276 0.4637189 -0.028295621 -0.060232915
000040 b5 3c d8 3d be 9b 1c be 10 95 93 3e bf 36 50 3e
       0.10558454 -0.15293786 0.28824663 0.20333384
000050 c3 85 6b be 10 8d ec 3e 19 3e 80 3d d1 30 08 be
       -0.23000245 0.46201372 0.06261844 -0.13299872
000060 e5 0c af 3e 92 7a b3 3e f3 7c 64 3e 28 38 c8 3d
       0.34189525 0.3505445 0.2231329 0.09776336
000070 23 9c 29 3e 8f 71 7c 3e 37 67 cf be ff e7 80 3e
       0.16563468 0.24652694 -0.40508434 0.25177

sequential_4/dense_13/MatMul f4 [6, 6]
000000 2e 4b f4 be 37 9b b1 bd 21 ce 6a 3e 90 99 8c 3f
       -0.47713608 -0.08672183 0.22930194 1.0984364
000010 ed c6 dd 3f 48 d6 37 3f 19 be b8 3e c2 e6 84 bf
       1.7326332 0.7181134 0.36082533 -1.0382922
000020 b7 13 61 3f d8 86 9f 3f 0c 8a 3a c0 f7 23 15 c0
       0.8792071 1.2463026 -2.9146757 -2.3303201
000030 0e 7b 8f 3e a2 b8 03 c0 dd d7 bb bf 97 ad 51 bf
       0.2802357 -2.058144 -1.4675251 -0.819055
000040 10 88 74 bf 91 2e 6b bf 6d 8e ac 3d bb bf f6 3f
       -0.95520115 -0.9186793 0.08425603 1.9277261
000050 be b7 f8 bf 85 61 6e be 46 97 92 3f bd 0b 14 bf
       -1.9431074 -0.23279388 1.1452415 -0.5783041
000060 85 3b 4a bf 65 a2 d0 bf c5 cb 66 3f a4 ea 80 3f
       -0.7899707 -1.6299559 0.9015468 1.0071607
000070 a9 03 f2 3f 02 3d d8 bf 8f 8a f9 3c cd d1 6a c0
       1.8907367 -1.6893618 0.030461578 -3.6690552
000080 93 2d 4f 3e fd 09 3a 3f fd 4b 9f bf e1 8c 18 40
       0.20232229 0.7267149 -1.2445065 2.3835986

sequential_4/dense_14/MatMul f4 [32, 6]
000000 b3 f5 a4 be 7d 5d 3c be e5 31 b3 3d aa c9 55 3e
       -0.32218704 -0.18395038 0.08749751 0.2087771
000010 3e e9 d0 3e 92 c1 33 3e be 0a db bc d2 b8 3f 3e
       0.4080295 0.1755431 -0.02673852 0.18722847
000020 3b a6 62 3f 6d 41 44 3f 72 ff d1 bd 24 11 f5 3e
       0.885349 0.7666233 -0.102538005 0.4786464
000030 f8 68 f5 3e 0d f3 02 3f 7e 11 84 be 60 cd 6c be
       0.47931647 0.51152116 -0.25794595 -0.2312522
000040 15 fc db 3e b3 95 58 3d 15 4a 0a 3d e4 6b 94 3e
       0.4296576 0.05287714 0.033762056 0.28988564
000050 21 fc 8d 3f 5f c8 83 3f d2 88 13 3c 7e f7 17 be
       1.1092569 1.0295523 0.0090047885 -0.14840505
000060 f4 26 f2 be 89 4a a0 3f 20 75 6e 3f 1d 3f 0a bf
       -0.47295344 1.2522746 0.9314747 -0.54002553
000070 dd 85 fc be 2b 97 50 3f 99 85 f7 be 76 8a bf 3e
       -0.4932088 0.81480664 -0.48344114 0.37410325
000080 80 f1 04 3f 2c bc 99 be 38 f1 42 3f 37 d3 9f be
       0.51931 -0.30026376 0.7614932 -0.31215832
000090 c2 6a 97 be 36 12 bb 3e 8e 3b 8b bd 75 2c b7 bd
       -0.29573637 0.3653733 -0.067984685 -0.089440264
0000a0 cf 5c 12 bf 69 da 9d be e6 98 e3 bd af 0c 52 bf
       -0.57172865 -0.30830696 -0.111131474 -0.82050604
0000b0 a1 a9 24 3f 49 19 32 be 75 82 f1 be 4c b3 34 3f
       0.64321333 -0.17392458 -0.47169843 0.70586085
0000c0 24 be 0e be 5a 7e 02 3f 25 7d 94 3e ec aa 96 be
       -0.1393972 0.5097405 0.29001728 -0.29427278
0000d0 d3 4e 43 be c0 25 35 3f cd 34 73 be db 52 96 bd
       -0.19073038 0.70760727 -0.2375061 -0.07340022
0000e0 f2 cf b4 3e 3e 75 b9 3e 6e b9 f6 3e ff 90 e1 be
       0.353149 0.3622226 0.48188347 -0.44055936
0000f0 ae fa 41 be bc 15 07 bd 82 4d e4 3e 16 71 a2 3e
       -0.18943283 -0.032979712 0.44590384 0.31726903
000100 82 c9 a7 3e 99 f9 7f 3e 0a e0 8f be 7b e6 03 bf
       0.32770926 0.24997558 -0.28100616 -0.5152356
000110 b9 1f b0 3e 0e cd 89 3e 8b 63 bd be 64 41 3e be
       0.34399202 0.26914257 -0.36990008 -0.18579632
000120 64 e5 21 3e ac 74 d0 be f8 85 55 3e b2 1e 87 3e
       0.15810162 -0.40714014 0.20851886 0.26390606
000130 31 9a 3c 3e d9 a2 78 3d 01 a4 1f bf 41 20 3f 3f
       0.18418194 0.06070218 -0.62359625 0.7465859
000140 fb 5e 9b 3e a9 da a2 3e 06 54 28 be aa 37 7c bf
       0.30345902 0.3180745 -0.16438302 -0.98522437
000150 4a 0e e5 bb 16 48 a2 3e 32 b4 86 3f 2a 4e 15 3f
       -0.006990229 0.31695622 1.0523741 0.58322394
000160 7d 03 06 3f 16 2f 71 3e ed bb d9 3e 30 28 ae 3b
       0.5234907 0.23553118 0.42526188 0.0053148493
000170 a2 0e 45 be 20 12 ac bd e2 ce eb bd 92 7d 8e bb
       -0.19243863 -0.084018946 -0.11514069 -0.0043484652
000180 6b df 8c bf 70 1a 3f bf 75 f1 54 3f 3a 5a 23 bf
       -1.1005682 -0.74649715 0.83180934 -0.6380955
000190 16 4c 62 3c c5 ce a0 be 0a 0c e3 3d b3 7d 2d be
       0.013812086 -0.31407753 0.11086281 -0.16942482
0001a0 73 ca 94 3e 01 5f e0 3d cc 03 20 3e 4b f3 8b 3e
       0.29060706 0.109556206 0.15626448 0.27334055
0001b0 db 8f 0e be 63 e1 4e bf 07 8c da 3d 17 b3 06 be
       -0.13922064 -0.8081266 0.10671239 -0.13154255
0001c0 63 15 21 bf 56 f1 84 3f 51 48 04 3e 38 68 c7 bd
       -0.6292326 1.038615 0.12918212 -0.09736675
0001d0 ea 76 87 be 87 3c cd bd aa 45 13 bf 9f 6d 5d 3f
       -0.26457912 -0.1002131 -0.57528174 0.86495394
0001e0 cb 80 31 bd 11 4a 76 3e 4f 0b 17 3e f3 a8 bf 3e
       -0.043335717 0.24051692 0.14750408 0.37433586
0001f0 d2 23 49 bf 61 d5 a2 be 9f 39 ad bd 57 82 a9 bd
       -0.7857028 -0.3180342 -0.08458256 -0.082768135
000200 62 a7 4c 3f a3 64 10 bf 54 38 6b be 8a ba b0 3f
       0.79942906 -0.5640356 -0.22970706 1.3806927
000210 2b e9 dd 3e ec ae 94 be 9b db 6b bf 30 db b0 be
       0.43341956 -0.29039705 -0.92131966 -0.34542227
000220 0a b0 85 3e df 77 30 bd 96 0e 81 be 98 80 c6 be
       0.2611087 -0.043083068 -0.2520644 -0.38769984
000230 65 a6 d6 3d 70 d7 bb 3e fa a4 88 3e 03 4f 23 bf
       0.10480956 0.36687803 0.26688367 -0.6379244
000240 3b b2 b1 3e 94 96 3b 3f 43 80 f5 be b8 79 8a be
       0.34706292 0.7327664 -0.47949418 -0.2704599
000250 9c 51 c4 3e 70 6e 4d 3d 8b e1 66 3d 61 ef 6a 3e
       0.38343513 0.05015415 0.05636744 0.22942878
000260 ad 87 61 be 9b 06 c3 3e 69 d7 b6 be f9 10 15 bf
       -0.22024412 0.38090977 -0.3571122 -0.58229023
000270 f0 5f 25 3e 73 de b4 3e f4 c1 ea be bb ca 70 be
       0.16149879 0.35325965 -0.458511 -0.23514836
000280 be 2e 9d 3e e9 12 c2 3e 9e 82 72 be 7f bb 4c be
       0.30699724 0.37905052 -0.23682639 -0.19993399
000290 23 1d 20 3e b1 e6 a7 3d cb 97 62 be 5c 26 7f 3e
       0.15636115 0.08198298 -0.22128217 0.24916977
0002a0 19 05 14 3f eb 36 35 bf 08 f7 ab 3e 8c 26 dc 3d
       0.5782028 -0.70786923 0.33586907 0.1074954
0002b0 58 4a 18 3f 11 79 ad 3e 9b a2 ad be d0 74 26 3e
       0.5948844 0.3388143 -0.3391312 0.16255498
0002c0 6e 02 c7 bd 80 67 74 be c2 43 2e bf e8 ba 23 be
       -0.0971726 -0.23867607 -0.6807214 -0.15989268
0002d0 35 95 88 bd 76 61 d8 bc 33 9d 47 bf f7 77 55 bd
       -0.06669084 -0.02641366 -0.7797424 -0.05211636
0002e0 5c 36 99 bd d8 c9 80 3d 8b 73 0b 3f 38 7c 47 be
       -0.07481071 0.06288499 0.5447318 -0.1948098
0002f0 1e 1a e4 be bf 88 69 bc 51 cf 9d be e0 d4 a5 be
       -0.44551176 -0.014253794 -0.30822232 -0.32388973

sequential_4/dense_15/MatMul f4 [32, 32]
000000 2c c3 6a be bd 7e 0f be 23 30 98 be d8 37 d4 be
       -0.22926015 -0.1401319 -0.29724225 -0.41448855
000010 f2 6e ae be 19 43 0d be ee 4f 09 bb 91 25 12 bd
       -0.3406902 -0.13795127 -0.0020952183 -0.035680357
000020 0e 59 a8 be e4 2b 5d bd 8e 95 a9 3d 5e 11 83 3c
       -0.32880443 -0.053996935 0.082804784 0.015999492
000030 fb 28 c3 3c 2e 3a 44 bd 34 0c ff 3d 87 e8 dc bd
       0.023823252 -0.047907047 0.124534994 -0.107865386
000040 ae e0 2e be 4f 6c 27 bc 71 bc a1 3e 97 69 d7 3e
       -0.17077896 -0.010218694 0.31589082 0.42072746
000050 34 99 b6 be 9b 65 aa 3e 9e bd 8a 3e b7 55 d6 3d
       -0.3566376 0.33280644 0.2709779 0.104655676
000060 f1 ab 84 be 2d 5c 73 be 01 c0 bb 3d 48 c0 9d 3d
       -0.2591243 -0.23765631 0.09167481 0.0770269
000070 4c 3d ff bd 5a 80 bb 3e 6f ef 72 3e d7 7b a4 3e
       -0.12462863 0.36621362 0.23724149 0.32125732
000080 42 b2 0d 3e 9a 1c 42 3e a0 af f3 3e 60 2e 29 3e
       0.13837531 0.18956223 0.4759493 0.16521597
000090 e9 6b 55 be a5 21 c2 be bf 76 e2 be 60 b1 b7 be
       -0.20841946 -0.37916294 -0.4423122 -0.35877514
0000a0 c7 41 99 3e 66 c5 ab be 8b b4 ee 3d 2c 9f 98 3e
       0.29932997 -0.3354904 0.116555296 0.29808939
0000b0 78 5a 8a be 29 1f fe 3e df cc bb 3e 58 d5 9b 3e
       -0.27022147 0.49633148 0.36679742 0.30436206
0000c0 72 5b 0d 3e fe 4f e6 3d a0 62 07 bf d3 2b c0 3c
       0.13804415 0.11245726 -0.52884865 0.023458397
0000d0 1d a6 16 3d 6e aa f2 3e c7 a5 aa 3e 43 09 99 be
       0.03677951 0.47395653 0.33329603 -0.2988988
0000e0 07 9c d0 3e ac 33 83 3d 3d c2 62 3e 90 79 c0 bd
       0.4074404 0.0640634 0.22144409 -0.09398186
0000f0 3e fd a0 be 44 4b 85 bf e9 24 d7 bd d9 2b bc 3d
       -0.31443208 -1.0413594 -0.10505087 0.09188051
000100 3c 40 49 be a0 a4 51 3d 88 10 29 be 37 69 14 be
       -0.1965341 0.05118239 -0.16510212 -0.14493261
000110 29 35 96 be 0b 4c 92 be 0b 9c 3c be a0 97 79 3e
       -0.29337433 -0.2857364 -0.184189 0.24374247
000120 e4 b7 a2 be 4c 52 f7 bd e0 6b 3d bd f9 85 11 3e
       -0.31780922 -0.12076244 -0.046245456 0.14211263
000130 e0 47 20 be e9 3e 69 bb 8a 14 89 bd 97 eb 33 3d
       -0.15652418 -0.0035590476 -0.06693371 0.043925848
000140 ea bb 72 be 62 ef 61 be 33 d5 16 be 87 7f 50 3e
       -0.23704496 -0.22063974 -0.14729767 0.20361148
000150 98 46 d1 3d 84 4c 0b be c1 11 91 3e 14 28 dc bd
       0.10218543 -0.13603407 0.28333858 -0.10749832
000160 d7 c4 24 3e 67 8f 4b be f4 49 5f 3e a3 2b 82 be
       0.16090713 -0.19878922 0.21805555 -0.25423917
000170 7f 73 a3 be d9 b3 bd bd d6 85 b0 bc 98 8a 91 be
       -0.31924054 -0.09262819 -0.021548193 -0.2842605
000180 1e 56 73 be 55 df e4 3d da 06 14 3d 86 d2 86 be
       -0.2376332 0.1117541 0.036139347 -0.26332492
000190 0c 9c 4c 3e 1f 3e 26 be b0 03 19 3e 62 32 c1 3c
       0.19981402 -0.16234635 0.14942813 0.023583595
0001a0 e6 ba 92 be 2f 48 a7 3d b1 58 3f 3e f2 72 52 3e
       -0.28658217 0.08168065 0.18686177 0.2055166
0001b0 eb 2d 6f 3e cc f8 97 be 92 89 67 bd ed 72 3b be
       0.2335736 -0.29682004 -0.05652768 -0.1830556
0001c0 33 cf 82 be 51 b1 80 3e 0a 8c 3d be 82 e4 9f be
       -0.25548705 0.25135282 -0.18510452 -0.31229025
0001d0 6a a2 a3 be 4c 12 0a be d5 30 85 be 24 ce 40 3e
       -0.3195985 -0.13483542 -0.26013818 0.18828636
0001e0 2c 93 8a bc ce 3a 47 bd 26 8a 08 bc bb 1c cc bd
       -0.01691588 -0.048640065 -0.008333718 -0.099664174
0001f0 03 47 04 3b 0b 21 4f 3e 9d 51 ab bd 2b aa 25 bd
       0.0020183928 0.20227449 -0.08365176 -0.040445488
000200 48 ce 95 3d e2 3d 14 be 61 3b b6 3e d9 6f 70 3e
       0.07314736 -0.14476731 0.35592178 0.23480166
000210 b4 3d d0 3d ba 85 54 3d cc 37 6b bc 15 77 43 be
       0.10168019 0.051885344 -0.014356565 -0.19088395
000220 98 0e 77 3e 32 d6 00 3e 70 1c 98 3e 1c 3d f1 bd
       0.24126661 0.12581709 0.29709196 -0.11779234
000230 2e e9 a6 be 7a ce 52 be 46 04 61 3d 2a 94 24 3e
       -0.32599777 -0.20586577 0.054935716 0.16072145
000240 88 7c 8e be 59 27 b6 3c 1e a0 b7 bd 21 89 14 3d
       -0.27829385 0.02223556 -0.08966087 0.03626359
000250 00 b6 9d be dd 4f 87 be d9 cb de 3d f1 26 ad bd
       -0.30802917 -0.26428118 0.108787246 -0.08454693
000260 1d 84 90 3b cd 73 c3 3e 4b f9 83 bd b8 38 e3 3d
       0.0044102804 0.38174286 -0.06444033 0.110948026
000270 a6 a5 92 be 30 a3 04 bc 14 4f 52 be 7e e1 2e bd
       -0.28642005 -0.008095548 -0.20537978 -0.042695515
000280 88 2d 5f 3e 0b 7f 9a 3e 7c 83 0a be 8c 2d 52 be
       0.21794713 0.3017505 -0.1352672 -0.20525187
000290 d5 aa 14 be 10 41 d4 3d 97 b5 69 be dc 71 89 bd
       -0.14518292 0.10363972 -0.22823177 -0.0671117
0002a0 50 28 18 be 62 bf f1 3d ea a9 20 3e 16 0a 05 be
       -0.14859128 0.118040815 0.15689817 -0.12992129
0002b0 23 8e 35 3d 00 7d a6 bd 08 86 00 3e e6 e4 93 3d
       0.044325005 -0.081293106 0.12551129 0.07221393
0002c0 cd 47 d9 3d 1f c6 97 3e 08 d5 a2 bd 56 dd 6d 3e
       0.10609398 0.29643342 -0.07950789 0.23228964
0002d0 e8 85 01 be d2 e2 94 be 2c 88 ab be 89 b0 29 be
       -0.12648737 -0.290793 -0.33502328 -0.16571249
0002e0 0a 13 04 3d 75 5b 9c be 70 9c 82 3e 82 80 5c 3e
       0.03224472 -0.30538526 0.25509977 0.21533397
0002f0 6e 11 90 be d7 a0 8f 3c da 7a 7d be d8 9b fe 3b
       -0.28138298 0.01753275 -0.24753895 0.007770043
000300 22 e6 87 be 21 a1 df 3d cc 16 35 bd df d7 33 be
       -0.26542765 0.10919405 -0.044211194 -0.17562817
000310 37 b1 9a bd fb 81 d4 3d 39 b6 eb bd a3 03 63 be
       -0.07553332 0.10376354 -0.115093656 -0.22169356
000320 e7 3e 8c be f4 e5 3d 3e 77 1c ea 3d 97 c5 8b 3e
       -0.2739174 0.18544751 0.114312105 0.27299187
000330 bc f8 1e 3e 54 6a 1d 3e c5 99 57 3e e3 b3 e1 bd
       0.15524572 0.15372592 0.21054752 -0.11020639
000340 c7 58 83 be c2 b7 24 be 7a 95 65 3e 70 fa f7 bd
       -0.2565367 -0.16085723 0.22420302 -0.12108314
000350 3f 3d 3a be 8a 15 6d be 85 2f df bd ba 1d 12 be
       -0.18187426 -0.23152748 -0.108977355 -0.14269152
000360 e0 6d bb bb 5a 48 87 be ff dd fd 3d 73 3a 80 bd
       -0.005719885 -0.26422387 0.12395858 -0.06261148
000370 01 8d 52 be 62 ed 58 be 25 94 b0 bd db 3a f1 3d
       -0.20561601 -0.21184304 -0.08622006 0.11778804
000380 d9 29 84 3e 6d 59 68 bd b5 d9 c8 be 1a 61 6f be
       0.25813177 -0.056725908 -0.39228597 -0.23376885
000390 b9 75 86 be 5c 0d ca 3d 10 03 3d 3e 8d e0 8c be
       -0.2626169 0.09865829 0.184582 -0.2751507
0003a0 a6 0d 67 3e 28 4e 20 3e 06 9f 04 3e 25 c7 d8 3c
       0.225638 0.15654814 0.12951288 0.026462147
0003b0 33 9e 3a 3d f3 fb e4 be f2 56 94 be 11 5a dd 3d
       0.045561027 -0.44723472 -0.28972584 0.108081944
0003c0 eb 5f 25 3e 81 8f 80 be bb b3 06 be 04 8e 1a 3e
       0.16149871 -0.25109485 -0.13154499 0.15093237
0003d0 50 7a 20 be 3c a0 97 be 4c be 36 3d 7e c4 1b bb
       -0.15671659 -0.29614437 0.044615075 -0.0023768242
0003e0 a5 ce 21 be 42 f2 96 bd 7d 75 1f be 53 62 a8 be
       -0.15801485 -0.07370426 -0.15572162 -0.32887515
0003f0 f6 6b c1 bd 62 9b 8c 3e ec 71 c5 bc 71 3e 8c 3d
       -0.0944442 0.27462298 -0.024102174 0.06847847

sequential_4/dense_16/MatMul f4 [5, 32]
000000 02 ed 7a be 6a a7 c9 be 99 59 83 3d e2 df b6 be
       -0.24504474 -0.3938554 0.06413574 -0.35717684
000010 97 57 d5 be 1e d8 69 3d 80 e0 a2 be 0a 0d 90 be
       -0.41668388 0.05709087 -0.31811905 -0.28134948
000020 2d cd 75 3e 09 03 84 3e e1 5f bf 3d 7e 7e 1e 3e
       0.2400405 0.25783566 0.09344459 0.1547794
000030 70 7e 28 bd 7e 7d c5 be 6d 51 11 bf 9d 9d 52 3e
       -0.041136205 -0.38572305 -0.5676487 0.20567937
000040 74 51 9b 3e 2e 7c 7f be 6f cb bb 3e 7e 80 c4 be
       0.3033558 -0.24949715 0.36678645 -0.38379282
000050 5e 88 8f 3e 34 cd fd 3e 8a 54 86 3e 29 aa f8 3e
       0.28033727 0.4957062 0.26236373 0.48567322
000060 8a 3e 32 3c bd 7a cf bd 5f 3c c2 be 7a 82 0c 3e
       0.010879168 -0.10130832 -0.37936684 0.13721648
000070 eb d8 dd be f4 7a 96 be 19 f1 3c be da eb 92 3e
       -0.43329558 -0.2939068 -0.18451346 0.28695565
000080 1a 5b 8c bd 26 99 90 be 3f d7 a0 3e 3c b4 95 be
       -0.06853314 -0.28241843 0.3141422 -0.2923907
000090 14 a8 eb 3e f7 ce 91 3e ea 31 8b be da db c9 bd
       0.4602667 0.28478214 -0.2718652 -0.098563865
0000a0 3c 6b f9 3e 5c fe 04 3f fc f4 c3 be c4 bf 05 bd
       0.48714626 0.5195062 -0.38272846 -0.032653585
0000b0 87 6f 41 3f be cf 27 3f 8e 8a 51 be 8b ab 0d be
       0.755608 0.65551364 -0.2046301 -0.1383497
0000c0 c7 dd 37 3f 99 95 b8 be 8e 45 fd 3e e4 95 c2 3e
       0.7182278 -0.36051634 0.4946713 0.38004982
0000d0 71 2a 4c bc f9 19 f9 3e a6 20 05 be 87 8d 03 3d
       -0.012461291 0.48652628 -0.13000736 0.032117393
0000e0 8c 21 ee bd 2f 16 98 3e c1 32 9e 3e 32 e0 0e 3f
       -0.11627492 0.29704425 0.30898097 0.55810845
0000f0 2b 22 00 3e 4a 94 c2 3e 9c 5f 75 3f 35 ed 36 bf
       0.12513034 0.3800376 0.95849013 -0.714557
000100 ef 44 9a 3e 31 f3 3e 3d 62 e3 a0 bc ef 74 76 3e
       0.30130717 0.046618644 -0.019639675 0.24068044
000110 f7 dc 8a bf a0 5c 79 be 6b f2 a6 be dc f4 c9 be
       -1.0848683 -0.2435174 -0.32606825 -0.39444625
000120 71 d6 42 bd 07 01 86 be fd 55 57 be a3 3f 5d 3d
       -0.04756779 -0.2617266 -0.21028896 0.054015767
000130 8a 56 aa be 1e c4 d3 be a3 64 d5 be 81 dd a3 3e
       -0.3326915 -0.41360563 -0.41678342 0.32004932
000140 78 ef 4d be b9 50 55 3e 5d 3b 28 bf b1 9f 91 bf
       -0.20110881 0.20831574 -0.6571558 -1.1376859
000150 64 21 28 3e 5b 0c cb be 7c a1 47 be d6 94 bf bd
       0.16418988 -0.39657864 -0.19495195 -0.0935456
000160 4b a4 19 bf 7b 7c 05 bf 89 94 3c bf 7d 9f 99 3d
       -0.60016316 -0.5214307 -0.73664147 0.07501123
000170 b4 c0 02 be 87 b4 da be 99 74 2e 3e 66 a6 57 3e
       -0.12768823 -0.42715856 0.17036666 0.2105957
000180 aa 26 14 bf ba 0b 82 3f 35 39 3c be f9 d7 b1 3c
       -0.57871497 1.0159829 -0.18381198 0.02170943
000190 aa bd e4 3e 0e 3d f2 bd 44 e5 4f 3e b6 e9 8b 3e
       0.44675952 -0.118280515 0.20302302 0.27326745
0001a0 e4 27 f3 3d 75 00 56 3f c8 90 28 3e 36 b3 ae be
       0.11872843 0.8359445 0.1646148 -0.34121102
0001b0 87 6d 16 bf fd b4 56 3f 8b e1 1d 3e 45 f6 87 be
       -0.58760875 0.83869916 0.15418069 -0.26555076
0001c0 fa a3 81 bf 2f 86 34 3f 17 99 7d be 3f 3a 8c 3e
       -1.0128167 0.7051725 -0.2476543 0.27388188
0001d0 77 ef d4 be 6b 2b 22 bf 61 7f e6 3e 4f 71 1b bf
       -0.41588947 -0.633475 0.45019057 -0.6071977
0001e0 3f a4 2d bf cf 8e 60 3e 12 c1 73 be 0c b3 fe 3e
       -0.67828745 0.21929477 -0.23804119 0.49745977
0001f0 65 b8 1e bc 85 97 36 be 4d 99 22 3e 01 23 33 3f
       -0.009687518 -0.17831238 0.15878792 0.69975287
000200 db e2 95 3e 1c 3e 2c bf 42 56 d3 bd e7 a1 ed 3d
       0.2927464 -0.6728227 -0.10319187 0.11603146
000210 18 1c 35 3f e0 4b b9 bd d4 53 15 3e 81 8f 5e bd
       0.7074599 -0.09047675 0.14582759 -0.054336075
000220 43 f1 32 bf 41 cc bd bf 6f 13 c7 3d d8 81 a2 3e
       -0.69899386 -1.4827958 0.097205035 0.31739688
000230 0f ef d7 3e 99 e9 e9 be cd 2c 6a 3e 25 61 f7 3e
       0.42174575 -0.45686033 0.22868653 0.48316303
000240 bd 9f 99 3d 56 95 02 bf f6 b6 33 3f ad 2a 8d 3e
       0.07501171 -0.5100912 0.7020105 0.27571622
000250 5e b1 28 be bd 3c 7c 3e c6 dc 9f be 95 37 51 be
       -0.1647391 0.24632545 -0.31223124 -0.20431359
000260 21 7f 3c 3f 4c 76 7f 3d 4a fe 97 3e 85 cf 75 bf
       0.73631483 0.062368676 0.29686195 -0.96019775
000270 9e f3 a6 3d ea 34 13 3f 3b 8b 71 bf e3 bb a3 3e
       0.08151935 0.57502615 -0.94353074 0.31979284

sequential_4/dense_14/MatMul;sequential_4/dense_14/Relu;sequential_4/dense_14/BiasAdd f4 [32]
000000 8d d1 ab 3e 42 6d 42 40 1d 5a 35 c0 b2 d6 66 40
       0.33558312 3.0379186 -2.833625 3.606854
000010 23 8f 05 40 f6 45 27 3f 38 4d ac 3f fd cd 08 40
       2.0868614 0.65341127 1.3461065 2.1375725
000020 0d 58 80 3e 44 02 90 3f 86 13 9c 3f 9b 44 1f 40
       0.25067177 1.1250691 1.2193458 2.4885623
000030 59 a4 19 3e 6c ea 14 40 00 65 0d 40 4a 52 9f bf
       0.150041 2.326808 2.2092896 -1.2446988
000040 f0 cc 6d 40 ea 94 6d 3e d4 06 23 3f d8 f6 3f be
       3.7156334 0.23201337 0.63682294 -0.18746507
000050 01 6a f1 3f 21 89 b4 3f 5b f9 94 c0 66 05 8b 3f
       1.8860475 1.4104348 -4.655439 1.0861022
000060 40 f4 65 c0 83 89 50 3f be 1f 2a c0 04 dd 9a 3f
       -3.5930328 0.81459826 -2.6581874 1.2098699
000070 e6 8e b4 bd fc da c9 3f 81 d4 17 c0 a4 7b 50 bf
       -0.08816318 1.5769954 -2.3723452 -0.8143866
