scripts/models/capture_10x_1,5x1m_16x16_model_no_quant.tflite (tflite, 4200 bytes, 7 tensors)

dense_7/bias f4 [5]
0	0xbf03c393	-0.514703
1	0x3e7f03df	0.2490382
2	0xbf338ff0	-0.70141506
3	0x3f3b0e16	0.7306837
4	0x3e721206	0.23639688

dense_6/bias f4 [16]
0	0x3e95bd99	0.29246214
1	0xbe1bdf94	-0.15222007
2	0xb916bddd	-0.00014375844
3	0xbe29ffc7	-0.16601478
4	0x3b831bfb	0.0040011383
5	0xbe1b42be	-0.15162179
6	0xbe2c37be	-0.16818139
7	0x3e70d6db	0.23519461
8	0xbe26ec1a	-0.16301003
9	0xbb234f12	-0.0024918956
10	0x3e602c9b	0.21892016
11	0xbdf2e9ef	-0.118610255
12	0xbd2ae153	-0.041718792
13	0x3ec3941b	0.38198933
14	0xbdda3f94	-0.10656658
15	0xbe6c05fd	-0.2304916

sequential_1/dense_4/MatMul f4 [6, 6]
0	0x3e66716a	0.22504202
1	0x3edeb228	0.43495297
2	0xbe2062d4	-0.156627
3	0xbe5a61ee	-0.2132642
4	0x3e564953	0.20926408
5	0xbf48f11f	-0.7849292
6	0xbf54c6a2	-0.8311559
7	0x3f2def54	0.6794331
8	0x3cfdbc7e	0.03097367
9	0x3d230dbe	0.039808027
10	0xbf0705fa	-0.52743495
11	0xbf46ff9e	-0.7773379
12	0xbeddf7d4	-0.4335314
13	0xbfe692b4	-1.801352
14	0x3f8ac46e	1.0841196
15	0x3e092120	0.13391542
16	0x3f012725	0.50450355
17	0x3d8fb7af	0.07017457
18	0xbf91710e	-1.1362627
19	0xbd89a9a4	-0.067218095
20	0xbf963f65	-1.1738096
21	0x3e94bd6e	0.29050773
22	0x3e9af350	0.30263758
23	0xbe8758e7	-0.26435015
24	0x3f9f96a8	1.2467852
25	0x3e8d0a6e	0.2754702
26	0x3f968340	1.1758804
27	0xbd284304	-0.041079536
28	0xbf292741	-0.6607552
29	0xbf634b80	-0.8878708
30	0xbc5c7cec	-0.013457518
31	0xbdaae107	-0.08343702
32	0xbeba2de5	-0.3636314
33	0x3d979f90	0.07403481
34	0x3e801a82	0.25020224
35	0xbeaff769	-0.34368446

sequential_1/dense_5/MatMul f4 [16, 6]
0	0xbe73dd37	-0.23814856
1	0xbd67121a	-0.056413747
2	0xbc9861d2	-0.018601332
3	0xbd5906ec	-0.052985117
4	0xbf51aa94	-0.81900907
5	0xbdf29356	-0.11844508
6	0x3e9b5997	0.3034179
7	0xbe5a5ff8	-0.21325672
8	0x3e558f00	0.20855331
9	0x3d97c4e1	0.074105985
10	0xbe9ddde2	-0.30833346
11	0x3e34fe37	0.176751
12	0x3e8005ab	0.25004324
13	0x3ea024d1	0.3127809
14	0xbea0c6b2	-0.31401592
15	0x3e8b7404	0.2723695
16	0x3ea400d5	0.32031885
17	0x3da87f3e	0.082273945
18	0xbe18e396	-0.14930567
19	0x3eb0c9c7	0.34528944
20	0x3df16cc8	0.117883265
21	0xbd79372e	-0.06084364
22	0xbef39d8a	-0.4758113
23	0x3e9cb316	0.30605382
24	0xb9dd47ac	-0.00042205804
25	0x3ed1ada1	0.4095278
26	0xbf25f515	-0.6482709
27	0x3e78e911	0.24307658
28	0x3e91f943	0.28510484
29	0x3e991bb1	0.2990394
30	0x3ead4b87	0.33846685
31	0xbe854ca9	-0.2603505
32	0x3dd5e7c4	0.104445964
33	0x3dce44c1	0.100717075
34	0xbe480891	-0.19534518
35	0xbe0bd124	-0.13654
36	0xbead700f	-0.33874556
37	0xbd05b0df	-0.03263938
38	0xbf2b818a	-0.66994536
39	0x3f600d8e	0.8752068
40	0xbed37eb1	-0.41307595
41	0xbc79b4ec	-0.015240889
42	0xbeb0e1cf	-0.34547278
43	0xbf3247c9	-0.69640785
44	0x3e72a231	0.23694684
45	0xbde36b02	-0.111043945
46	0x3d5c67c2	0.05380989
47	0xbdcd170f	-0.10014164
48	0xbebd396b	-0.3695787
49	0xbf0c51d8	-0.54812384
50	0xbc2f2a15	-0.0106911855
51	0x3de3be22	0.11120249
52	0x3ea97457	0.33096573
53	0x3d86d56f	0.06583678
54	0x3e4e7ed5	0.2016557
55	0xbf0a6ff0	-0.54077053
56	0xbf0e005d	-0.55469304
57	0x3dcf6843	0.10127308
58	0xbf0a284a	-0.53967726
59	0xbd835412	-0.064125195
60	0x3ecd2b53	0.40072116
61	0xbdf188b8	-0.11793655
62	0x3e329c51	0.17442442
63	0xbeab583e	-0.3346576
64	0xbeb047b7	-0.34429714
65	0x3e813748	0.2523749
66	0x3e9486e2	0.29009157
67	0x3e94bdc1	0.2905102
68	0x3ecde8cb	0.4021667
69	0xbda3adba	-0.0799212
70	0x3eace07f	0.33765027
71	0x3ed2a4ec	0.4114145
72	0xbc472c74	-0.012156595
73	0x3e65069e	0.22365806
74	0xbea3f558	-0.3202312
75	0xbead85ef	-0.33891246
76	0x3dcf7b66	0.10130958
77	0xbec20b42	-0.37899214
78	0x3eb14569	0.34623268
79	0x3ec03452	0.37539917
80	0x3ea04435	0.31302038
81	0x3e45e8ee	0.19327137
82	0xbec7fa57	-0.39058182
83	0x3ef2586b	0.47333083
84	0xbe07cb5c	-0.13261169
85	0xbe97a092	-0.29614693
86	0x3c459ede	0.012061803
87	0xbf06fb4e	-0.5272721
88	0x3ecc7413	0.39932308
89	0xbe98c5eb	-0.298385
90	0xbef0b170	-0.47010374
91	0xbe269b4f	-0.16270183
92	0x3f44c366	0.76860654
93	0x3f04ade9	0.51827866
94	0xbf0fd847	-0.5618939
95	0xbe888991	-0.26667455

sequential_1/dense_6/MatMul f4 [16, 16]
0	0x3e9863a5	0.29763523
1	0xbeb193da	-0.34683114
2	0x3e1dfb4a	0.1542789
3	0xbe535900	-0.2063942
4	0x3e8e2667	0.27763674
5	0xbe891225	-0.26771656
6	0xbf6d2f8f	-0.92650694
7	0x3f36fb24	0.7147696
8	0x3e562b5b	0.20914976
9	0xbec7f75a	-0.39055902
10	0xbeb499a6	-0.35273474
11	0xbe1a3baf	-0.1506183
12	0xbc84217c	-0.016129248
13	0x3ebc647c	0.36795413
14	0x3f0d6d39	0.55244786
15	0x3f25a824	0.6470969
16	0x3eb3e078	0.35132194
17	0xbe09dff1	-0.13464333
18	0x3ed041ba	0.40675145
19	0x3dc590e8	0.09646779
20	0x3d1ca8e0	0.03824699
21	0x3e5d3785	0.2160321
22	0xbda28047	-0.07934623
23	0x3c56087f	0.013063549
24	0xbe88c416	-0.26712102
25	0xbd9f9e9d	-0.07793925
26	0xbd81c66d	-0.06336675
27	0xbbb0e6b8	-0.0053985976
28	0xbe991b02	-0.29903418
29	0x3e88aa69	0.26692513
30	0xbe1319e2	-0.14365342
31	0xbdf8fc78	-0.121575296
32	0x3d79b56f	0.060964044
33	0x3e84cc2c	0.2593702
34	0xbe256576	-0.16151986
35	0xbec5db9b	-0.38644108
36	0x3e8c0677	0.27348682
37	0x3e2fc614	0.17165405
38	0xbeaf7fe5	-0.34277263
39	0xbecef935	-0.40424505
40	0x3c40fe7f	0.011779427
41	0x3ea40ea6	0.32042426
42	0x3eafc530	0.3433013
43	0x3b4a2280	0.0030843318
44	0xbec24202	-0.37940985
45	0x3e8dd02d	0.27697888
46	0xbed29115	-0.41126314
47	0xbeb4fa9c	-0.3534745
48	0x3e77c2fb	0.24195473
49	0xbe33f925	-0.1757551
50	0xbede1236	-0.4337327
51	0x3eb937d6	0.36175412
52	0xbe1c4889	-0.15262045
53	0xbd84396d	-0.064562656
54	0x3dd3f2df	0.10349058
55	0xbc376ad4	-0.011194903
56	0x3d9c2991	0.07625116
57	0x3f09f9ba	0.5389668
58	0xbd1903fa	-0.037357308
59	0xbd9f25ce	-0.077708825
60	0xbede7413	-0.43447933
61	0xbed7e14c	-0.42164075
62	0xbea7b805	-0.32757583
63	0x3de0ff4b	0.10986193
64	0xbeb5a4ab	-0.35477194
65	0xbde3513c	-0.110994786
66	0xbeb9d848	-0.36297822
67	0xbe269a0e	-0.16269705
68	0x3de4c53c	0.11170432
69	0x3e8efe26	0.27928275
70	0xbecb4c37	-0.39706585
71	0xbd0898d3	-0.03334887
72	0x3da743ba	0.08167215
73	0xbe797f1d	-0.24364896
74	0x3e91e962	0.2849837
75	0xbdbda7d7	-0.092605285
76	0xbe8456cb	-0.25847468
77	0xbe3e1049	-0.185609
78	0xbe8d0292	-0.27541023
79	0x3e1a7daf	0.15087007
80	0x3e3e5925	0.18588693
81	0x3e3ecf4d	0.18633766
82	0x3eb46105	0.3523027
83	0x3df5b24f	0.119969
84	0x3e9ec2e9	0.3100808
85	0x3ddeb1e7	0.10873776
86	0xbeb6838b	-0.35647234
87	0xbe70cc56	-0.23515448
88	0x3e955393	0.29165325
89	0x3eb03d05	0.34421554
90	0xbe3760be	-0.17907998
91	0xbd516a23	-0.05112661
92	0xbea2034c	-0.3164314
93	0xbebc5b3a	-0.3678835
94	0xbe540c63	-0.2070785
95	0x3dd640fb	0.10461613
96	0x3e88512e	0.26624435
97	0x3de251a4	0.11050728
98	0x3ebaed50	0.3650918
99	0x3eab9567	0.33512422
100	0x3e37e8eb	0.17959945
101	0xbeb36b94	-0.35043013
102	0xbe8882fd	-0.26662436
103	0xbea6df39	-0.3259218
104	0xbed2d11a	-0.41175157
105	0x3e82bec6	0.25536174
106	0xbed091ac	-0.4073614
107	0xbea5975c	-0.3234204
108	0x3e9a09b0	0.30085516
109	0xbed6cac1	-0.41951564
110	0xbdefb491	-0.11704362
111	0xbd947fde	-0.07250951
112	0x3f3eadd2	0.7448398
113	0xbdde2771	-0.108473666
114	0x3eb9bddc	0.36277664
115	0x3e104cfe	0.1409187
116	0xbe82ab4d	-0.25521317
117	0xbead41bc	-0.33839214
118	0x3e8e2ddf	0.27769372
119	0x3d75cc2c	0.060009167
120	0xbdb2ecba	-0.08736558
121	0x3f03c13d	0.51466733
122	0xbe8d6cd1	-0.27622083
123	0x3ea2aa4b	0.31770548
124	0xbe1c6e99	-0.15276565
125	0x3ec8ce76	0.39220017
126	0x3d848c7f	0.0647211
127	0x3ed6b27a	0.41933042
128	0xbea8faad	-0.3300375
129	0xbdb6d714	-0.08927742
130	0x3ea2cea4	0.3179828
131	0x3e07f2f1	0.13276269
132	0x3eab4d85	0.3345758
133	0xbdd838bc	-0.10557696
134	0xbe9d1537	-0.30680248
135	0x3db4aa83	0.08821585
136	0xbef40385	-0.47658935
137	0xbc066b1e	-0.00820425
138	0x3d263aec	0.040583536
139	0x3d978d7d	0.074000336
140	0x3c89ecac	0.016836487
141	0xbeb34ff2	-0.3502193
142	0x3cadcb49	0.021215098
143	0xbecca8a1	-0.39972404
144	0x3eb2429f	0.34816453
145	0xbecfe050	-0.40600824
146	0x3ece907a	0.40344602
147	0xbb69307b	-0.0035581875
148	0x3e50ec9e	0.20402762
149	0x3e86cfb9	0.26330355
150	0xbe196b85	-0.14982422
151	0xbea9d303	-0.33168802
152	0xbe820161	-0.25391677
153	0xbdfb259b	-0.12263032
154	0xbe554b3a	-0.20829478
155	0xbdb0c348	-0.08630997
156	0xbe92fa17	-0.28706428
157	0x3e16c352	0.14722946
158	0xbed2c425	-0.4116527
159	0xbd539884	-0.051659122
160	0xbe7e12a9	-0.24811806
161	0x3ed15caa	0.4089101
162	0xbe47d60d	-0.19515248
163	0xbe1904b6	-0.14943203
164	0x3f146e4e	0.5798081
165	0x3e74072f	0.23830865
166	0x3e4a11f8	0.19733417
167	0x3bee0a0c	0.0072643813
168	0x3e47acf6	0.19499573
169	0x3f0ee0c3	0.5581171
170	0x3de63490	0.11240494
171	0x3dbf80f8	0.09350771
172	0x3ece4164	0.40284264
173	0x3ea7f2d1	0.32802442
174	0x3f25933c	0.64677787
175	0xbf84dc25	-1.0379683
176	0x3e21fa1b	0.15818064
177	0xbe751db4	-0.23937112
178	0x3e8289d8	0.2549579
179	0xbe40d9fd	-0.18833156
180	0x3e1f093a	0.15530863
181	0x3e406737	0.18789373
182	0x3d852c3e	0.06502579
183	0xbe8d89a8	-0.27644086
184	0x3e2e0811	0.16995265
185	0x3c1eed28	0.009700097
186	0x3d81bae4	0.06334475
187	0xbe961339	-0.2931154
188	0xbeb7ec1c	-0.35922325
189	0xbece1fab	-0.40258536
190	0xbe97d1cb	-0.29652247
191	0x3e83c49c	0.2573594
192	0xbe2cfe9f	-0.16894005
193	0xbc74a0f4	-0.014930952
194	0xbe50fa19	-0.20407905
195	0x3e11bf60	0.1423316
196	0xbe74ce47	-0.23906814
197	0x3e415945	0.1888171
198	0xbecd92c5	-0.4015104
199	0x3e398fc9	0.18121256
200	0xbe237554	-0.15962726
201	0x3ea1c311	0.31594136
202	0x3e73f69b	0.23824541
203	0xbcc5193d	-0.024059886
204	0x3dabced0	0.08389056
205	0x3ec0a220	0.37623692
206	0xbea32328	-0.3186276
207	0x3d8ac511	0.06775869
208	0x3e442b61	0.19157173
209	0x3cf90040	0.030395627
210	0x3e927d0d	0.2861103
211	0x3e705989	0.23471655
212	0x3db891f6	0.09012215
213	0xbe98668d	-0.2976574
214	0x3ebaf16c	0.36512315
215	0x3e79fabc	0.24412054
216	0xbea6e777	-0.3259847
217	0x3d9944ab	0.074838005
218	0xbedc0ede	-0.42980093
219	0x3e29602a	0.1654059
220	0x3f00c62c	0.50302386
221	0x3ec7ff0e	0.3906178
222	0x3ed5227e	0.41627878
223	0xbd123dd0	-0.03570348
224	0xbf007752	-0.5018207
225	0x3ebb6bf1	0.3660579
226	0xbec1d533	-0.3785797
227	0xbe9e022e	-0.30861038
228	0xbea18821	-0.3154917
229	0x3e020776	0.12698159
230	0xbd00bb04	-0.031428352
231	0x3e153d79	0.14574231
232	0xbe886419	-0.26638868
233	0xbe3dc15c	-0.18530792
234	0x3dbfc64e	0.093639955
235	0xbdc16b1b	-0.09444257
236	0x3e4992e4	0.1968494
237	0x3e8c6679	0.2742193
238	0xbec5d7fd	-0.38641348
239	0x3ea99c09	0.33126858
240	0x3d0d0b29	0.03443447
241	0xbe3ac6bd	-0.18239875
242	0x3eb01ed3	0.34398517
243	0x3ec1a88c	0.37823904
244	0x3ebd6431	0.36990502
245	0x3d9f8788	0.077895224
246	0x3e44558d	0.1917326
247	0xbdeb7088	-0.11496073
248	0xbe5a73c4	-0.21333224
249	0x3e981024	0.29699814
250	0x3ea576a1	0.3231707
251	0x3e8fece4	0.2811042
252	0xbe3fb049	-0.18719591
253	0xbecf37cc	-0.40472257
254	0x3c0c1ae6	0.008551335
255	0xbe3193c0	-0.17341518

sequential_1/dense_7/MatMul f4 [5, 16]
0	0xbef80751	-0.48443082
1	0xbd58220a	-0.052766837
2	0x3eeb4d83	0.45957574
3	0x3ed511db	0.41615185
4	0xbe3940a9	-0.18091072
5	0x3dae45cb	0.08509406
6	0xbf029e8c	-0.51023173
7	0xbecae313	-0.3962637
8	0x3eeaecea	0.45883876
9	0xbf00fa0f	-0.5038156
10	0x3c7edb2a	0.0155551825
11	0x3ec9dae6	0.3942482
12	0x3ebd4ca9	0.3697255
13	0xbf0dbebb	-0.55369157
14	0x3ee5bae6	0.44869155
15	0xbed68e5c	-0.41905487
16	0x3fa81068	1.3130007
17	0xbe46e615	-0.19423707
18	0x3eba9cb5	0.36447683
19	0x3c2267e0	0.009912461
20	0x3e33a692	0.1754401
21	0x3df01e45	0.117245235
22	0xbe8b3dc8	-0.27195573
23	0xbd75fa38	-0.06005308
24	0xbee2894b	-0.4424537
25	0xbe1a72a5	-0.15082796
26	0x3d266a8b	0.04062895
27	0x3dbb9ed7	0.09161156
28	0xbcdd0cdf	-0.026983676
29	0x3ebd8131	0.37012628
30	0x3eb779ac	0.35835016
31	0xbd911cf8	-0.070856035
32	0xbf6e53dd	-0.93096715
33	0xbe7b8e15	-0.24565919
34	0x3dad9230	0.08475149
35	0x3c06f4f8	0.008237116
36	0xbdf673d6	-0.12033813
37	0x3deed34d	0.11661396
38	0x3cc4d98b	0.024029514
39	0xbf8250db	-1.0180925
40	0xbe810ad9	-0.2520359
41	0x3e865aec	0.26241243
42	0xbe9cb50d	-0.3060688
43	0x3d6f632e	0.058444194
44	0x3d17915d	0.037003864
45	0xbf159955	-0.5843709
46	0xbeebcd33	-0.46054992
47	0x3eaed470	0.34146452
48	0xbed99e2b	-0.42503485
49	0x3ef51ba9	0.47872666
50	0x3d826800	0.06367493
51	0xbe8e785d	-0.27826205
52	0xbe554699	-0.20827712
53	0x3dd4ffc1	0.10400344
54	0xbece92fc	-0.40346515
55	0x3ce5e45a	0.028062988
56	0x3ed16b6d	0.40902272
57	0xbe8ea1e2	-0.27857882
58	0x3f408316	0.7520002
59	0x3e2231f1	0.15839364
60	0x3e65f504	0.22456747
61	0x3f59fcf2	0.8515159
62	0xbe0c240c	-0.13685626
63	0xbdcae856	-0.09907596
64	0x3ea95520	0.33072758
65	0xbec04a47	-0.3755667
66	0x3d57f40f	0.052722987
67	0x3f203a88	0.6258931
68	0x3e031b7a	0.1280345
69	0x3d1121cb	0.035432618
70	0xbe1ccac5	-0.15311725
71	0x3f38e2f4	0.72221303
72	0x3e96a7d1	0.2942491
73	0xbe078905	-0.13235863
74	0xbf86d348	-1.0533228
75	0x3e652c35	0.22380145
76	0xbd711819	-0.058860872
77	0x3ed2f58e	0.41202968
78	0xbedc7ef3	-0.43065605
79	0x3e5e278d	0.21694775

sequential_1/dense_5/MatMul;sequential_1/dense_5/Relu;sequential_1/dense_5/BiasAdd f4 [16]
0	0x3e989ff6	0.2980954
1	0xbe220352	-0.15821579
2	0xbe5998d9	-0.21249713
3	0xbdb31392	-0.08743967
4	0x3e02a9b5	0.1276005
5	0xbdccd11b	-0.10000821
6	0x3f73e56c	0.95271945
7	0x3ec9a367	0.3938248
8	0x3da67e96	0.08129613
9	0x3f17a6e9	0.5923906
10	0xbe4c17c2	-0.19930938
11	0xbeabbc04	-0.33541882
12	0x3e28b7fd	0.16476436
13	0xbd6501d2	-0.05590994
14	0x3dcc6e9f	0.09982037
15	0x3f53be3a	0.8271214
