scripts/models/capture_15x_1,5x1m_32x32_model_no_quant.tflite (tflite, 8120 bytes, 7 tensors)

dense_11/bias f4 [5]
-0.3206677 0.69639295 -0.631348 0.03220791 0.22341503
00000000: 8f2e a4be cf46 323f 06a0 21bf 71ec 033d
00000010: e9c6 643e

dense_10/bias f4 [32]
0.11569316 -0.05874595 0.39102516 0.011258685 -0.04557433 0.08956827 -0.055308685 0.0
0.000441132 -0.16724783 0.0015055995 0.025317777 0.28282768 -0.060707297 -0.31896642 -0.017061692
0.08663265 0.13703854 -0.08782976 0.060503893 0.20866579 0.2432378 0.076834 -4.8832502e-05
-0.00293636 0.047064383 0.28325462 0.4055023 -0.34802088 0.037129607 -0.041340817 -0.037042063
00000000: 89f0 ec3d 989f 70bd 7334 c83e 5976 383c
00000010: 26ac 3abd 926f b73d 5c8b 62bd 0000 0000
00000020: bc47 e739 0443 2bbe 8957 c53a 3a67 cf3c
00000030: cace 903e 37a8 78bd 914f a3be f6c4 8bbc
00000040: 756c b13d d553 0c3e 17e0 b3bd eed2 773d
00000050: 7cac 553e 5413 793e 255b 9d3d 80d1 4cb8
00000060: f26f 40bb 95c6 403d c006 913e ff9d cf3e
00000070: cb2f b2be 3715 183d fd54 29bd 6bb9 17bd

sequential_2/dense_8/MatMul f4 [6, 6]
0.2939374 1.1852736 -1.5847414 -0.048737194 0.81013346 -1.0455583 -0.91673756 -0.1310234
-1.4200819 0.047662757 0.62200606 0.47983488 0.9846236 -0.3383591 0.060394093 -0.35431233
0.13508709 0.607968 -1.0095302 0.5035317 0.61322415 0.027127001 0.041018188 -0.592927
0.040133964 -0.48861557 2.1286316 0.10291226 -0.11075998 -0.16934961 -1.0894326 -2.0143356
0.8776959 0.15873536 1.6781367 0.79980767
00000000: f77e 963e 0cb7 973f ced8 cabf a7a0 47bd
00000010: e864 4f3f dbd4 85bf 50af 6abf 002b 06be
00000020: 3ec5 b5bf 063a 433d ca3b 1f3f ebac f53e
00000030: 4b10 7c3f 673d adbe cc5f 773d 6d68 b5be
00000040: 4554 0a3e caa3 1b3f 4938 81bf 74e7 003f
00000050: 42fc 1c3f 7239 de3c b002 283d 10ca 17bf
00000060: 8363 243d d22b fabe 803b 0840 aac3 d23d
00000070: 21d6 e2bd fc69 2dbe 8772 8bbf e0ea 00c0
00000080: aeb0 603f 868b 223e 2fcd d63f 32c0 4c3f

sequential_2/dense_9/MatMul f4 [32, 6]
-0.023042295 0.23213077 -0.40512508 0.38477486 -0.0063082105 0.059734665 0.772961 -0.3050962
0.43121794 -0.39922145 -0.49828815 -1.2810977 -0.2768012 0.109540045 0.33833864 -0.21760447
0.29233888 -0.62317765 -0.26919156 -0.04895002 -0.20131554 0.076778054 0.221822 -0.35117123
0.21274817 0.5645222 0.46516293 -0.3878003 -0.7731257 -0.22506067 -0.22412068 0.28291783
0.38599008 0.08429879 -0.37469995 -0.33004496 0.26197702 0.24608806 -0.2870903 0.022561371
0.35237783 0.0839475 -0.23081614 0.24863838 -0.41094518 -0.29600933 0.2251845 -0.42464957
0.273765 0.29440284 0.34330672 0.32842305 -0.17044443 0.08190077 -0.13461098 -0.1980336
-0.34634387 -0.35373178 0.01611171 -0.37908754 0.052739974 -0.3547848 0.3437463 0.24058713
-0.13332205 -0.09827597 -0.36330292 0.15664302 0.23512384 -0.15966669 -0.27308807 0.100514784
-0.37959343 -0.12307198 0.10715745 -0.26739773 0.22288528 0.48138967 0.45642233 0.14273515
0.28050604 0.22793232 0.25690463 0.46288496 -0.4453311 0.27050444 0.31427783 -0.2598385
0.12762477 0.40959927 -0.3135671 0.19726412 -0.118214875 0.28987366 -0.01933889 0.3817993
0.23926578 0.2006297 0.2674453 0.1580054 0.19823875 0.52649575 -0.39731193 -0.013012176
0.28421277 -0.25009978 -0.5268656 0.19067147 -0.29079467 -0.25433958 -0.24861798 0.29772332
0.287211 0.22402361 -0.40370134 -0.46081987 0.45240653 0.29517335 0.24292976 -0.14604606
0.12838882 0.04131345 0.2947912 -0.04488465 0.30323622 0.30384225 -0.38938472 -0.031770874
0.32002994 -0.46113458 0.1889382 0.35662648 0.21714315 0.24044096 -0.12403047 0.2658812
-0.4598417 -0.65021044 0.13383663 0.016450545 0.082973935 0.28048754 -0.02006057 0.22763747
-0.49594605 0.20231889 -0.44020453 0.24657004 -0.20686366 0.074035 0.19328037 -0.29655284
-0.19821921 0.14227909 -0.24298999 0.4414634 0.2352792 0.22228807 -0.29507416 -0.33019817
-0.06020999 0.11015297 -0.095132194 0.31810233 0.3026342 0.23660722 0.029156916 -0.087437235
-0.28152174 0.15630153 -0.11840955 0.3421676 -0.0015462046 0.48477116 0.24092998 -0.0047891596
-0.21083705 -0.10753823 0.030480018 0.2682764 0.13741161 0.64811045 0.01769028 -0.2253767
-0.3704664 0.22510324 0.30009118 0.59873205 -0.3033059 0.02021898 -0.06979637 0.0011554267
00000000: 32c3 bcbc b0b3 6d3e 8e6c cfbe 3601 c53e
00000010: 1bb5 cebb 56ac 743d c6e0 453f 9235 9cbe
00000020: 99c8 dc3e c166 ccbe a01f ffbe 02fb a3bf
00000030: e3b8 8dbe 8856 e03d b93a ad3e b5d3 5ebe
00000040: 71ad 953e 9288 1fbf 7ad3 89be d17f 48bd
00000050: a925 4ebe d03d 9d3d 4e25 633e b7cc b3be
00000060: a8da 593e 8784 103f d629 ee3e c38d c6be
00000070: 91eb 45bf 4e76 66be e47f 65be 9bda 903e
00000080: 7ea0 c53e d8a4 ac3d acd8 bfbe a7fb a8be
00000090: da21 863e 82fe 7b3e 80fd 92be a0d2 b83c
000000a0: de6a b43e abec ab3d 115b 6cbe 0f9b 7e3e
000000b0: 6867 d2be 898e 97be c496 663e ab6b d9be
000000c0: ed2a 8c3e f8bb 963e e6c5 af3e 1127 a83e
000000d0: fc88 2ebe 97bb a73d 76d7 09be 52c9 4abe
000000e0: fc53 b1be 551c b5be b4fc 833c c317 c2be
000000f0: df05 583d 5aa6 b5be 84ff af3e 795c 763e
00000100: 9385 08be e944 c9bd d702 babe 0767 203e
00000110: 4ec4 703e aa7f 23be 33d2 8bbe b2da cd3d
00000120: 125a c2be 2a0d fcbd 5d75 db3d 5be8 88be
00000130: 0a3c 643e b578 f63e 30b0 e93e 2a29 123e
00000140: 7d9e 8f3e 1767 693e 0189 833e 42ff ec3e
00000150: 7002 e4be 8f7f 8a3e 06e9 a03e 8d09 85be
00000160: 11b0 023e ffb6 d13e de8b a0be 9bff 493e
00000170: a41a f2bd 526a 943e 986c 9ebc 337b c33e
00000180: 1702 753e df71 4d3e 97ee 883e 2bcc 213e
00000190: 19ff 4a3e 6dc8 063f 786c cbbe 0631 55bc
000001a0: 5684 913e 140d 80be aae0 06bf 623f 433e
000001b0: 0ae3 94be cc38 82be b695 7ebe 316f 983e
000001c0: 520d 933e 7266 653e f1b1 cebe 95f0 ebbe
000001d0: d4a1 e73e f620 973e 94c2 783e 198d 15be
000001e0: 5c78 033e 4b38 293d dfee 963e f7d8 37bd
000001f0: c741 9b3e 3691 9b3e 6f5d c7be 2d22 02bd
00000200: f7da a33e d519 ecbe 0479 413e bf97 b63e
00000210: c65a 5e3e 2836 763e b003 febd 9521 883e
00000220: 5f70 ebbe 3174 26bf 780c 093e 4bc3 863c
00000230: 3dee a93d 109c 8f3e 1156 a4bc cc19 693e
00000240: a4ec fdbe af2c 4f3e 7d62 e1be db7c 7c3e
00000250: 11d4 53be a99f 973d 4aeb 453e c6d5 97be
00000260: faf9 4abe 9cb1 113e 5ed2 78be 7e07 e23e
00000270: 08ed 703e 7c9f 633e f613 97be bc0f a9be
00000280: c09e 76bd e197 e13d abd4 c2bd 4fde a23e
00000290: dff2 9a3e 2a49 723e 7cda ee3c 4b12 b3bd
000002a0: 9e23 90be 820d 203e b580 f2bd 9730 af3e
000002b0: 04aa caba ed33 f83e 59b6 763e 62ee 9cbb
000002c0: abe5 57be 013d dcbd 3bb1 f93c 865b 893e
000002d0: a1b5 0c3e 91ea 253f 35eb 903c 26c9 66be
000002e0: c6ad bdbe 7781 663e 8da5 993e 8146 193f
000002f0: e94a 9bbe 46a2 a53c 66f1 8ebd b071 973a

sequential_2/dense_10/MatMul f4 [32, 32]
-0.16008678 0.33964393 0.042435918 -0.1796423 -0.12098219 0.19316918 0.05440372 0.29134774
0.2827668 -0.18352903 -0.012913254 -0.22579026 0.058545962 -0.081383936 0.29492238 0.25936025
-0.3104053 -0.35874572 0.014615204 0.1350772 0.09547155 0.1571853 0.30500546 -0.034424793
0.2966416 -0.15229325 0.11876316 -0.22646616 -0.07286164 -0.088361025 -0.29683444 0.23435074
0.16341835 -0.2574982 -0.16214843 0.25621396 -0.24088116 -0.27110592 0.11188398 -0.23881827
-0.29851294 0.17571035 -0.15084013 -0.16527975 -0.33801797 0.040478125 -0.07557762 -0.2715078
-0.28884187 0.011008024 0.20655832 -0.00287822 -0.108717375 0.2017189 0.24140832 -0.072982065
-0.20558555 -0.21177511 -0.19844453 -0.2568516 0.23989058 0.23954366 -0.16597997 -0.30151206
0.21372204 -0.5903758 -0.09483734 -0.20965928 0.01099113 0.1855703 0.45076483 0.26081905
0.015622005 0.17846951 -0.24141617 0.028448865 -0.08369187 0.012022384 0.29941124 0.17021355
-0.06811819 0.35626784 0.21625216 0.1737616 0.21003142 0.16981308 -0.27016562 -0.01190527
-0.11145271 -0.06818604 0.21651769 -0.20166335 0.17993754 0.057150155 0.06334507 -0.0765096
0.018479379 -0.10243679 -0.21441975 0.22180896 -0.1552377 0.2347695 -0.22519109 -0.19971362
0.011727265 -0.09757043 0.24874695 0.009250458 0.06198293 -0.12153071 -0.15436879 0.2911023
0.17596722 0.0730233 -0.33310914 0.031061372 0.14648038 0.12800956 0.02427128 0.06624127
0.07254134 0.31298712 -0.0056194062 -0.24505095 -0.093108594 0.12750188 0.25698608 -0.16244458
0.124592006 -0.08601806 0.11932413 -0.04479545 -0.040993623 0.15740958 -0.051919773 0.11422448
0.012194119 -0.07732708 -0.019940171 0.1242778 0.1764902 -0.25338188 -0.20648023 -0.10865288
0.02558481 0.29559037 -0.030631222 -0.05238978 0.23608257 -0.25034836 0.28212035 -0.2333241
0.22810706 0.24629642 -0.13846064 -0.18461204 -0.22013946 0.18187377 0.15901797 -0.2744733
0.05546556 0.1154945 -0.004002239 -0.057888053 -0.18507531 0.19503549 0.027976444 0.23579535
-0.16311535 0.14736795 0.2086443 0.18820694 -0.10523735 0.275343 0.08334868 0.2780625
-0.21782501 0.080591455 -0.0797385 -0.02200553 0.22272624 -0.26449555 -0.25217244 0.06267508
0.14588962 -0.107329525 0.0013938749 0.16949035 -0.027778564 -0.17198695 -0.3217139 -0.33693397
-0.16841716 -0.06632601 0.062314983 0.123106346 0.036711257 -0.15138981 -0.18003586 -0.19956864
0.17431161 0.26116773 -0.15050353 0.047739074 -0.10837522 0.23785858 0.23233292 -0.06356723
-0.28051347 -0.20236664 0.008429141 -0.11084907 0.0147300325 0.066894434 -0.12846972 -0.13675262
-0.28073362 -0.30382705 0.15135035 0.0073579666 0.30744505 -0.1552261 0.004087335 -0.2837816
-0.14619873 -0.10837717 -0.18007563 -0.25151756 0.053692013 -0.224596 -0.29670653 -0.2582723
-0.06379199 0.2929419 0.24040201 -0.29349765 -0.11394061 -0.14357276 0.01184535 -0.23822577
0.0717116 -0.030187815 -0.0409154 -0.025709242 0.1872088 -0.24787782 -0.2735864 0.13523492
-0.041680425 0.28323963 -0.05407861 0.14404309 -0.13358805 -0.25368354 -0.1369297 -0.23840499
00000000: caed 23be cfe5 ad3e 49d1 2d3d 27f4 37be
00000010: 83c5 f7bd 24ce 453e 6fd6 5e3d 882b 953e
00000020: cfc6 903e 09ef 3bbe 1d92 53bc 9035 67be
00000030: e4cd 6f3d 9fac a6bd 1100 973e deca 843e
00000040: 72ed 9ebe 85ad b7be 9c74 6f3c ad51 0a3e
00000050: 9786 c33d 2ff5 203e ad29 9c3e 0301 0dbd
00000060: 68e1 973e c3f2 1bbe 1a3a f33d bfe6 67be
00000070: 7c38 95bd a0f6 b4bd affa 97be a4f9 6f3e
00000080: 2457 273e ced6 83be 3d0a 26be 7a2e 833e
00000090: 8da9 76be 65ce 8abe 6e23 e53d c78c 74be
000000a0: b0d6 98be 6aed 333e d675 1abe 183f 29be
000000b0: b110 adbe 64cc 253d 70c8 9abd 1203 8bbe
000000c0: 15e3 93be 005b 343c 0684 533e 85a0 3cbb
000000d0: 37a7 debd 668f 4e3e be33 773e 9f77 95bd
000000e0: 0585 52be 93db 58be 0b35 4bbe 0e82 83be
000000f0: e0a5 753e ef4a 753e a7f6 29be ca5f 9abe
00000100: f3d9 5a3e de22 17bf 143a c2bd ecb0 56be
00000110: 2414 343c 2406 3e3e a6ca e63e 138a 853e
00000120: 70f3 7f3c b6c0 363e cd35 77be 980d e93c
00000130: a566 abbd 89f9 443c 6e4c 993e 764c 2e3e
00000140: 8d81 8bbd bd68 b63e 3571 5d3e 90ee 313e
00000150: 7a12 573e 7be3 2d3e 2653 8abe 520e 43bc
00000160: 5241 e4bd 1fa5 8bbd d0b6 5d3e d680 4ebe
00000170: 8c41 383e 4816 6a3d 0fbb 813d 11b1 9cbd
00000180: 1162 973c 61ca d1bd da90 5bbe e321 633e
00000190: a2f6 1ebe 6a67 703e 7e98 66be ba81 4cbe
000001a0: b723 403c 01d3 c7bd 85b7 7e3e 3c8f 173c
000001b0: d0e1 7d3d 18e5 f8bd da12 1ebe 5c0b 953e
000001c0: c030 343e 3d8d 953d 488d aabe 6b74 fe3c
000001d0: f4fe 153e f014 033e 90d4 c63c 81a9 873d
000001e0: 8e90 943d d93f a03e ff22 b8bb a3ee 7abe
000001f0: b8af bebd da8f 023e ae93 833e df57 26be
00000200: 182a ff3d 3d2a b0bd 3660 f43d 6f7b 37bd
00000210: eee8 27bd fa2f 213e d4a9 54bd 86ee e93d
00000220: d8c9 473c a95d 9ebd 9259 a3bc 5c85 fe3d
00000230: d9b9 343e 45bb 81be 8e6f 53be 6785 debd
00000240: 3c97 d13c 9f57 973e 54ee fabc aa96 56bd
00000250: a1bf 713e a92d 80be 1472 903e 83ec 6ebe
00000260: e694 693e 2135 7c3e a0c8 0dbe f00a 3dbe
00000270: 3d6c 61be 1e3d 3a3e 9bd5 223e c487 8cbe
00000280: db2f 633d 6188 ec3d 3725 83bb 061c 6dbd
00000290: 6284 3dbe 62b7 473e db2e e53c 5674 713e
000002a0: b607 27be a0e7 163e daa6 553e 52b9 403e
000002b0: ae86 d7bd c2f9 8c3e b6b2 aa3d 355e 8e3e
000002c0: 850d 5fbe 220d a53d f04d a3bd f144 b4bc
000002d0: 5912 643e f66b 87be bf1c 81be cb5b 803d
000002e0: 1764 153e 95cf dbbd aeb2 b63a e18e 2d3e
000002f0: df8f e3bc 591d 30be afb7 a4be 9c82 acbe
00000300: 8c75 2cbe eed5 87bd ff3d 7f3d 2e1f fc3d
00000310: 8b5e 163d ee05 1bbe 525b 38be b95b 4cbe
00000320: be7e 323e c7b7 853e 991d 1abe 0c8a 433d
00000330: d4f3 ddbd 3391 733e aee8 6d3e 892f 82bd
00000340: 769f 8fbe 3339 4fbe 611a 0a3c d604 e3bd
00000350: 3c56 713c f3ff 883d 918d 03be e108 0cbe
00000360: 51bc 8fbe 388f 9bbe 96fb 1a3e 191b f13b
00000370: 7069 9d3e 97f3 1ebe 0def 853b d24b 91be
00000380: 1fb5 15be daf4 ddbd bf65 38be e9c6 80be
00000390: 28ec 5b3d 7efc 65be ebe9 97be 443c 84be
000003a0: 60a5 82bd 7bfc 953e f22b 763e 5345 96be
000003b0: b259 e9bd bd04 13be 0013 423c 75f1 73be
000003c0: 88dd 923d 704c f7bc e896 27bd 309c d2bc
000003d0: aab3 3f3e afd3 7dbe 8413 8cbe 067b 0a3e
000003e0: 18b9 2abd c904 913e 8881 5dbd 0880 133e
000003f0: 4ecb 08be cfe2 81be 4d37 0cbe 7020 74be

sequential_2/dense_11/MatMul f4 [5, 32]
-0.20950419 0.35839513 -0.25306442 0.40985405 -0.40472138 0.37141147 0.11215683 0.21173209
-0.101925194 -0.16419467 0.17865609 0.32877824 -0.18566778 0.31736702 0.11732914 -0.21327227
-0.311937 0.13699773 0.10322278 0.21963526 -0.24629243 -0.42588168 0.38231945 -0.21267053
-0.15629958 -0.36182353 -0.097509876 -0.5229801 0.06490868 0.05566465 0.21919551 -0.21419708
0.39667177 0.1562459 0.13293308 0.16726358 -0.30202344 0.49799863 -0.19215931 0.35077816
-0.15859418 -0.04896596 0.16183387 0.49376437 0.32344428 0.028154721 -0.41347054 0.3768487
0.04333952 0.49247402 -0.01431721 0.5035123 0.89717907 0.68026894 0.63996184 0.088978946
-0.027631879 0.19380233 0.46069425 -0.35535002 -0.45904744 0.08439141 -0.37082312 -0.31668743
-0.1181701 -0.09978822 -0.35998207 0.21520324 -0.30925384 -0.13692439 0.1440071 -0.21950205
0.37819302 0.1076831 -0.20645262 0.016943477 -0.9083613 0.102522574 -0.17441255 -0.060790114
-0.34669107 -0.28174686 0.22588418 -0.109864034 -0.19116718 -0.58264637 -0.28632522 0.013254112
-0.39379573 -0.109531194 -0.48245332 -0.6213713 0.24665482 -0.15227756 -0.24263734 0.044291224
0.4340538 0.23015317 -0.6062901 -0.09702924 0.0044378256 -0.046875745 -0.1097865 -0.353765
-0.43477118 -0.2011817 -0.13499992 0.15949549 -0.31533605 -0.17042336 0.34311256 -0.30645105
0.08176247 0.28842273 -0.030322736 0.42333 0.42645317 0.117031954 0.004168653 -0.25605142
-0.3626568 0.17527416 -0.27115625 1.1562713 0.559625 -0.10427366 -0.1139736 -0.44635352
-0.24441771 -0.22874889 0.5862409 0.07437218 0.29612198 0.21186647 -0.3444898 0.05732006
-0.07183359 0.10298606 -0.18939835 -0.08486677 0.82121706 0.07332866 0.0047634398 -0.25534704
0.237 -0.30167025 0.34829617 0.49781668 -0.65013206 0.45581025 -0.53163147 0.15931092
-0.41445425 -0.45095274 0.5732527 -0.15307531 0.34179482 0.5023256 0.2526225 -0.033087082
00000000: 4488 56be 917f b73e a991 81be 64d8 d13e
00000010: a437 cfbe a529 be3e 7bb2 e53d 4cd0 583e
00000020: 28be d0bd a622 28be 9ff1 363e 9f55 a83e
00000030: b21f 3ebe ee7d a23e 434a f03d 0c64 5abe
00000040: 35b6 9fbe 2249 0c3e 7766 d33d 11e8 603e
00000050: 1534 7cbe 2a0d dabe 60bf c33e 4ec6 59be
00000060: ff0c 20be ef40 b9be 42b3 c7bd 06e2 05bf
00000070: d8ee 843d 9e00 643d ca74 603e 7b56 5bbe
00000080: 9018 cb3e edfe 1f3e 9c1f 083e 2547 2b3e
00000090: d1a2 9abe adf9 fe3e 69c5 44be 3299 b33e
000000a0: 8366 22be 8890 48bd c7b7 253e afce fc3e
000000b0: 7d9a a53e bba4 e63c 69b2 d3be 50f2 c03e
000000c0: c884 313d 8e25 fc3e bb92 6abc 2fe6 003f
000000d0: 87ad 653f 1b26 2e3f 8ad4 233f 983a b63d
000000e0: 405c e2bc 1e74 463e 1ee0 eb3e 70f0 b5be
000000f0: 4408 ebbe 67d5 ac3d 87dc bdbe db24 a2be
00000100: 2a03 f2bd c45d ccbd 924f b8be 3d5e 5c3e
00000110: 8556 9ebe e835 0cbe 9976 133e 25c5 60be
00000120: 84a2 c13e f588 dc3d 5168 53be 0ccd 8a3c
00000130: 5e8a 68bf 5bf7 d13d 3499 32be 0eff 78bd
00000140: 7e81 b1be 2041 90be 2f4e 673e 6500 e1bd
00000150: 54c1 43be 5028 15bf 3899 92be c627 593c
00000160: 989f c9be e451 e0bd 1f04 f7be 3112 1fbf
00000170: 1593 7c3e a6ee 1bbe ec75 78be b76a 353d
00000180: 4d3c de3e 46ad 6b3e d435 1bbf 44b7 c6bd
00000190: 2e6b 913b c800 40bd bfd7 e0bd b020 b5be
000001a0: 549a debe 9302 4ebe 6b3d 0abe c952 233e
000001b0: ba73 a1be 7683 2ebe 73ac af3e 27e7 9cbe
000001c0: 1573 a73d 25ac 933e 6367 f8bc b6be d83e
000001d0: 1258 da3e 73ae ef3d 3299 883b 2c19 83be
000001e0: 27ae b9be 127b 333e fed4 8abe b300 943f
000001f0: 9643 0f3f 6e8d d5bd fe6a e9bd 7388 e4be
00000200: a348 7abe 263d 6abe e213 163f 7150 983d
00000210: 4d9d 973e 86f3 583e f860 b0be 70c8 6a3d
00000220: 7d1d 93bd 5bea d23d a4f1 41be a1ce adbd
00000230: 483b 523f 562d 963d a116 9c3b d9bc 82be
00000240: 21b0 723e 8674 9abe e053 b23e d4e1 fe3e
00000250: 0e6f 26bf f65f e93e 0019 08bf 6722 233e
00000260: 5933 d4be 47e3 e6be b0c0 123f c6bf 1cbe
00000270: bbff ae3e 6998 003f bc57 813e 5286 07bd

sequential_2/dense_9/MatMul;sequential_2/dense_9/Relu;sequential_2/dense_9/BiasAdd f4 [32]
-0.022155233 1.1037177 0.38910356 -0.25616843 1.0950323 0.39001825 0.1409635 0.33121124
0.18642786 0.27109054 -0.11164072 0.005869765 -0.6666473 -0.24579906 -0.03520032 -0.3087102
-0.3400241 0.11438403 -0.7209491 -0.79657507 -0.28219384 -0.2082035 0.5081001 -0.07036962
-0.06676991 -0.16904421 0.32667235 -0.0045032017 -0.41239652 -0.05033812 0.88012826 0.68061835
00000000: e47e b5bc 9f46 8d3f 9538 c73e 8228 83be
00000010: 052a 8c3f 79b0 c73e bc58 103e 8594 a93e
00000020: f2e6 3e3e 61cc 8a3e e4a3 e4bd 2857 c03b
00000030: 66a9 2abf c0b2 7bbe 362e 10bd 430f 9ebe
00000040: a417 aebe 2d42 ea3d 1f90 38bf 58ec 4bbf
00000050: b67b 90be 4c33 55be d912 023f f31d 90bd
00000060: aabe 88bd ed19 2dbe 9941 a73e 988f 93bb
00000070: a325 d3be 582f 4ebd 1650 613f 013d 2e3f
