scripts/models/capture_40x_1,5x1m_48x48_model_no_quant.tflite (tflite, 14092 bytes, 7 tensors)

dense_20/bias f4 [5]
000000 79 91 d8 be 60 aa 44 3f 30 f0 69 bf 07 f1 fe 3b
       -0.42298487 0.7682247 -0.9138212 0.0077801975
000010 c7 90 0f 3f
       0.5608029

dense_19/bias f4 [48]
000000 d4 33 d2 bd df 8c 1a 3f 44 5a ba bd 4a d9 30 be
       -0.10263792 0.603712 -0.09099248 -0.17270389
000010 29 8c 07 ba 15 e9 80 bd 2d 73 8d 3b e6 f9 4d 3e
       -0.0005170727 -0.06294457 0.0043167085 0.2011486
000020 e2 c8 2a bd 30 34 8f be 44 62 0b bc 30 f0 80 3d
       -0.041695483 -0.27969503 -0.008507315 0.06295812
000030 73 1c cd bd a7 d3 21 3f 8a 84 b6 bd 7c bb 29 be
       -0.10015192 0.6321358 -0.089119986 -0.16575426
000040 da 34 b8 3c bc 75 1b 3e bc 03 0c be ea 50 b8 3e
       0.02248614 0.15181631 -0.136733 0.35999233
000050 d0 a1 12 3d 38 c7 c8 3e e6 ed 60 bd d9 00 01 be
       0.035798848 0.39214492 -0.054914378 -0.1259798
000060 e7 92 fa 3d 5d 94 b3 bd 40 34 b1 bc 5f 79 b8 3e
       0.12235051 -0.087685324 -0.02163136 0.360301
000070 ac b0 3b 3c cb 2d e8 3a 84 ed d5 bd 08 0b 07 3e
       0.011455696 0.0017713843 -0.10445693 0.13187802
000080 60 66 1e be e7 8e 10 be 06 a2 31 3e be 40 3d 3d
       -0.1546874 -0.14117013 0.17346963 0.04620432
000090 83 93 c9 bb e9 c4 b4 be b1 fe 69 bd 51 5b 4d 3e
       -0.006151618 -0.3530648 -0.05712766 0.20054366
0000a0 a0 40 80 3e bf 5a ca bd 70 02 6c 3e 64 82 69 3c
       0.25049305 -0.0988059 0.23047805 0.014252279
0000b0 6b 97 05 3c 38 cc df 3e 6a c4 37 bd 40 81 11 3d
       0.008153777 0.43710494 -0.04486505 0.035523653

sequential_5/dense_17/MatMul f4 [6, 6]
000000 d6 91 0f 3e c8 1c af 3f 8a 8c 4e 3f 87 5e 93 be
       0.14020476 1.3680658 0.80683196 -0.28783056
000010 38 94 47 c0 88 33 af 3f 5d 3b d9 3e 43 a9 03 40
       -3.1184216 1.3687601 0.42428103 2.057206
000020 20 87 15 c0 23 c9 96 bf de c4 34 bf fd 6e 59 bf
       -2.3363724 -1.1780132 -0.70612895 -0.8493498
000030 3e ed 30 3d b2 11 3f c0 55 56 50 bf 8c f0 4e 3f
       0.043195 -2.985455 -0.8138173 0.80835795
000040 a9 69 05 c0 b5 13 d9 3f 99 fd de 3c 78 2d c7 bf
       -2.084574 1.6959139 0.027220534 -1.5560751
000050 4b 66 0a bf c0 d0 cc bf 8f 2f 0a 3f 29 82 13 40
       -0.54062337 -1.6001205 0.5397882 2.3048193
000060 72 d7 86 bf c8 57 8d 3f f4 d0 60 be 26 42 97 3e
       -1.0534499 1.1042414 -0.2195471 0.29542655
000070 99 2c dc 3f c4 bf 05 40 55 2b e3 3d 58 0e 3b c0
       1.720111 2.0898294 0.11092249 -2.9227505
000080 18 f3 8b 3f 4a a6 be 3d 9c 8e ca bf 93 b6 8f bf
       1.0933561 0.09309061 -1.5824771 -1.1227592

sequential_5/dense_18/MatMul f4 [48, 6]
000000 d9 66 3f 3c cf 1e 98 3e 47 ce 37 3e 95 cd 8c 3e
       0.011682236 0.29711005 0.17949782 0.27500597
000010 a8 7c 5a be 69 f5 37 3d 29 c2 82 3e a2 71 78 be
       -0.21336615 0.044911776 0.25538757 -0.24262097
000020 41 8c b8 bd 97 b9 74 3f fd ae bb 3e 53 e0 cd bc
       -0.09011126 0.9559569 0.36656943 -0.02513138
000030 68 9f ce 3e 77 cd 1e 3e 18 f8 e9 3e bb 34 d6 3e
       0.40355992 0.15508066 0.45697093 0.41837105
000040 5c 7f 14 bf ab 84 df 3c 87 53 84 3e 34 f1 ba be
       -0.58006835 0.02728494 0.25844976 -0.36512148
000050 15 73 38 3f 33 ba aa bd f5 9b 4e be 76 fa db 3e
       0.720506 -0.08336296 -0.2017668 0.42964524
000060 ad 47 e4 3d 7a a6 b5 3d ea 1a 21 3f c2 21 87 3f
       0.111464836 0.088696435 0.6293169 1.0557177
000070 c5 fe f1 3e 70 31 82 3d 71 bd 18 bf c3 ca b1 3c
       0.47264686 0.06357086 -0.59664065 0.02170313
000080 50 31 9f be 4d 6f 6f 3d 27 f4 39 3c fc 94 13 3c
       -0.3109231 0.058455754 0.011349714 0.009007689
000090 6d 42 21 3f 8b 59 17 3e 53 e5 8e 3f dc 6a 9e 3e
       0.6299198 0.14780252 1.1163734 0.30940902
0000a0 13 ca 86 be ac 0f 56 3f 5e 9b 4d bf 4d 03 9c be
       -0.26326045 0.83617663 -0.80315197 -0.30471268
0000b0 2c c3 b0 be ba e6 56 3e d9 5e c3 3e 0a aa 75 bd
       -0.34523904 0.20986453 0.381583 -0.059976615
0000c0 b3 45 a5 3e 1e d9 92 3e be 29 f5 bd 65 62 13 3e
       0.3227974 0.28681272 -0.11970852 0.14393003
0000d0 42 c3 85 3d e2 e2 f1 3c 22 76 c4 3d 69 2c 63 3d
       0.06531383 0.029527131 0.095928445 0.055462275
0000e0 9c bd 38 3f fe 8b 9a 3f ec 9a 6f 3d f3 e9 c9 be
       0.7216432 1.2073972 0.058497354 -0.39436302
0000f0 c7 fc 08 3f 00 bc 5d 3e 39 68 23 bf 4c ae 75 bf
       0.5351071 0.21653748 -0.63830906 -0.9596908
000100 97 4e 2d 3e d3 3c c5 be 5f b2 1f 3e 01 61 dd 3e
       0.16924511 -0.38522968 0.15595387 0.4323807
000110 1a 81 b0 be 4e 22 9c 3f 1e ff 1b bf 9e 79 1c 3f
       -0.34473497 1.2197969 -0.6093615 0.61123073
000120 58 e8 1f 3f 92 4b 5e 3f 06 3f ba be b1 45 f9 bd
       0.62463903 0.8683406 -0.36376208 -0.12171496
000130 0d a5 44 3e 83 3d 6f bf e0 15 fd be 55 7a 04 3f
       0.19203587 -0.93453234 -0.49430752 0.51749164
000140 b0 62 54 bd 98 36 78 be 32 d6 49 be 51 94 28 be
       -0.05185193 -0.24239576 -0.19710615 -0.16462828
000150 5b 74 b5 be f2 8b 52 bd 2f 23 73 bf 71 7c f3 be
       -0.35440335 -0.051402994 -0.9497556 -0.4755588
000160 b7 cc b9 3d f1 35 b1 be 8c d8 84 3e da 45 f9 3e
       0.090722494 -0.34611467 0.25946462 0.48686105
000170 c4 46 38 3c 73 c9 be bc 46 15 e7 be 6b 63 82 3e
       0.011247341 -0.023289418 -0.45133418 0.25466475
000180 93 ae c1 bd c2 a2 cf 3c 7d a8 71 bc 17 ef 13 3f
       -0.094571255 0.025346164 -0.014749643 0.577867
000190 0a c5 be 3b 0e 06 e6 bd 97 4e 59 3f f3 07 07 3f
       0.0058218287 -0.112316236 0.84885544 0.52746505
0001a0 7d 32 3d 3f 95 2a c3 3e c4 e1 1f 3f 49 1b 9d be
       0.73905164 0.38118425 0.62453866 -0.3068488
0001b0 37 58 a9 bd 34 61 eb 3d f9 a8 c2 bd 71 24 b3 3b
       -0.08268779 0.114931494 -0.09504885 0.0054669906
0001c0 2d 42 5d be ab 47 22 3d 4e 32 b9 3e 84 63 c5 be
       -0.21607275 0.03961913 0.36171192 -0.38552487
0001d0 f2 0a 49 3f bf 30 e4 3e 75 22 c5 3e c9 98 9b bb
       0.78532326 0.4456844 0.3850285 -0.004748438
0001e0 d4 53 06 bf 84 84 c8 bc 52 26 90 3e bd 00 be 3e
       -0.5247166 -0.02447725 0.28154236 0.37109938
0001f0 60 61 0f 3f 69 5d c8 be 6f 96 32 bf 4f 05 09 bf
       0.5600796 -0.39133766 -0.69760793 -0.53523725
000200 32 b1 8c bd 42 a2 9e 3c a5 54 1a be 3c 19 a5 3e
       -0.06869735 0.01936448 -0.15071352 0.32245815
000210 4c 50 31 3e 0e 33 e4 bd 4f 5e ce 3e bb e4 17 3e
       0.17315787 -0.111425504 0.40306327 0.14833347
000220 42 25 95 bd d6 93 c1 be 61 f4 41 be 64 df 95 3e
       -0.07282497 -0.37808102 -0.1894088 0.29271996
000230 8c 6f 00 bf 56 e2 56 3e 6f 58 ec bd ed cd eb bd
       -0.5017021 0.20984778 -0.11540305 -0.115138866
000240 d7 1d 57 bf 50 8e 3e 39 0a 2b bd be 76 15 27 3d
       -0.84029907 0.00018172828 -0.369469 0.04079195
000250 36 2c 1d 3e 4b fa 86 3d 3f 53 21 be 2a 31 c5 be
       0.15348896 0.06590708 -0.15754412 -0.38514072
000260 28 bb 46 3c fd a8 0d bf ed 22 72 be c1 c2 0b 3f
       0.012129582 -0.5533598 -0.23646136 0.54594046
000270 83 ed c3 3e 21 b9 bf bd f3 94 15 3f ba 52 25 be
       0.38267145 -0.093614824 0.58430403 -0.16144839
000280 a4 06 30 bf 1a ee d0 3e c2 43 e8 3d a9 d0 1b 3f
       -0.6876013 0.40806657 0.11341049 0.60865265
000290 c4 b0 e8 be a6 43 60 3f 40 88 bf be 87 fd eb 3e
       -0.4544736 0.87603223 -0.37408638 0.46091864
0002a0 f9 45 97 3e 7f 57 90 3e 14 8a d6 be 59 5c 4f be
       0.29545572 0.28191754 -0.4190222 -0.20250072
0002b0 5c 15 94 3e 44 ff 6e be a6 c5 16 3f 6a 81 bb 3e
       0.28922546 -0.23339564 0.5889534 0.36622173
0002c0 e5 5e 0f 3f 71 b7 d8 be f1 25 cb be 94 72 11 3f
       0.5600417 -0.42327455 -0.39677384 0.5681546
0002d0 b5 4a 41 bf f4 0b 92 3f e1 34 e6 3e 3f dc 00 bf
       -0.7550462 1.1409898 0.44962218 -0.5033607
0002e0 1b 0d 70 be 82 d1 9b be bc 39 c7 bd 6e 0b eb 3e
       -0.234425 -0.3043328 -0.09727809 0.45907158
0002f0 7b 2d 38 be 5e f7 1d 3e cf c9 54 be eb ef 5c be
       -0.179861 0.15426394 -0.20780109 -0.21575896
000300 03 ac 7a 3e 0d 16 0d bf 9f cc 3b be 38 ac 4a bc
       0.2447968 -0.5511177 -0.18339776 -0.012370162
000310 73 5e d8 3e f5 ad dc be f4 a2 1d 3f de 49 8b 3d
       0.4225956 -0.4310147 0.6157677 0.068011984
000320 ba fc f0 bd ff 6e 70 3e 47 9e 8f be 41 17 5e 3e
       -0.11766954 0.23479842 -0.28050444 0.21688558
000330 e1 82 2b 3d 7d d9 ec 3d 33 af 2f bd 04 9c ab 3c
       0.041872863 0.1156492 -0.042891692 0.020948417
000340 b9 70 09 3d 1b 00 be 3d 07 d3 10 3f c8 47 e8 be
       0.033554766 0.09277364 0.56572 -0.45367265
000350 73 ac d3 3e 65 44 d4 3d 4e 1c d6 3e 78 e5 8e be
       0.41342506 0.10364608 0.4181847 -0.27909446
000360 26 de 75 be 27 62 04 3f d6 b4 c1 3d 0c c3 6c be
       -0.24010524 0.5171227 0.0945832 -0.2312128
000370 25 b2 13 bf 63 9b 4c 3f f5 3b 96 bf 1d 51 3a 3f
       -0.576937 0.799246 -1.1737047 0.7278002
000380 f8 9c 63 3f 13 03 7f bc 25 1b 11 3e aa db 2f be
       0.8891139 -0.015564698 0.14170511 -0.17173639
000390 31 f5 44 3d e5 6a e6 3d 48 2b 7d 3e f2 2d a6 3e
       0.048085395 0.11250857 0.24723542 0.32456928
0003a0 79 70 ad bd 29 78 17 3e 45 78 87 be 2e 28 3f bf
       -0.08468718 0.14791931 -0.26458946 -0.74670684
0003b0 99 f4 1a 3f 16 8e b6 3d 2e d3 7b 3e 0e 9e b3 3e
       0.60529476 0.089138195 0.24592277 0.35081524
0003c0 2c d2 44 be d6 9d 3d 3e 5a 34 80 be d0 4f 20 3f
       -0.19220799 0.18517241 -0.2503994 0.62621784
0003d0 5f 16 a4 3e 8c 1f 50 3e 2d 67 a2 bc 10 c0 d5 be
       0.32048318 0.20324534 -0.019824589 -0.41748095
0003e0 80 11 5e 3e cc 6b 0d 3e 12 d9 17 3e c3 61 23 be
       0.21686363 0.13810652 0.148289 -0.15955262
0003f0 fa 50 f7 bc 82 68 4b 3e ff 20 7e be 3c 81 54 3f
       -0.03018998 0.19864085 -0.24817275 0.83009696

sequential_5/dense_19/MatMul f4 [48, 48]
000000 1f 4e 76 bd 75 e3 1d bd 41 e5 91 bd 43 8c cb bd
       -0.060133096 -0.038546998 -0.07123805 -0.09938862
000010 86 da f2 3c 5e ae e8 bc 79 7e 39 bb b6 c4 b2 3c
       0.029645216 -0.028403457 -0.0028304143 0.021822315
000020 9f 14 9e bd 9c 75 78 be 8a 3a 34 be 85 7a 9e 3d
       -0.07718777 -0.24263614 -0.17600456 0.077382125
000030 92 69 08 be 1b 15 73 3e ab 10 91 3d 49 57 bd 3d
       -0.13321522 0.2373852 0.07083257 0.09245164
000040 b1 e9 8c 3d 5c f9 13 3e c2 ff 91 bd ff 75 6a bd
       0.068805106 0.14450592 -0.0712886 -0.057241436
000050 d4 9e 1b 3e 2b 4d 03 be b0 fb a9 3c f2 48 76 be
       0.15197307 -0.12822406 0.020749897 -0.24051264
000060 da f9 41 be f6 5d 6f 3d e2 ef 80 be 4f 58 30 3e
       -0.18942967 0.058439218 -0.25183016 0.17221187
000070 4d 9e ed bd 12 91 df 3d 44 ef 2a be d3 75 47 3e
       -0.11602459 0.10916342 -0.16692835 0.1947854
000080 51 67 11 be d8 2a 98 bd 5e 23 1e be 11 3e 9f bd
       -0.14199568 -0.07430047 -0.15443179 -0.0777551
000090 d4 7f 1e 3c f0 fe a9 bd e1 1d 3f bd dc 62 49 36
       0.009674031 -0.083005786 -0.046659354 3.0008878e-06
0000a0 e8 18 06 3a 01 7f 26 3e 7e 32 25 bc bc b7 eb 3d
       0.00051154057 0.16259386 -0.010082839 0.11509654
0000b0 ba 55 66 3d f4 65 42 3e 71 1f c2 bd 37 fd c9 bb
       0.0562341 0.18984205 -0.09478653 -0.0061642188
0000c0 f2 4b 62 bd f0 30 b6 3d 20 78 5d 3e df 93 7a 3e
       -0.05524821 0.08896053 0.21627855 0.24470471
0000d0 e7 2f 50 3e 68 21 85 3e c3 fa 7b 3e da 9b 48 3e
       0.20330773 0.2600205 0.24607377 0.19590703
0000e0 db 7b 25 3e d4 8f 17 bc 79 bb 28 3e 70 10 36 bd
       0.16160528 -0.0092506 0.16477765 -0.04444927
0000f0 ef 2b 07 bf 11 77 32 be d9 ee 1a be 15 27 c8 3d
       -0.5280141 -0.17428233 -0.15130176 0.09773079
000100 b2 90 0e bd c4 d2 6f bc c1 9d 14 3e da ff 76 bd
       -0.03480596 -0.014637653 0.14513303 -0.060302593
000110 09 a2 66 3e f8 73 89 be 3e 35 ee 3d ef e1 ce 3d
       0.22522749 -0.2684629 0.11631249 0.10101687
000120 41 b5 0e be b0 32 ec bd 70 f5 d7 3d 88 b1 d5 3d
       -0.1393633 -0.115331054 0.1054486 0.10434252
000130 8a 47 67 bd 8d 03 85 3e f1 a9 84 be ab 78 d2 3d
       -0.05646471 0.25979272 -0.25910905 0.10276922
000140 75 f2 1d be 9f 31 c0 3d 0d b3 42 be 93 57 95 3c
       -0.15424521 0.093844645 -0.19013615 0.018230235
000150 7b 14 68 bd a2 a4 29 be 18 d2 41 be b8 42 01 be
       -0.056660157 -0.16566709 -0.189278 -0.12623107
000160 26 f7 b8 bc 00 7a 65 3e 61 53 7d be 61 78 dd bd
       -0.022578787 0.2240982 -0.24738838 -0.10813976
000170 ee 8f bb bd e0 79 6a be 3b 4a 1d be ac dd 82 bd
       -0.09158312 -0.22898054 -0.15360348 -0.06389937
000180 b7 1d 2d be 27 01 20 3e 3a c5 0a bd e9 9d a7 be
       -0.16905867 0.1562544 -0.033879496 -0.32737663
000190 ca 93 39 be 3b f7 b4 3d 5a 9f 5b 3e a9 34 03 be
       -0.18122783 0.08836218 0.21447507 -0.12813057
0001a0 4f f5 58 be e6 c2 07 3e e8 65 2e bd 6e 01 33 3e
       -0.21187328 0.13257942 -0.042577654 0.17481014
0001b0 e0 4a 1d bd 52 92 9b 3e 58 8c 6d 3e 97 71 46 3d
       -0.038401484 0.3038507 0.23198068 0.04844817
0001c0 cc 98 3c be 77 79 03 3e e6 3c 7e be 1c 69 4a be
       -0.18417662 0.12839304 -0.24827918 -0.19766659
0001d0 a4 99 06 bf 50 bb 91 3c 73 ec 0c be 40 97 0b 3e
       -0.52578187 0.017789513 -0.13762073 0.13631916
0001e0 f8 f1 36 3d 3a 01 4a 3e fb e2 91 3d 63 53 f7 3d
       0.044664353 0.1972703 0.07123371 0.12076452
0001f0 a1 cd dc 3d f8 db 01 be 38 81 b6 3e 07 5f 4c 3b
       0.10781408 -0.12681568 0.3564546 0.003118457
000200 48 7e c1 be d4 fa 3a be ca 56 47 be fa 74 0b bf
       -0.37791657 -0.18259746 -0.19466701 -0.5447537
000210 ea 55 b5 3e aa 06 3e be 35 b4 06 be 34 e4 94 be
       0.3541711 -0.1855723 -0.13154681 -0.29080355
000220 45 7e e3 3d e3 e1 bb be 66 24 30 3d 16 d9 e1 be
       0.111080684 -0.36695775 0.043003462 -0.44110936
000230 f8 d4 f5 3e 5c 9b 38 3e 3e ff a0 bd bd aa 80 be
       0.48014045 0.18028015 -0.078611836 -0.25130263
000240 1f 13 39 be c2 fc 80 be fd dd 87 bd 85 67 95 3d
       -0.180737 -0.2519284 -0.06634138 0.072951354
000250 9a 85 21 bd 55 2d 8e be 1c 9b e5 be 5f d8 b6 bd
       -0.039434053 -0.2776896 -0.44844902 -0.08927988
000260 40 5a 88 3d 68 dd cd 3d 07 0e 0f be fa ff 8f 3d
       0.06657839 0.100519955 -0.13970195 0.070312455
000270 a6 06 c5 3e 09 8a 76 3d 6b e9 b1 be 48 63 14 3e
       0.38481635 0.060190234 -0.34748396 0.14490998
000280 43 7b 29 3e 9f df 5e 3e 3a d3 e5 3b 6b 6d 8c 3b
       0.16550927 0.21764992 0.0070137056 0.0042855046
000290 c9 9e b8 3d 82 cd ab 3b c5 46 86 3e 6a 27 80 be
       0.09014661 0.0052430043 0.26225868 -0.2503007
0002a0 17 be a3 bc 43 9e e7 be ee 16 79 be de cf e1 3d
       -0.019988103 -0.45237932 -0.24325153 0.11025976
0002b0 05 2b 3d 3e 5e 43 e8 3d b6 9c 26 3e 3e a3 ac bd
       0.18473442 0.11340974 0.16270718 -0.084295735
0002c0 c7 64 8d be ba 57 54 be 32 11 27 3d 41 f6 60 3e
       -0.2761595 -0.2073659 0.040787883 0.21968938
0002d0 65 9b 8f be 65 44 8c 3e 64 41 5f 3e ca d3 b1 be
       -0.28048244 0.2739593 0.21802288 -0.34731895
0002e0 06 4d f8 bd e5 92 52 3b 7f 74 39 3e 05 e6 32 3e
       -0.12124066 0.0032131013 0.18110846 0.17470558
0002f0 10 e7 00 3e bd a5 70 be d3 8c b0 3d 9a 5b 2e 3e
       0.12588143 -0.23500724 0.0862061 0.1702713
000300 8d bd 52 be c6 ab 2e be 3a d1 95 bc 40 5f 9c bd
       -0.2058012 -0.17057714 -0.018288244 -0.07635355
000310 50 25 0c be f0 81 3e 3d 29 34 64 be 80 1a 5e 3c
       -0.13686109 0.046510637 -0.22285523 0.013556123
000320 35 4b 1b 3d 29 8f 7d be a0 9f 31 be cd 1d 41 be
       0.03791352 -0.24761643 -0.17346048 -0.18859024
000330 dc 0b 07 be 9d 75 67 be ba fe 5a be 25 66 5d 3d
       -0.13188118 -0.2260346 -0.21386233 0.05405249
000340 29 d7 ef 3d a4 90 0b be ff 5c 2a bd 28 0b 0a 3e
       0.117109604 -0.13629395 -0.041592594 0.13480818
000350 8c 2d 31 be 00 f0 bb bd 21 f6 cb 3d 05 2f 92 3d
       -0.17302531 -0.09176636 0.09959055 0.071378745
000360 a0 e0 ea bc 98 68 6c be e9 98 f9 ba 8b 2d 18 3e
       -0.028671563 -0.23086774 -0.0019042763 0.14861123
000370 78 b5 f5 bd a0 2e 62 be ea 97 91 3c cf e3 b0 bd
       -0.11997503 -0.22088099 0.017772634 -0.08637201
000380 00 3c f4 ba 9c 9c f3 3d 53 48 f5 bb 20 43 63 be
       -0.0018633604 0.11895105 -0.0074854284 -0.22193575
000390 bb ab 06 3e b8 ff ec bd 2a 0c bf 3d 50 f4 0a bd
       0.13151447 -0.11572212 0.09328492 -0.0339244
0003a0 6b 8d bd bd 50 9f 95 3d 9a d6 05 3e df 20 67 bd
       -0.09255489 0.07305777 0.13070145 -0.056427833
0003b0 9a 21 00 3e 47 80 0b be bf f7 47 3e 89 6d 5c be
       0.12512818 -0.13623153 0.19528101 -0.2152616
0003c0 11 b3 0a bd ea 7c 03 be ef b6 f9 3d a0 5c 51 be
       -0.033862177 -0.1284062 0.12193095 -0.2044549
0003d0 e0 78 dd 3e 62 d4 79 be 87 01 5a bf 4f 46 28 be
       0.43256283 -0.24397424 -0.8515858 -0.1643307
0003e0 bb 19 c9 3b ca 0d 3f 3e 00 ee 0f be 0f a7 8e be
       0.0061371005 0.18657604 -0.14055634 -0.2786183
0003f0 08 4f 9b 3c 85 f1 7e 3e d5 f9 15 bf 32 91 80 3d
       0.018958583 0.2489682 -0.5858434 0.06277694

sequential_5/dense_20/MatMul f4 [5, 48]
000000 60 61 3b be eb bf ca 3c 19 16 c2 be 86 85 9d 3e
       -0.18298864 0.024749717 -0.37907484 0.30765933
000010 32 ea 3c be c5 92 e3 bd 41 6c 52 be 41 f3 a9 be
       -0.18448713 -0.111119784 -0.20549108 -0.331934
000020 ff b4 a3 3e 1c 8c 11 3e 59 29 4c 3e 37 99 9b 3e
       0.31974027 0.14213604 0.19937648 0.3039033
000030 9f ed 2e 3e f0 b7 4a 3e 90 3d 05 bd 2f f8 96 bd
       0.17082833 0.19796729 -0.032529414 -0.07371556
000040 b0 b5 d4 3d af 6b 8f be b7 50 63 3e ce 60 d5 3d
       0.10386217 -0.28011844 0.22198759 0.10418855
000050 d7 2b 5a be a9 3d 95 be 0b 55 94 bd f5 f6 09 3e
       -0.21305786 -0.29148605 -0.07242783 0.13473113
000060 7c 71 74 3e f9 b7 f3 39 b8 86 8d 3d 08 03 49 3e
       0.23871416 0.00046485642 0.06910461 0.19630063
000070 64 0d 68 3e 1f 63 88 be 22 53 a7 be 7a f8 5b be
       0.22661358 -0.26638123 -0.32680613 -0.21481505
000080 b7 2f 6f bd b0 1f 14 3e 05 cc cc bd 73 dd 73 3e
       -0.058395114 0.14465213 -0.09999851 0.23814945
000090 f1 a5 66 be 31 ad 6f be 33 e4 96 bd 01 76 9b be
       -0.22524239 -0.23405911 -0.07367744 -0.30363467
0000a0 c4 3f 83 bd f3 28 44 bd d5 66 86 3d a4 f2 a9 3e
       -0.06408647 -0.047890615 0.065625824 0.33192933
0000b0 e4 a0 24 3e 61 cf 07 bf 32 79 42 be f7 ce 31 be
       0.16077 -0.5305081 -0.18991545 -0.17364107
0000c0 da b0 84 be b3 a6 b3 3e fb b2 34 3e 77 56 aa be
       -0.25916177 0.3508812 0.176464 -0.33269092
0000d0 cb ba 8c bd 05 0f 60 bf f4 1e 4f 3e be 79 4f 3e
       -0.068715654 -0.8752292 0.20226651 0.20261285
0000e0 e7 40 34 be 97 c1 23 3f 50 10 04 be 4c 12 6b 3e
       -0.17602883 0.6396727 -0.12896848 0.22956198
0000f0 de b2 c4 be 0c ad 13 3f 34 47 65 bd 92 c4 b6 3e
       -0.38417715 0.57685924 -0.055976108 0.35696846
000100 05 f3 9d 3c 76 8e 4b 3e 4a 51 54 be 3f 85 1a 3f
       0.01928092 0.19878563 -0.20734134 0.6035957
000110 4a 17 38 3e 1b aa 18 3f 93 40 d8 3d 57 14 1b 3f
       0.17977634 0.5963456 0.105591916 0.6057791
000120 d7 8d 9e 3e 30 e5 e6 be e9 39 1a 3f 48 06 1a 3f
       0.3096759 -0.4509673 0.60244614 0.60165834
000130 f0 27 49 3e 98 fe 0c 3e 12 98 d2 3e f7 67 d1 3c
       0.19644141 0.13768995 0.41131645 0.02556227
000140 0b dd a6 be ea e7 f5 3d 85 1b 9a 3e a1 de 34 3b
       -0.32590517 0.12007125 0.3009912 0.0027598517
000150 bb 50 dd be 45 71 49 bc ae 5d bb be 4a 36 35 3e
       -0.43225655 -0.012295072 -0.3659491 0.17696491
000160 7f 2f bf 3e 32 e8 ad be da 5a 8a bd a2 9e c8 3d
       0.37340924 -0.33966213 -0.0675561 0.09795882
000170 c7 76 0a bf f6 ec 2f 3f 55 35 cc bd 97 a0 55 3e
       -0.5408749 0.6872095 -0.0997111 0.20862041
000180 b4 7c 91 3e e3 b3 60 be 57 54 21 be 4d 71 51 3d
       0.28415453 -0.21943621 -0.1575483 0.051133443
000190 a7 01 89 bc 35 01 1f bd ac 8d b1 be 62 d4 13 bf
       -0.01672442 -0.03881951 -0.346784 -0.57745945
0001a0 84 3b 45 be 62 e9 81 bc 43 d3 82 be 22 33 d0 be
       -0.19260985 -0.015858356 -0.25551805 -0.4066401
0001b0 d0 82 95 bc 81 82 14 bf bb f7 c7 3d 94 5a 2e 3d
       -0.018250853 -0.58011633 0.09764048 0.04256685
0001c0 09 db 37 3e d5 ed c7 be 84 49 fa 3d 6e 96 9f be
       0.17954649 -0.3904864 0.12221053 -0.31169456
0001d0 09 63 b9 be 6d 2e b5 bc bb df 48 be 47 fc f4 3d
       -0.3620837 -0.022116864 -0.19616596 0.119621806
0001e0 16 4c 95 be c6 31 d6 3d 1b cc 3e be f7 94 c2 be
       -0.2915961 0.10458712 -0.18632548 -0.38004276
0001f0 56 f9 4e 3e 2d c7 a6 3e 80 42 18 3e ba a8 bb bd
       0.20212302 0.32573834 0.14869118 -0.091630414
000200 c5 20 0a bc fc cb 87 3e f7 d8 08 bf 70 30 96 be
       -0.008430664 0.26522815 -0.5345606 -0.2933383
000210 b6 2b b6 bd 0a 5b 80 be d5 a9 e1 3d 57 88 53 bf
       -0.08895056 -0.25069457 0.11018721 -0.82629913
000220 71 47 c6 bd 59 fa ed bd 7b 22 8c be 68 8c 34 be
       -0.09681595 -0.11620016 -0.27370057 -0.17631686
000230 96 ee f3 bd e8 fd 6c bf 0d 59 58 be 55 3a a5 3d
       -0.11910741 -0.9257493 -0.2112772 0.080677666
000240 e3 39 59 be c6 3f a4 be 7f 5b ce 3e fa ba e4 3e
       -0.21213488 -0.32079905 0.4030418 0.44673902
000250 6f 45 11 3e 7e 32 8b 3e 5e a5 cd be 48 28 09 3f
       0.14186643 0.2718696 -0.40165228 0.5357709
000260 cd 27 87 be b1 97 7c bf 54 8d 0a 3f c2 08 3b 3f
       -0.26397553 -0.9866896 0.541219 0.7306024
000270 f2 b8 74 be da e2 01 bf 16 98 89 3e 14 21 2d 3f
       -0.23898676 -0.50736773 0.26873845 0.676286
000280 bf f8 0f 3d a3 ed ea 3d 15 9c bf 3e 67 f0 02 bf
       0.035149332 0.11471107 0.3742377 -0.51148075
000290 c1 d9 a8 be af 11 36 3e 0d d9 41 3f ba 9a f0 3e
       -0.32978633 0.17780183 0.7572182 0.46993047
0002a0 93 0b 6d 3d 62 f3 dd 3c 1e 51 93 bc 93 0e 52 3d
       0.057872366 0.027093593 -0.017983016 0.05128343
0002b0 c2 d6 b8 3e 50 6b 3a bd d7 e9 b9 3e ec 9a c0 3e
       0.36101347 -0.045512497 0.36311218 0.37618196
0002c0 a9 d1 67 be 49 f7 9f be 17 db a6 3d 3e ae 04 3e
       -0.22638573 -0.3124335 0.08147257 0.12957093
0002d0 29 fd 35 be 7f 82 84 3f 06 19 d0 bb 0b fb ce 3e
       -0.17772354 1.0352324 -0.0063506393 0.40425906
0002e0 82 25 00 3f 9a 2e ad 3e 1a ae 10 bf d9 ad 54 3e
       0.5005723 0.33824617 -0.5651566 0.20769443
0002f0 2c 58 88 3e b2 bb c8 3e bb ad 64 be 54 9c 25 bf
       0.2662977 0.392057 -0.22331898 -0.6469166
000300 e4 47 47 bd 29 c9 f9 3e d9 15 77 bf 02 e4 1a bf
       -0.048652545 0.48786286 -0.9651771 -0.6050416
000310 99 e0 22 3d 79 94 03 3f 26 42 45 3e 19 36 36 bd
       0.039764974 0.51398426 0.19263515 -0.044485185
000320 74 29 b4 3e c1 7f b7 bc 48 23 e0 be 2a 48 b9 bf
       0.35187876 -0.022399785 -0.43776917 -1.4475148
000330 18 fb 80 3e 58 1b 19 3f 04 76 90 3e 04 d3 c1 be
       0.2519157 0.5980735 0.2821504 -0.37856305
000340 52 a9 92 3e 51 cf f8 bd 12 4b ba be e9 a6 2b 3f
       0.28644806 -0.121489175 -0.363854 0.6705156
000350 b9 cb d9 3d 9e a8 f0 be aa 13 83 bd 83 82 88 bf
       0.1063456 -0.47003645 -0.06400235 -1.0664829
000360 73 66 a5 be 43 eb 4a bd d0 fc f6 be e8 79 3c be
       -0.32304725 -0.04954077 -0.48239756 -0.18405879
000370 95 60 de bd 10 5e 8a 3d 8f b1 0d bf 04 ab 0a 3f
       -0.10858265 0.06756222 -0.5534906 0.541672
000380 f3 8f 63 bd 5c 37 a0 3e 23 a8 00 3f 36 d6 b1 3e
       -0.055557203 0.31292236 0.50256556 0.34733742
000390 44 15 01 be bb 19 8f be 50 aa d1 bd a7 8b 11 3f
       -0.12605768 -0.27949318 -0.10237563 0.5685372
0003a0 47 34 b7 be c6 8b c3 be 5b a2 84 3e 03 3d b9 3d
       -0.35782072 -0.38192576 0.25905117 0.0904484
0003b0 d4 c9 8c 3e ae 0d 4a 3f 8b f7 81 3e f0 11 c0 3e
       0.27497733 0.78927124 0.25384173 0.37513685

sequential_5/dense_18/MatMul;sequential_5/dense_18/Relu;sequential_5/dense_18/BiasAdd f4 [48]
000000 77 15 ca 3f c2 36 67 3e 5b 49 d6 3f 8e 2c 19 bf
       1.57878 0.22579482 1.6741136 -0.5983361
000010 4e fb 89 3f 84 44 e3 3d f2 5f d8 3f 09 d9 6d bf
       1.0779817 0.11097053 1.690428 -0.92909294
000020 39 76 2b 3f 32 1e e1 3f 92 3b e6 bf a8 aa 64 40
       0.6697727 1.758734 -1.798693 3.572916
000030 c1 69 26 3f be 15 a2 3f a2 d7 8f bf 2b 87 d1 3f
       0.6500512 1.2662885 -1.1237681 1.6369375
000040 99 a1 52 3f 48 2a 8c 3e af ff dd 3e cd 1f 32 bf
       0.8227783 0.27376008 0.43359134 -0.69579774
000050 34 72 85 3d 36 2d 80 bf e9 95 bc 3d c7 92 68 3f
       0.06515923 -1.0013797 0.092082806 0.90848964
000060 f6 5d aa bd 4d ce c5 bf fe f6 24 3f 6b 54 3e 40
       -0.08318703 -1.5453583 0.6443938 2.9739025
000070 61 9c d9 be 59 9f 90 3f 2f 73 25 40 ee d1 c0 3f
       -0.4250212 1.1298629 2.5851552 1.5064065
000080 8a fa 29 c0 5e 43 03 3f a3 b0 20 3e 4c 0e e0 bf
       -2.6559167 0.5127467 0.15692382 -1.7504363
000090 17 ce f9 3f 6a 07 f5 3f 85 3a 5b 3f 3b 78 e2 bf
       1.9516019 1.9142888 0.8563617 -1.7692941
0000a0 5e 2b 6d 3f 5c e4 aa bf 58 75 d2 3f 2b 21 15 40
       0.926443 -1.335094 1.644206 2.3301494
0000b0 78 a0 35 40 43 d1 90 3e 44 88 15 40 86 80 33 3f
       2.8379192 0.28284654 2.336442 0.70117986
