scripts/models/capture_30x_1,5x1m_16x16_model_no_quant.tflite (tflite, 4252 bytes, 7 tensors)

dense_59/bias f4 [5]
000000 ae 69 91 bf 86 ff b8 3f e5 2b a3 bf 94 71 75 3e
       -1.1360376 1.445298 -1.274777 0.23969108
000010 93 cf 39 3f
       0.7258236

dense_58/bias f4 [16]
000000 69 04 50 be 78 7e 1a 3e 77 ce 77 bd de 7e ec bb
       -0.20314182 0.15087306 -0.060499635 -0.007217272
000010 a2 3c 4e be 7a e7 b2 bc 60 46 40 3e 24 8b 0e 3e
       -0.20140317 -0.021838892 0.18776846 0.13920265
000020 ba b0 19 be b9 2e 9b 3e ee 39 a4 be 00 24 cb be
       -0.15008822 0.30309084 -0.32075447 -0.39675903
000030 8b 0a 65 3f eb 6c 1e be ef 73 86 3e d9 03 ad bb
       0.8946921 -0.15471236 0.26260325 -0.0052799997

sequential_14/dense_56/MatMul f4 [6, 6]
000000 80 cb 41 3f 0f b9 10 c0 34 b6 58 3f 00 9c 07 3e
       0.7570114 -2.261295 0.8465302 0.13243103
000010 a4 97 1c bf 3c 48 1d 3f 17 07 62 3f b1 0c 01 40
       -0.61168885 0.61438346 0.8829207 2.0163996
000020 a2 04 25 3f 6d d2 98 be 0b 1e 18 c0 0d e9 3b be
       0.64460194 -0.29848042 -2.3768337 -0.1835062
000030 9b be d1 bd e5 62 23 bf 92 23 4a 40 ce 7d 04 be
       -0.10241433 -0.63822776 3.158421 -0.12938616
000040 34 79 e1 bd 1c 31 13 3f bb f5 49 3f d9 d0 2d 3e
       -0.11009446 0.5749681 0.7889058 0.169742
000050 ea 5a 98 3e 70 df fc 3e f7 93 7b bf 66 56 ea bf
       0.29756862 0.4938922 -0.9827265 -1.8307617
000060 89 88 8c bf 42 13 c7 bf 5c c5 89 3f 39 2c d5 3e
       -1.0979167 -1.5552752 1.0763354 0.41635302
000070 92 48 09 bf 82 cc 0c 3e 9c 3c c0 3d 2d 5f 30 bf
       -0.5362636 0.13749889 0.0938656 -0.68895227
000080 a0 3f 59 3f 05 e9 91 3d b1 0f 13 3f 2b dc af bf
       0.8486271 0.07124523 0.5744582 -1.3739065

sequential_14/dense_57/MatMul f4 [16, 6]
000000 61 68 f6 3e de b5 d6 be 36 1b 98 be c3 02 4d 3e
       0.4812651 -0.4193563 -0.2970826 0.20020585
000010 d5 90 b5 3e a4 75 6d 3d ca 7d 5f 3e 4a d8 8b 3d
       0.3546206 0.05797352 0.21825328 0.06828363
000020 a2 01 be 3d 13 b7 59 bf b5 49 e2 be fe cb ba be
       0.09277655 -0.85044974 -0.4419686 -0.3648376
000030 1a 08 9f 3e 48 d7 ee be 40 40 10 3d 0c 97 41 be
       0.31060869 -0.46648622 0.035217524 -0.18905276
000040 8d 90 52 3f a0 fd 14 bf a5 a5 81 3e 09 bc 78 3f
       0.82251817 -0.581995 0.2532169 0.9716192
000050 48 99 91 be b6 b8 63 3e a3 69 8e bd d9 54 15 bf
       -0.28437257 0.2223843 -0.06953742 -0.5833259
000060 f8 ba 0f bf 9c 9b 57 bf e4 38 9d 3e 45 8e 04 bf
       -0.56144667 -0.84221816 0.30707467 -0.51779586
000070 aa 01 03 be 53 37 32 3f 73 36 52 3f 5d 60 52 be
       -0.12793604 0.6961567 0.8211433 -0.20544572
000080 a6 54 1f be 00 e7 c0 3e 13 0f b2 3e f8 51 19 3e
       -0.15559635 0.3767624 0.34777126 0.14972675
000090 d7 49 77 3e 32 c0 61 3e 60 63 95 3c e8 46 0d bf
       0.24149261 0.22045973 0.018235862 -0.5518632
0000a0 86 f3 d2 be 4f 17 21 bf a6 b8 6b bc cb 84 7f 3e
       -0.4120142 -0.6292619 -0.014387285 0.24953
0000b0 c4 c7 9b bf 81 55 5e be 16 97 d5 be d1 24 64 be
       -1.2170339 -0.21712305 -0.41716832 -0.2227967
0000c0 a0 41 28 3f 59 4a 0c 3f d9 88 0b 3e 90 c0 a8 be
       0.65725136 0.54800946 0.13626422 -0.32959414
0000d0 33 eb 27 bf 0f 62 ba 3e 5f ed a4 be 26 18 34 be
       -0.6559326 0.36402938 -0.3221235 -0.17587337
0000e0 a1 6b f5 be ba cd ed be 59 be 0e bf 68 16 42 bf
       -0.47933677 -0.4644602 -0.557592 -0.7581544
0000f0 61 95 06 bf 34 b9 0c bf fe d7 9b 3e 9b 02 49 3e
       -0.52571684 -0.549701 0.30438226 0.196299
000100 d2 fc 4b bf 63 bb eb 3e ab 73 44 3d c1 1b b1 39
       -0.7968265 0.46041402 0.047961872 0.0003378075
000110 0f 9a 2a bd 5b 1d 18 3e 4a 98 c1 be 69 37 8e 3e
       -0.041650828 0.14854948 -0.378115 0.2777665
000120 dc 4f 2c 3e 2b dd 23 bf c3 c7 a8 bf a3 71 d7 3e
       0.16827339 -0.6400935 -1.3185962 0.42078885
000130 a5 53 d5 3d 02 48 30 3e ac 19 65 3f 02 17 75 be
       0.104163446 0.17214969 0.894923 -0.23934558
000140 8d 1c e3 be f2 03 e0 be 46 ba a9 3e 39 9b 44 3e
       -0.4435772 -0.4375301 0.33149928 0.19199838
000150 06 6c 04 bf 7f 08 82 3e ab 8c a7 3e 33 b8 57 bf
       -0.5172733 0.25397107 0.3272451 -0.8426544
000160 b1 74 dc bd 79 03 3a bf b4 72 06 be 83 a7 82 bf
       -0.107644446 -0.7266155 -0.13129693 -1.020737
000170 77 4b 45 bf 87 21 06 bf 0e a1 be be d5 8c c4 be
       -0.77068275 -0.5239491 -0.3723225 -0.38388696

sequential_14/dense_58/MatMul f4 [16, 16]
000000 e8 ce aa bd 85 fd a0 bb a9 8d 02 3f 78 64 97 3e
       -0.083402455 -0.0049130344 0.50997406 0.2956884
000010 6c 57 79 3e 73 99 c6 3e 4d a2 44 3c c8 d6 36 bf
       0.24349755 0.38788947 0.012001586 -0.7142148
000020 31 96 44 3e 4c 1c 96 3e 52 7e a3 3b 09 3b 83 3e
       0.19197918 0.29318464 0.004989424 0.25630978
000030 cd ff 9f 3e a4 30 ad be bc 4b d6 bd cd e6 5a bf
       0.31249848 -0.33826172 -0.10463664 -0.85508424
000040 20 2a 91 3e b3 31 37 bd ad e7 15 3f d6 9b ec 3e
       0.2835245 -0.04472513 0.58556634 0.46212643
000050 7e 05 a2 bd 40 66 58 3f 9a 50 f8 be 3a 9c 75 be
       -0.07911204 0.8453102 -0.48498994 -0.23985377
000060 0b 4d a1 3e 42 b1 bb be 22 d0 97 3e f9 c1 83 3e
       0.31504092 -0.36658674 0.2965098 0.25733927
000070 28 33 7f bf 31 98 0b 3f 39 b6 b6 be 2a 43 dc 3e
       -0.99687433 0.545291 -0.356859 0.43019992
000080 b0 85 97 3c 62 f4 1d be 00 cd a2 be ba 92 17 bb
       0.018496364 -0.15425256 -0.31797028 -0.0023128227
000090 d7 22 3f be 6d 4a 73 be a7 89 f3 bd 06 6e 0e be
       -0.18665634 -0.2375886 -0.118914895 -0.13909158
0000a0 9f c2 7c be 74 3d 84 3e 68 0c 92 3e 30 fe 53 3e
       -0.24683617 0.25828135 0.2852509 0.20702434
0000b0 a2 0f 2e 3c 40 8b 99 3b 5f 46 80 3e 9f bd 68 be
       0.010623844 0.0046857893 0.2505369 -0.22728585
0000c0 c3 b3 a2 3e 60 b8 53 be 0e e6 90 be ae 38 85 bd
       0.31777772 -0.20675802 -0.28300518 -0.065049514
0000d0 dc 2c e3 be 95 98 81 be f8 48 84 be 67 00 9c be
       -0.44370162 -0.25311723 -0.2583692 -0.30469057
0000e0 c6 20 09 3d 7c 07 99 be cb 01 ae 3e fe a6 b1 be
       0.03347852 -0.29888523 0.33985743 -0.34697717
0000f0 57 0e ef 3d 4c 9d 8d 3d 70 ea c3 3e 03 7a fe 3d
       0.11672657 0.069147676 0.382648 0.12425616
000100 0e cf bc 3e ed e2 58 3e 4e c1 b2 be 48 1b 11 3e
       0.3687672 0.21180315 -0.34913105 0.14170563
000110 7e c8 ce be 97 4d 86 bd 43 da 90 3e 7e 29 e7 be
       -0.40387338 -0.06557768 0.2829152 -0.45148844
000120 a2 57 d1 be 57 17 b4 3e d3 8f b1 3e 69 6f c4 3d
       -0.4088717 0.35174057 0.34680042 0.09591562
000130 69 64 31 3e 49 e4 c6 be 07 93 83 3e 6d d7 6e 3c
       0.1732346 -0.38846043 0.2569811 0.014577729
000140 c0 d6 16 3c cf a9 d9 be d9 5a d2 be a9 9f 29 3e
       0.009206474 -0.42512366 -0.41084936 0.16564812
000150 61 d3 cb 3c 1f 46 5c be 06 6f 30 be ee 19 e8 be
       0.024881067 -0.21511124 -0.17229852 -0.45332283
000160 51 15 9a be e9 b6 b3 3e a4 cb 61 3e 5c 84 54 3d
       -0.30094388 0.35100487 0.22050339 0.05188404
000170 ad 2e cb be a7 5a 65 be 48 6b 6b 3c 04 22 86 be
       -0.39684048 -0.22397862 0.01436884 -0.26197827
000180 1c 40 50 3e 21 86 f2 3e 76 45 6e 3d 4e 50 19 3f
       0.20336956 0.47367957 0.05817171 0.5988816
000190 c0 c0 25 3f 0f 20 ac bd db db c3 be 11 24 79 3e
       0.6474724 -0.08404552 -0.38253674 0.24330164
0001a0 e0 b6 00 bf 0e bf 5c be 9c 50 4f 3d 46 75 7f be
       -0.50279045 -0.21557257 0.050613984 -0.2494708
0001b0 0e dc c4 be 63 b0 54 3e d8 7a e8 bd b0 f4 8c bc
       -0.38449138 0.20770411 -0.113515556 -0.01720652
0001c0 88 ca 21 bc 93 e1 87 be cd e4 00 3f b6 5c 05 be
       -0.009874947 -0.26539287 0.5034912 -0.13023648
0001d0 9e a3 06 bf 74 b1 59 bd 22 3f af 3d 19 c9 7e be
       -0.5259341 -0.053147748 0.085569635 -0.248814
0001e0 62 93 04 3f 11 f5 88 3e 51 db 77 3d f1 f6 59 3e
       0.5178739 0.2674947 0.06051189 0.21285607
0001f0 dc 92 07 bf 7e ca 25 bc 67 20 1f be 76 33 8d be
       -0.52958465 -0.010119079 -0.15539704 -0.27578324
000200 76 85 78 3e 22 c3 f2 bd 01 4d e1 3e a0 75 4c be
       0.24269661 -0.11853625 0.44004062 -0.19966745
000210 38 a0 ca be 7c 7f 56 be 7a be e6 3e 02 56 7a be
       -0.39575362 -0.20947069 0.45067197 -0.24446872
000220 ae e3 bd be a8 92 38 3e f6 c0 98 be 8b 8c 20 3e
       -0.37087768 0.18024695 -0.29834718 0.15678613
000230 9b 2a b8 be fa ee 0a be 33 1e 9d be 47 01 ff 3e
       -0.35970005 -0.13567725 -0.30687103 0.49805662
000240 00 77 e6 be 11 57 5c 3e 9e 41 33 3f 19 ca 40 bf
       -0.45012665 0.21517588 0.70022 -0.75308377
000250 48 26 45 bc 7e 9d 83 3e 87 57 c0 3e 57 95 e6 3d
       -0.012033053 0.25706095 0.37566778 0.11258953
000260 c1 4e 80 be 3c 96 0c bd aa 6a 0a bf cc 51 ed bd
       -0.25060084 -0.034322962 -0.54069006 -0.11587867
000270 e6 11 24 3f 65 88 9c 3e 3a 64 0e 3f 18 c8 8e 3e
       0.6408981 0.3057281 0.55621684 0.27887034
000280 0a ff c5 be cd ea 9a 3c e0 4a 38 3e d1 9a 99 3e
       -0.38671142 0.01891079 0.17997313 0.30000928
000290 e8 47 ef 3c b3 c5 70 3e 5e 79 b6 3d 2b 60 7f be
       0.029209092 0.23512916 0.08909868 -0.24939029
0002a0 be aa b2 3c 64 1e 92 bd 7e 24 d0 be b9 1e 4a 3e
       0.021809932 -0.07134703 -0.4065284 0.19738282
0002b0 09 ca 31 be 09 e9 98 bc ba 50 12 3e 0f 8c 9f 3e
       -0.17362227 -0.018665807 0.14288607 0.31161544
0002c0 36 4d 13 be d9 41 41 bf 2d 7f 4f 3f 82 41 e0 be
       -0.14384922 -0.754911 0.8105343 -0.43799978
0002d0 29 1a 88 be 6b 31 d3 3e 7a ae 26 bf 57 fc 6a bf
       -0.2658246 0.4124864 -0.6510998 -0.9179129
0002e0 de 87 84 bf 6a 8d 95 3e fb 70 14 3f 41 e8 d9 bc
       -1.0353963 0.29209453 0.57984895 -0.026600005
0002f0 6f 7f c2 3d eb d4 1e 3f 38 80 0d bd 0e af 27 3e
       0.09496962 0.6204364 -0.034546107 0.16375372
000300 d2 9d db 3e 64 23 46 3d ae 50 14 bf 46 74 ca 3e
       0.42893845 0.048373595 -0.5793561 0.39541835
000310 7b 41 1f bd 79 5d 1c bf 9e 31 09 3c f2 7c 5c 3f
       -0.038880806 -0.6108013 0.008373646 0.8612815
000320 23 89 f2 3d 29 85 09 3f ff 49 ea 3c eb 25 c0 be
       0.11842563 0.5371881 0.028599737 -0.3752893
000330 86 a0 9c 3e f0 44 09 bf 22 22 7c 3e 63 0f 49 bf
       0.3059122 -0.53620815 0.24622396 -0.78539103
000340 a9 04 5f be 79 ac b2 3e b7 08 c3 bd fa 75 1a bd
       -0.21779121 0.3489721 -0.095231466 -0.037710167
000350 72 8b ce be c6 64 96 3c 6d 29 04 3d 3a c6 be bd
       -0.40340763 0.0183586 0.03226607 -0.093151525
000360 55 32 9d be 43 bd 72 be fe 03 b5 3e 35 ca 41 3e
       -0.30702463 -0.2370501 0.35354608 0.18924792
000370 2e b5 c0 be f9 ed 84 3e 91 65 b8 ba b5 14 1a be
       -0.3763823 0.2596281 -0.0014068355 -0.15046962
000380 05 bc ce bd 88 54 e6 bc 49 b6 23 3e 6d 6c 3c bc
       -0.10094456 -0.02811648 0.15987505 -0.01150046
000390 c8 4b 51 3f 7a 28 05 be c8 d9 81 bd b0 56 06 be
       0.8175626 -0.13003722 -0.063403666 -0.13119006
0003a0 f6 3d 74 be 5f ef 16 bf 23 f9 46 3d d6 b4 a9 3e
       -0.23851761 -0.58959 0.04857744 0.3314578
0003b0 c1 8a 62 be f8 07 8d 3e 54 cf 35 3e b4 d4 bf 3e
       -0.22123243 0.27545142 0.1775487 0.37466967
0003c0 65 a5 80 3e ce 83 9f bd 9e 94 a2 be da 4f 7c 3e
       0.25126186 -0.077888116 -0.3175401 0.24639836
0003d0 39 bf 8d be ac 45 a3 be 10 ca ed 3c 3d 27 e9 be
       -0.27684954 -0.31889093 0.029027015 -0.4553775
0003e0 49 38 2f 3e 70 10 cc bd 2b 91 c0 3e e6 79 b2 bd
       0.17111315 -0.09964073 0.37610754 -0.087146565
0003f0 bf 32 9c bd c1 d9 88 3e ac 29 e5 3e be 6e 91 be
       -0.076268665 0.26728633 0.44758356 -0.28404802

sequential_14/dense_59/MatMul f4 [5, 16]
000000 0e 86 ed 3c 4b 0a 3d bf d6 23 90 be 42 c0 6f be
       0.028994586 -0.7384383 -0.2815234 -0.23413184
000010 64 55 a2 be 80 c8 2d 3e 71 f9 bf 3e 46 41 ad 3e
       -0.31705773 0.16971016 0.37494996 0.33838862
000020 40 de 46 3e cc 50 1a bd e3 4e 38 3e f7 da aa 3d
       0.19420719 -0.03767471 0.17998843 0.083425455
000030 c6 af 7a be 98 a5 7f be 41 aa c6 3e 55 e4 c8 3e
       -0.24481115 -0.24965513 0.38801768 0.39236704
000040 eb 84 e1 bd d3 3f 89 3f ed 02 fb 3e 36 eb 72 bd
       -0.1101168 1.0722603 0.4902567 -0.059306346
000050 00 3b c0 be 3a 5b b7 be 31 9b 82 3e 8c 1d ed 3e
       -0.37545013 -0.35811788 0.25509027 0.46311605
000060 67 9f 31 bf 3b 7b 03 be 74 2a fb 3a d9 a0 b8 3e
       -0.69383854 -0.12839977 0.0019162432 0.36060217
000070 01 7b 0e 3f e9 e3 8d be 7f 4c 90 3e cf d4 00 bf
       0.5565644 -0.27712944 0.28183362 -0.5032472
000080 c4 1a 16 bf 7b 7d 6a bf 0b 7e 86 be 8d 29 e4 be
       -0.5863459 -0.9159772 -0.26268038 -0.4456295
000090 f1 13 bb be 2b ea 7e be fb f3 82 be 65 e3 f5 be
       -0.36538652 -0.24894015 -0.25576767 -0.4802505
0000a0 4f 0f 2f bd 22 4d 99 bf 6a fb f4 bc f7 cc ce be
       -0.04273921 -1.1976664 -0.02990504 -0.4039075
0000b0 e5 b4 4c bf 6c 16 fc 3e f5 2b 28 3e 18 2b 95 3e
       -0.79963523 0.49235857 0.16423018 0.2913444
0000c0 d4 d1 5f 3f 06 e8 28 be 8e c5 0c 3b e6 48 45 be
       0.8742955 -0.1649476 0.0021480056 -0.1926609
0000d0 f6 ec f6 bd 7d 56 53 3d 41 6e 15 bf e5 c8 18 3f
       -0.120569155 0.051596154 -0.5837136 0.5968154
0000e0 ff d3 e4 be ff a3 d0 3e 7c 80 54 3e e7 a6 1e 3f
       -0.4469299 0.4075012 0.20752138 0.6197342
0000f0 1c 1b c8 3f cf ee fa be da d3 53 bf 59 b1 2f be
       1.5633273 -0.49010321 -0.82745135 -0.17157497
000100 ca 46 da 3e dd c2 22 3e ec db 2f 3e 51 fb 2a 3e
       0.42632133 0.15894647 0.17173737 0.16697432
000110 ed a6 b0 3e e6 47 9b 3e 09 36 b3 3d e6 27 10 bf
       0.34502354 0.30328292 0.08750541 -0.5631088
000120 10 45 38 bd 5b a2 9b 3f ce 71 90 3e b7 93 6b bf
       -0.044987738 1.2158922 0.28211826 -0.9202227
000130 e6 4b 30 bf fd c9 a7 3e fe 1a eb 3e 2a 86 ee be
       -0.6886581 0.32771292 0.4591903 -0.46586734

sequential_14/dense_57/MatMul;sequential_14/dense_57/Relu;sequential_14/dense_57/BiasAdd f4 [16]
000000 6e 36 4c be 74 f3 98 3e 69 64 d9 bd 31 d1 66 3f
       -0.19942638 0.2987324 -0.10614855 0.9016295
000010 0d d6 a6 be 4b 73 e5 3d 11 78 94 3e 76 b1 e0 3f
       -0.32585183 0.11203631 0.28997853 1.7554157
000020 b1 3e 1d be 84 93 4c 3f 7f 48 ce be 17 7c ef bd
       -0.15355946 0.7991259 -0.40289685 -0.1169359
000030 56 ec b8 3f 97 36 40 3f 51 00 89 bd 7e eb 8a 3f
       1.4447124 0.750833 -0.066895135 1.0853117
