scripts/models/capture_40x_1,5x1m_16x16_model_no_quant.tflite (tflite, 4228 bytes, 7 tensors)

dense_12/bias f4 [5]
-0.6052392 1.0749854 -1.0237668 0.26395527 0.2900637
00000000: f5f0 1abf 1f99 893f ca0a 83bf 2525 873e
00000010: 3b83 943e

dense_11/bias f4 [16]
-0.5157594 -0.5783744 -0.054149695 0.65652245 0.029114045 0.4290032 0.46100754 -0.22819717
-0.3660962 -0.21961859 0.32192564 0.30399972 0.9302253 -0.08827455 -0.24888454 -0.6705448
00000000: cf08 04bf 5810 14bf 12cc 5dbd db11 283f
00000010: 9480 ee3c 4fa6 db3e 2e09 ec3e 85ac 69be
00000020: f670 bbbe b2e3 60be 70d3 a43e daa5 9b3e
00000030: 3f23 6e3f 4ac9 b4bd 97db 7ebe d3a8 2bbf

sequential_3/dense_9/MatMul f4 [6, 6]
0.34440663 2.3523133 -1.7457752 -1.0519477 -1.8748845 0.3235626 0.11062775 -1.6802804
0.64718103 -1.1088924 0.27468273 2.275449 -0.7250332 2.5995185 -0.9296868 -0.117085144
2.668757 0.54526114 0.042297754 -0.15709344 -0.3475163 -0.47395 -0.207054 -0.8035011
-0.24437393 0.53562206 1.0365968 1.4725283 -0.91234565 0.618177 0.068560764 -2.445282
-1.5325838 1.0885506 0.15387265 0.6692159
00000000: 1156 b03e 4d8c 1640 9075 dfbf 39a6 86bf
00000010: 37fc efbf ffa9 a53e cd90 e23d 6e13 d7bf
00000020: a8ad 253f 30f0 8dbf 37a3 8c3e f5a0 1140
00000030: c79b 39bf 835e 2640 f4ff 6dbf 56ca efbd
00000040: eacc 2a40 3c96 0b3f 6940 2d3d 1add 20be
00000050: a8ed b1be 93a9 f2be f705 54be 40b2 4dbf
00000060: 293d 7abe 871e 093f 34af 843f cf7b bc3f
00000070: 7c8f 69bf d940 1e3f 9669 8c3d 807f 1cc0
00000080: b52b c4bf a055 8b3f cb90 1d3e bc51 2b3f

sequential_3/dense_10/MatMul f4 [16, 6]
-0.95361763 1.0936072 0.36050674 -0.11571745 -0.3399932 1.044152 0.38201842 0.7604555
-0.10293313 -0.20957842 -0.63547754 0.09317541 0.6218589 1.0801785 -1.6827908 0.6376221
-0.6164692 0.29369217 -0.03889382 -0.5912574 -0.18495332 0.39678118 -0.6857699 0.18002036
0.566439 0.5350237 -0.31665644 0.48898852 0.10406855 0.46973544 1.3436271 -0.64794314
0.21684092 0.3501784 -0.99233115 2.0013738 0.00940595 0.112029195 -1.8831567 0.015092059
0.4207447 1.1474313 0.10190036 0.10363817 -0.517269 0.21811098 -1.1483276 -0.6157791
-0.020543475 -0.489304 -0.39594978 0.14253078 -0.20106272 -0.0055069234 -1.3490658 -0.96089077
0.01729686 0.51276594 -0.5233703 0.37981158 0.7473686 0.38572067 -0.28392962 0.306499
-1.0386407 -1.0449593 0.533054 0.13114874 -0.029982114 0.18417366 -0.21132667 0.2142938
-0.12620749 0.31884074 -0.020774283 0.22617988 -0.103497565 -0.27240497 -0.16635491 0.0066794916
-0.4403231 -0.20188795 -0.56691414 0.33319154 0.3513033 -0.78748757 0.4487579 0.113280796
0.6379006 -0.051684536 0.2595034 1.179125 0.4160966 0.47599065 -1.0609028 -0.38803676
00000000: 4920 74bf 52fb 8b3f 5794 b83e 45fd ecbd
00000010: 9713 aebe c6a6 853f eb97 c33e 36ad 423f
00000020: 9bce d2bd ba9b 56be a8ae 22bf c0d2 be3d
00000030: 2532 1f3f 4a43 8a3f b065 d7bf 343b 233f
00000040: edd0 1dbf d25e 963e 204f 1fbd a55c 17bf
00000050: 6764 3dbe e726 cb3e 9e8e 2fbf 4257 383e
00000060: 2502 113f 50f7 083f cb20 a2be b45c fa3e
00000070: e421 d53d 2a81 f03e f9fb ab3f 9adf 25bf
00000080: 8c0b 5e3e 954a b33e 6a09 7ebf 8216 0040
00000090: 6a1b 1a3c 906f e53d 470b f1bf af44 773c
000000a0: d96b d73e 07df 923f 23b1 d03d 4040 d43d
000000b0: be6b 04bf 7c58 5f3e 66fc 92bf b3a3 1dbf
000000c0: ca4a a8bc 0e86 fabe eeb9 cabe 97f3 113e
000000d0: 63e3 4dbe 6c73 b4bb 30ae acbf f0fc 75bf
000000e0: 25b2 8d3c a144 033f 99fb 05bf aa76 c23e
000000f0: 8c53 3f3f 2e7d c53e 395f 91be 70ed 9c3e
00000100: 2ef2 84bf 3ac1 85bf 3a76 083f db4b 063e
00000110: 0d9d f5bc 0598 3c3e 0566 58be d56f 5b3e
00000120: 893c 01be 183f a33e d42e aabc b39b 673e
00000130: 88f6 d3bd aa78 8bbe f158 2abe a3df da3b
00000140: 0872 e1be b7bb 4ebe 4921 11bf 1598 aa3e
00000150: 07de b33e c998 49bf 98c3 e53e c3ff e73d
00000160: 744d 233f 2ab3 53bd a1dd 843e 91ed 963f
00000170: 9d0a d53e 0cb5 f33e aacb 87bf c1ac c6be

sequential_3/dense_11/MatMul f4 [16, 16]
-0.49499404 0.29492563 0.52735823 -0.25868878 0.57835615 -0.1962614 0.14027934 -0.034012973
0.08224943 -0.02018041 -0.38871765 0.44118363 -0.04378121 0.3570283 -0.39485875 -0.19863854
0.5791046 0.09979128 0.04289072 0.16030623 0.38104662 -0.7470195 0.33228284 0.003923685
-0.37194046 0.032009892 0.1451981 -0.15403004 0.20799877 0.1400584 -0.4673045 -0.47779748
0.047186513 0.0060397144 -0.68385065 0.18052633 -0.011783977 -0.35061595 0.41078508 -0.4740121
-0.03608208 -0.3055086 -0.08346281 0.05741453 -0.18671383 0.015664976 -0.81815594 -0.18368837
0.13695966 -0.029770374 0.4347326 -0.027622126 0.2678268 -0.7005859 0.39533558 -0.1826029
0.25194526 -0.015142713 0.087660745 0.15303987 0.1054335 -0.060847614 0.45593736 -0.65062034
-0.3925922 -0.32476673 0.72854316 -0.22278702 0.024417577 0.38342115 0.04476327 -0.001839046
-0.09112121 -0.16660713 0.13051277 -0.16391249 -0.34961042 -0.35240817 -0.41186795 -0.4671041
0.24892773 -0.36217615 -0.35615247 -0.30284888 -0.0057720896 -0.33280742 0.24480133 0.022786697
-0.24899521 -0.21037287 -0.32021478 -0.068185724 0.26486003 0.21788436 0.021790065 -0.21407178
0.64778936 -0.32618994 -0.31577066 -0.37538013 0.2753431 -0.135785 -0.5998479 -0.28840137
0.18531875 0.21272795 -0.6580881 0.23350689 0.34065518 0.13465782 -0.3585082 -0.18563616
-0.34185192 -0.13165814 0.08493669 0.37523052 -0.42327666 -0.06389288 0.08018561 -0.013148117
-0.25205278 -0.41290015 -0.023093928 -0.014461309 0.17127986 0.30586368 -0.27493888 0.1883672
0.025836578 0.64718276 -0.29496446 0.6074193 -0.28860214 1.1926064 -0.08655019 -0.14730279
-0.2273021 0.17923205 -0.22706598 0.059452243 0.013788678 0.23301663 0.11850892 0.3467775
-0.29291415 0.36103195 -0.16358088 0.15366127 0.2298918 -0.29215968 -0.29817888 -0.21093026
-0.3256871 -0.117542125 0.26473045 -0.21537817 -0.28364104 -0.097329214 0.13152389 -0.19162564
-1.0172127 0.54548836 0.3895092 0.21945973 0.0019395966 -0.08205661 -1.2717897 -0.065298654
0.41870123 -0.6454869 0.32130998 0.12011266 0.1392478 -0.1703623 0.7986468 0.8183974
-0.4428786 -0.18931654 -0.36947292 -0.17817119 -0.22901098 -0.05014375 0.139963 -0.38231328
-0.08101391 -0.13762829 0.029809237 -0.42898336 0.42501304 0.26487482 -0.17874973 -0.23555599
0.0995842 0.36116418 -0.44701466 0.045859512 0.40110424 0.394767 0.3308351 -0.59522444
0.052751295 -1.2893035 -0.57759833 0.22536232 0.21399495 0.19796516 -0.7981954 0.0076204124
-0.44535035 0.20428635 -0.15673074 -0.23541795 -0.06594453 -0.015778102 0.10926761 -0.40301675
-0.18934727 -0.054137804 0.3614961 -0.20793515 -0.40365183 0.21689309 -0.31149882 -0.1987586
-0.02302859 0.017052405 -0.059162486 -0.18988425 -0.3451077 0.7335961 1.0042127 0.47322538
0.38463765 -0.5384896 0.5548955 0.18728326 -0.28001735 -0.08897886 -0.41204172 0.15566316
0.8264655 0.036210462 0.15127514 -0.17541319 -0.22380073 0.18918306 -0.078761674 -0.27850035
0.3481755 -1.0349745 0.15254399 0.030166961 -0.2910897 -0.074750416 -0.24684003 0.14739005
00000000: dc6f fdbe 7e00 973e f300 073f db72 84be
00000010: 260f 143f c0f8 48be 63a5 0f3e 3051 0bbd
00000020: 6472 a83d 6351 a5bc 0006 c7be d2e2 e13e
00000030: ed53 33bd 6acc b63e ed2a cabe e767 4bbe
00000040: 3340 143f 5f5f cc3d 2eae 2f3d 5127 243e
00000050: 8b18 c33e ac3c 3fbf fa20 aa3e 4192 803b
00000060: fb6e bebe ce1c 033d d0ae 143e 0dba 1dbe
00000070: a1fd 543e 786b 0f3e 8942 efbe dfa1 f4be
00000080: a546 413d cce8 c53b d610 2fbf e5db 383e
00000090: 9511 41bc ef83 b3be 6c52 d23e b7b1 f2be
000000a0: ceca 13bd a06b 9cbe 8dee aabd 802b 6b3d
000000b0: e931 3fbe d653 803c ab72 51bf ce18 3cbe
000000c0: 273f 0c3e 00e1 f3bc 4595 de3e cc47 e2bc
000000d0: 9820 893e 9959 33bf 6d69 ca3e 41fc 3abe
000000e0: f8fe 803e 2419 78bc 7a87 b33d 7cb6 1c3e
000000f0: 85ed d73d 593b 79bd 9f70 e93e 0e8f 26bf
00000100: d801 c9be d347 a6be ce81 3a3f 4822 64be
00000110: 5f07 c83c c74f c43e b159 373d 250c f1ba
00000120: c29d babd 0f9b 2abe 24a5 053e add8 27be
00000130: 2300 b3be d86e b4be 5be0 d2be 4528 efbe
00000140: e9e6 7e3e 276f b9be 9e59 b6be 020f 9bbe
00000150: cc23 bdbb bc65 aabe 33ad 7a3e 2bab ba3c
00000160: 9af8 7ebe fc6b 57be 31f3 a3be f5a4 8bbd
00000170: bc9b 873e 141d 5f3e 1481 b23c a235 5bbe
00000180: 86d5 253f 5e02 a7be b1ac a1be d331 c0be
00000190: c5f9 8c3e 390b 0bbe a28f 19bf 58a9 93be
000001a0: 33c4 3d3e 5bd5 593e 7678 28bf 6e1c 6f3e
000001b0: 5b6a ae3e bde3 093e 638e b7be 6817 3ebe
000001c0: 3707 afbe 64d1 06be 4af3 ad3d 371e c03e
000001d0: b8b7 d8be 45da 82bd 5a38 a43d 336b 57bc
000001e0: 100d 81be a667 d3be 7a2f bdbc 20ef 6cbc
000001f0: fd63 2f3e 2a9a 9c3e cac4 8cbe 55e3 403e
00000200: 3ba7 d33c c5ad 253f 9505 97be d57f 1b3f
00000210: a9c3 93be 54a7 983f 3a41 b1bd 8bd6 16be
00000220: e2c1 68be 9b88 373e fc83 68be 3284 733d
00000230: e8e9 613c e99b 6e3e ceb4 f23d d28c b13e
00000240: d8f8 95be 2ed9 b83e bf81 27be 6159 1d3e
00000250: c268 6b3e f495 95be e7aa 98be 1afe 57be
00000260: 76c0 a6be edb9 f0bd c08a 873e 188c 5cbe
00000270: 6639 91be 8a54 c7bd 33ae 063e 8339 44be
00000280: 0734 82bf 20a5 0b3f c06d c73e 0dba 603e
00000290: 103a fe3a 4c0d a8bd 01ca a2bf 4dbb 85bd
000002a0: 0260 d63e a13e 25bf be82 a43e a0fd f53d
000002b0: fa96 0e3e 7473 2ebe 1e74 4c3f 7e82 513f
000002c0: fcc0 e2be 32dc 41be 8e2b bdbe 8272 36be
000002d0: db81 6abe 8863 4dbd 7652 0f3e 91be c3be
000002e0: 9fea a5bd 6eee 0cbe 8032 f43c b5a3 dbbe
000002f0: 4f9b d93e ac9d 873e 2b0a 37be 9735 71be
00000300: cdf2 cb3d 83ea b83e 1bdf e4be 2fd7 3b3d
00000310: 895d cd3e e61e ca3e 3863 a93e a160 18bf
00000320: be11 583d e607 a5bf 7cdd 13bf 61c5 663e
00000330: 7e21 5b3e 61b7 4a3e 8956 4cbf a7b4 f93b
00000340: f604 e4be 7130 513e 067e 20be 6711 71be
00000350: ed0d 87bd 1441 81bc b2c7 df3d 3658 cebe
00000360: 40e4 41be 9abf 5dbd 0416 b93e f4ec 54be
00000370: 74ab cebe 3919 5e3e c67c 9fbe 6087 4bbe
00000380: 74a6 bcbc 7cb1 8b3c 5d54 72bd 0471 42be
00000390: f5b1 b0be f4cc 3b3f 0b8a 803f 994a f23e
000003a0: 3aef c43e 74da 09bf a20d 0e3f 2fc7 3f3e
000003b0: 6f5e 8fbe 8c3a b6bd 22f7 d2be 2a66 1f3e
000003c0: 3e93 533f 6c51 143d dfe7 1a3e 849f 33be
000003d0: 052c 65be 34b9 413e cd4d a1bd 9997 8ebe
000003e0: 0f44 b23e 0b7a 84bf 7e34 1c3e b420 f73c
000003f0: b609 95be bf16 99bd a2c3 7cbe 6bed 163e

sequential_3/dense_12/MatMul f4 [5, 16]
0.15327033 0.45510224 -0.30895868 -0.4563011 0.32486284 -0.47981438 0.09244726 0.31847045
-0.25724903 -0.1453385 0.07869858 -0.31337056 -0.038191207 0.4448517 -0.47717285 0.4667566
0.8242211 0.15554798 -0.8840211 0.8117035 0.61186546 0.68523663 0.7689647 -0.34925506
-0.12065506 0.022360222 0.93439496 -0.2644849 0.15594235 0.14650416 0.44825494 -0.57863575
0.113196515 0.04571145 -0.11372064 -1.527523 0.37150097 -0.12224503 -0.27633724 0.0360243
-1.1006613 0.49271768 -0.67846024 0.25824282 0.0038693156 0.32952183 -0.8096208 0.28450078
-0.061710715 0.6780516 -0.048676733 0.12018945 -0.39459673 -0.09222683 -0.5920959 -0.3506709
0.3667331 -0.5331475 1.2307235 0.32441875 -1.0958157 0.2920922 0.5154136 -0.47056797
-0.3060895 -0.50296515 0.30803946 0.48841614 0.46826732 0.58418363 0.46985936 0.22819546
0.8126987 0.13853583 -1.2535461 0.4502819 1.1645865 -0.40841115 -0.6378995 0.5693848
00000000: e6f2 1c3e 2903 e93e d52f 9ebe 4ca0 e9be
00000010: 6c54 a63e 3baa f5be fd54 bd3d 8f0e a33e
00000020: 25b6 83be 9ed3 14be b92c a13d 1b72 a0be
00000030: 626e 1cbd 9ac3 e33e 0050 f4be b9fa ee3e
00000040: 2700 533f f847 1f3e 354f 62bf cdcb 4f3f
00000050: 37a3 1c3f ab6b 2f3f dfda 443f 8fd1 b2be
00000060: 001a f7bd c92c b73c 8234 6f3f 916a 87be
00000070: 5aaf 1f3e 3005 163e ac81 e53e 7921 14bf
00000080: 93d3 e73d ee3b 3b3d 5ee6 e8bd e085 c3bf
00000090: 6035 be3e 9a5b fabd 137c 8dbe 378e 133d
000000a0: 78e2 8cbf 7e45 fc3e 92af 2dbf 6738 843e
000000b0: 5894 7d3b 16b7 a83e 4f43 4fbf 16aa 913e
000000c0: 60c4 7cbd ca94 2d3f 4161 47bd e325 f63d
000000d0: 9508 cabe 6ce1 bcbd 9993 17bf 238b b3be
000000e0: 71c4 bb3e 5b7c 08bf 5988 9d3f 371a a63e
000000f0: b043 8cbf 1c8d 953e 25f2 033f 49ee f0be
00000100: c3b7 9cbe 53c2 00bf 59b7 9d3e ae11 fa3e
00000110: bcc0 ef3e 0f8d 153f 6891 f03e 12ac 693e
00000120: 060d 503f 56dc 0d3e 3374 a0bf 598b e63e
00000130: 2c11 953f 441b d1be 624d 23bf 34c3 113f

sequential_3/dense_10/MatMul;sequential_3/dense_10/Relu;sequential_3/dense_10/BiasAdd f4 [16]
-0.07210613 1.6436309 3.2537355 1.0574101 1.8151438 4.7096863 -0.06568886 1.4615946
0.221552 -1.5587652 2.5126758 1.5406897 -0.029221348 0.43314993 -1.0180414 2.2190573
00000000: 61ac 93bd 7f62 d23f 343d 5040 3759 873f
00000010: a256 e83f c0b5 9640 e287 86bd 8815 bb3f
00000020: 87de 623e 9e85 c7bf aecf 2040 5235 c53f
00000030: 9c61 efbc d4c5 dd3e 2e4f 82bf 0905 0e40
