scripts/models/model.tflite (tflite, 2784 bytes, 3 tensors)

sequential/dense/MatMul;StatefulPartitionedCall/sequential/dense/MatMul i1 [16, 1] scale=0.004819556 zero_point=0
00000000: ad60 4df0 cd1b 7ff0 4014 0e1e 6927 ff8b
-0.40002316 0.4626774 0.37110582 -0.0771129 -0.24579737 0.13012801 0.6120836 -0.0771129
0.3084516 0.09639113 0.067473784 0.14458668 0.5060534 0.1879627 -0.004819556 -0.5638881

sequential/dense_1/MatMul;StatefulPartitionedCall/sequential/dense_1/MatMul i1 [16, 16] scale=0.008314171 zero_point=0
00000000: 010c bdd2 032e df1c bf25 19dc 140a 3b20
00000010: fa1c 7ff0 2cc7 0218 110c dedc 1bed cae0
00000020: f6f9 1804 322d c7f9 f415 33f3 b309 4fff
00000030: 3311 f81d f4ff fbf0 f616 442b 3124 1cd0
00000040: 14eb 3204 f7e2 cfff 0802 f5d2 0726 00e0
00000050: f038 8f06 19db fa1a f424 fc29 1501 4029
00000060: f9d7 f8d0 01d7 220b ee02 ecda f4eb cffb
00000070: 0b2e ea16 e6f7 eaf6 112c f1f8 e1c2 41ec
00000080: fb24 a5d2 d61f ca13 cecb 3f06 08e7 711b
00000090: 1ae7 ded7 cc28 d225 08c4 350a b72c 3c0f
000000a0: e025 ce10 28e2 11dd f825 1ff9 2ad6 1ce1
000000b0: 05dd f2e5 2c32 e006 2638 38da b51b 1fcf
000000c0: 0528 231f 1e20 30e9 33cd b002 0912 e81f
000000d0: 0522 ff0a d60a 0cd5 cde9 07c8 f0fc fa0d
000000e0: e933 93e7 2e0d c205 e402 411f e1c2 72e4
000000f0: d71c ef10 331d 2210 def9 fcea f5dc 1a1c
0.008314171 0.099770054 -0.55704945 -0.38245186 0.024942514 0.38245186 -0.27436763 0.23279679
-0.5404211 0.3076243 0.20785427 -0.29931015 0.16628341 0.08314171 0.4905361 0.26605347
-0.049885027 0.23279679 1.0558997 -0.13302673 0.3658235 -0.47390774 0.016628342 0.19954011
0.14134091 0.099770054 -0.28268182 -0.29931015 0.22448261 -0.15796925 -0.44896522 -0.26605347
-0.08314171 -0.058199197 0.19954011 0.033256683 0.41570854 0.3741377 -0.47390774 -0.058199197
-0.099770054 0.17459759 0.4240227 -0.108084224 -0.64019114 0.07482754 0.6568195 -0.008314171
0.4240227 0.14134091 -0.06651337 0.24111095 -0.099770054 -0.008314171 -0.041570853 -0.13302673
-0.08314171 0.18291175 0.56536365 0.35750934 0.40739438 0.29931015 0.23279679 -0.39908022
0.16628341 -0.17459759 0.41570854 0.033256683 -0.07482754 -0.24942513 -0.40739438 -0.008314171
0.06651337 0.016628342 -0.09145588 -0.38245186 0.058199197 0.3159385 0.0 -0.26605347
-0.13302673 0.46559358 -0.9395013 0.049885027 0.20785427 -0.3076243 -0.049885027 0.21616845
-0.099770054 0.29931015 -0.033256683 0.34088102 0.17459759 0.008314171 0.53210694 0.34088102
-0.058199197 -0.34088102 -0.06651337 -0.39908022 0.008314171 -0.34088102 0.28268182 0.09145588
-0.14965507 0.016628342 -0.16628341 -0.3159385 -0.099770054 -0.17459759 -0.40739438 -0.041570853
0.09145588 0.38245186 -0.18291175 0.18291175 -0.21616845 -0.07482754 -0.18291175 -0.08314171
0.14134091 0.3658235 -0.124712564 -0.06651337 -0.2577393 -0.5154786 0.5404211 -0.16628341
-0.041570853 0.29931015 -0.75658953 -0.38245186 -0.34919518 0.2577393 -0.44896522 0.15796925
-0.41570854 -0.44065106 0.52379274 0.049885027 0.06651337 -0.20785427 0.9395013 0.22448261
0.21616845 -0.20785427 -0.28268182 -0.34088102 -0.4323369 0.33256683 -0.38245186 0.3076243
0.06651337 -0.49885026 0.44065106 0.08314171 -0.6069345 0.3658235 0.49885026 0.124712564
-0.26605347 0.3076243 -0.41570854 0.13302673 0.33256683 -0.24942513 0.14134091 -0.290996
-0.06651337 0.3076243 0.2577393 -0.058199197 0.34919518 -0.34919518 0.23279679 -0.2577393
0.041570853 -0.290996 -0.116398394 -0.22448261 0.3658235 0.41570854 -0.26605347 0.049885027
0.3159385 0.46559358 0.46559358 -0.3159385 -0.6235628 0.22448261 0.2577393 -0.40739438
0.041570853 0.33256683 0.290996 0.2577393 0.24942513 0.26605347 0.39908022 -0.19122593
0.4240227 -0.4240227 -0.66513366 0.016628342 0.07482754 0.14965507 -0.19954011 0.2577393
0.041570853 0.28268182 -0.008314171 0.08314171 -0.34919518 0.08314171 0.099770054 -0.35750934
-0.4240227 -0.19122593 0.058199197 -0.46559358 -0.13302673 -0.033256683 -0.049885027 0.108084224
-0.19122593 0.4240227 -0.90624464 -0.20785427 0.38245186 0.108084224 -0.5154786 0.041570853
-0.23279679 0.016628342 0.5404211 0.2577393 -0.2577393 -0.5154786 0.9478155 -0.23279679
-0.34088102 0.23279679 -0.14134091 0.13302673 0.4240227 0.24111095 0.28268182 0.13302673
-0.28268182 -0.058199197 -0.033256683 -0.18291175 -0.09145588 -0.29931015 0.21616845 0.23279679

sequential/dense_2/MatMul;StatefulPartitionedCall/sequential/dense_2/MatMul i1 [1, 16] scale=0.0074917264 zero_point=0
00000000: 6c54 b8e9 0d93 cd41 6896 f881 4a50 6aea
0.80910647 0.629305 -0.5394043 -0.17230971 0.09739244 -0.8165982 -0.38207805 0.48696223
0.7791395 -0.794123 -0.05993381 -0.9514493 0.55438775 0.5993381 0.794123 -0.16481799
