scripts/models/model_no_quant.tflite (tflite, 3012 bytes, 5 tensors)

unknown_0 f4 [16]
00000000: 0000 0000 3b37 f13e db78 84bf 0000 0000
00000010: 0000 0000 b983 933c 3363 1bbf 0000 0000
00000020: e46b cfbe f6ca ab3e d370 483f 4ba8 073e
00000030: b7c4 ab3d afb6 1bbe 3ebd bd3e 0000 0000
0.0 0.4711245 -1.0349382 0.0 0.0 0.018007146 -0.6069824 0.0
-0.40512002 0.33553284 0.78297156 0.13247792 0.0838713 -0.15206407 0.37058443 0.0

unknown_2 f4 [16]
00000000: 900d 873e 7ebb e8be f257 d93e 4491 8a3e
00000010: b8fe a5bb 5d40 aa3e 0000 0000 0745 623e
00000020: 6edd 0c3f c04c e83e e163 163e e56a ec3e
00000030: 4e02 a4be 54f0 183e 3ad4 023f 7a8c 773e
0.26377535 -0.45455545 0.4244991 0.27063954 -0.005065765 0.3325223 0.0 0.22096644
0.55025375 0.45371056 0.14686538 0.46175304 -0.32033008 0.14935428 0.5110508 0.24174681

sequential/dense/MatMul;StatefulPartitionedCall/sequential/dense/MatMul f4 [16, 1]
00000000: 6eb7 cbbe 7c1d ec3e 453e be3e 5046 9fbd
00000010: 7c25 7dbe 9ab7 063e 83b1 1c3f 98ed 9dbd
00000020: 69c4 9d3e e761 c33d 4359 8d3d a546 133e
00000030: 9e05 023f c48c 403e 0d3c bcbb 4e2f 10bf
-0.39788383 0.46116245 0.37156883 -0.07777083 -0.2472133 0.13155976 0.6120836 -0.07711333
0.30813912 0.09540158 0.06901791 0.14382418 0.5078982 0.18803698 -0.0057444633 -0.5632218

sequential/dense_1/MatMul;StatefulPartitionedCall/sequential/dense_1/MatMul f4 [16, 16]
00000000: 8068 0f3c a1c1 cd3d 4735 0fbf 24ec c5be
00000010: c0a8 d63c ce05 c33e f6ec 8cbe 7652 6a3e
00000020: 8829 0bbf 4611 9e3e 5dad 563e ece9 98be
00000030: 721d 2b3e 1f5a a63d 86f8 fc3e 49c7 883e
00000040: 704e 48bd 1bc1 6b3e b927 873f d06f 07be
00000050: cdce bc3e 37a1 f3be 8473 723c 7e7b 4a3e
00000060: 7419 103e eb2b cb3d 72cc 92be 7327 97be
00000070: 98d7 653e a386 1fbe 9cb7 e4be 4e7f 89be
00000080: 403a a2bd 1227 7dbd a97c 4e3e 68b4 083d
00000090: 773e d33e 29a8 c03e a8fe f2be f895 5dbd
000000a0: ed3a cbbd 512a 303e 3aed d83e 4438 e2bd
000000b0: 5a64 23bf b60f 943d ef39 273f 0090 93bb
000000c0: a15f da3e 3ba9 123e 6638 85bd 02d7 723e
000000d0: 44f2 c4bd 13e8 45bc 947e 1fbd e6c2 04be
000000e0: 4a51 a5bd 04e8 3d3e 2540 113f b974 b53e
000000f0: 23be d03e 60be 973e dcef 6b3e 8a41 cebe
00000100: 224f 273e bebd 36be 5f50 d63e 682e 083d
00000110: a08d a0bd 7b89 7bbe 2d50 d2be e000 42bc
00000120: e618 903d aecc 6c3c e4fe c2bd 2ce2 c4be
00000130: efda 733d 4556 a33e 004b eeba d544 86be
00000140: bcb3 08be 21fd ef3e ea53 70bf 38c8 483d
00000150: 0a8b 553e 0a6f 9bbe e6ea 44bd 9a43 613e
00000160: 5b99 cabd 25ba 973e 3a81 f6bc 2ab3 ac3e
00000170: c0f9 303e 3bb4 323c 318d 073f 9f09 b03e
00000180: 28c9 62bd 800b adbe 0802 83bd 99ad cdbe
00000190: 809e 3d3c dfe4 adbe b381 913e 245b b63d
000001a0: 748f 17be 5019 8f3c 38c4 2bbe a4ea a1be
000001b0: d403 ccbd ca7f 30be d95a d1be 20b0 2dbd
000001c0: 6c3e b33d 284e c53e a1bf 37be 5af5 3e3e
000001d0: 418d 59be e9ba 98bd 8463 3cbe 0cee adbd
000001e0: 8bca 0c3e a3c0 b93e 33ce 01be 2cc2 8ebd
000001f0: 4d8d 85be 2860 04bf b368 0a3f 62dc 29be
00000200: 38dd 19bd 7668 983e b38f 42bf 2298 c4be
00000210: 7f60 b3be 20f3 823e bc7a e6be 2a6d 203e
00000220: bf8e d6be 07ed e2be 29d3 053f bbb2 543d
00000230: eedb 853d 5ecc 51be b17f 703f f218 643e
00000240: 5618 603e e9a9 56be 1985 91be 18ad adbe
00000250: a004 dcbe a7a5 aa3e 61d5 c5be 0373 9d3e
00000260: ebc3 893d d2ae fdbe 5e93 df3e c12f a63d
00000270: c4da 1bbf 0d3e bb3e 05f4 ff3e b6ce 033e
00000280: f657 8abe af6c 9c3e 5ff2 d5be 8e05 0c3e
00000290: d500 aa3e 84b4 7ebe c4b3 133e a5ac 95be
000002a0: 046f 86bd b8be 9b3e 6007 823e ba67 7ebd
000002b0: 0f4c b23e e96c b3be 26cb 6a3e 85d5 85be
000002c0: e0f3 2c3d 2fa3 94be c43c e9bd ab17 69be
000002d0: b5a4 bb3e d344 d63e 3736 89be e872 583d
000002e0: 9647 a03e 0dce ef3e bbbc ee3e fd39 a2be
000002f0: f43c 1fbf d43f 643e fbe7 833e 9984 d2be
00000300: a083 2d3d 2695 a83e c8c9 953e 7dfb 843e
00000310: 5f82 813e 521c 883e 4365 ca3e d6c0 3fbe
00000320: b80d db3e 1b77 d7be 2c7d 29bf c941 a43c
00000330: e4ff 943d 1832 153e 8b1d 50be d1e7 853e
00000340: 30af 2f3d ea20 923e 5cdd 36bc dc29 a63d
00000350: 4c65 b3be 1a34 b03d ce57 cd3d 3be7 b8be
00000360: 2e05 d8be 068e 45be 12ad 753d 9e36 edbe
00000370: 38ae 0abe b8d8 febc 7687 44bd 24aa e33d
00000380: 0b31 43be 8268 da3e 4217 67bf b9b9 52be
00000390: 7b41 c53e b738 e03d 5bab 03bf 40ed 363d
000003a0: 4688 6fbe 4e8f 643c cf17 0a3f d54a 833e
000003b0: b328 84be a57f 04bf 14e0 713f 3471 6bbe
000003c0: 0264 adbe 6c77 6f3e 7039 11be 863d 053e
000003d0: 572a d93e ce30 783e 4640 903e 1229 073e
000003e0: d72b 92be 9c98 63bd 3714 0dbd a9eb 3cbe
000003f0: 67d8 bebd 3c38 99be 6f73 603e 9ed8 6a3e
0.008752942 0.100466974 -0.5594067 -0.38656723 0.026203513 0.38090366 -0.27524537 0.22883019
-0.54360247 0.30872554 0.2096457 -0.29865968 0.16710451 0.08122658 0.49408358 0.26714543
-0.04890293 0.23022883 1.0558997 -0.13226247 0.36876526 -0.47583935 0.014798049 0.19773671
0.1407221 0.09920486 -0.28671604 -0.29522285 0.22445524 -0.15578704 -0.44671333 -0.26854938
-0.079212666 -0.06180484 0.20164742 0.033375174 0.41258594 0.37628296 -0.47459912 -0.0540981
-0.099233486 0.17203642 0.4236849 -0.11045888 -0.63825 0.07229559 0.65322775 -0.00450325
0.42651084 0.14322369 -0.06504898 0.23714831 -0.09616521 -0.012079257 -0.038939074 -0.12964973
-0.08072145 0.18545538 0.567385 0.35440615 0.40770063 0.29637432 0.23040718 -0.40284377
0.1633878 -0.17845818 0.41858193 0.03324738 -0.07839513 -0.24564163 -0.41076794 -0.011841029
0.07035999 0.014453096 -0.09521273 -0.38453805 0.059534963 0.31901756 -0.0018180311 -0.2622439
-0.13349813 0.4687281 -0.9387804 0.04901907 0.2085382 -0.30358154 -0.04807558 0.21998444
-0.098925315 0.29634205 -0.030090917 0.3373044 0.17282772 0.010907228 0.52949816 0.3438234
-0.05536762 -0.33797836 -0.06396872 -0.40171507 0.011573434 -0.33963677 0.28419265 0.089041024
-0.14800817 0.017468125 -0.1677407 -0.3162433 -0.09961668 -0.17236248 -0.40889624 -0.042404294
0.087521404 0.3853619 -0.17944194 0.18648282 -0.2124529 -0.07457525 -0.18397337 -0.084926695
0.13749139 0.36279783 -0.12676315 -0.06970629 -0.26084366 -0.5170922 0.5406601 -0.16587976
-0.037564486 0.29767197 -0.7600052 -0.38397318 -0.35034558 0.25576115 -0.45015514 0.15666643
-0.41905782 -0.44321463 0.5227533 0.051928263 0.06536089 -0.20488116 0.9394484 0.22275141
0.21884283 -0.20963253 -0.28421858 -0.33921123 -0.4297228 0.33329508 -0.38639358 0.3075181
0.067268215 -0.4954744 0.4366712 0.08114577 -0.60880685 0.36570778 0.4999086 0.12871823
-0.27020234 0.3055167 -0.41786477 0.13673994 0.3320376 -0.24873549 0.14424044 -0.2923328
-0.06564143 0.30418944 0.25396252 -0.06211064 0.34823653 -0.3504403 0.22929057 -0.26139465
0.042224765 -0.2903075 -0.11388543 -0.22762935 0.366491 0.41849384 -0.26799175 0.05284396
0.31304616 0.46836892 0.46628365 -0.31684867 -0.6220238 0.22289973 0.25762925 -0.4111679
0.042361856 0.3292629 0.2925551 0.2597312 0.25294778 0.26584107 0.39530382 -0.18725905
0.42783904 -0.42083058 -0.6620662 0.0200509 0.0727537 0.1456989 -0.2032377 0.26153424
0.04289168 0.28540736 -0.011161175 0.08113453 -0.3503822 0.086036876 0.10026513 -0.36113915
-0.42191452 -0.19292459 0.059979506 -0.46330732 -0.13543022 -0.031109199 -0.047980748 0.11116436
-0.19061677 0.42657858 -0.90269864 -0.2057866 0.3852652 0.109483175 -0.5143334 0.044659853
-0.23391828 0.013950182 0.5394258 0.2564303 -0.258123 -0.5175727 0.9448254 -0.22992402
-0.33865362 0.233854 -0.14182067 0.1301175 0.42415115 0.24237368 0.28174037 0.13199261
-0.28549072 -0.05556546 -0.034443107 -0.18449272 -0.09318619 -0.29925716 0.21919034 0.22934195

sequential/dense_2/MatMul;StatefulPartitionedCall/sequential/dense_2/MatMul f4 [1, 16]
00000000: 90cb 4f3f 6a3e 203f 80a7 0abf f8a2 33be
00000010: 6aad c03d 5c73 51bf 881c c4be 0e89 f93e
00000020: 781d 483f e2cc 4bbf 4e41 79bd 2e92 73bf
00000030: ca4d 0e3f 6156 193f fdce 4b3f f155 27be
0.81169987 0.62595236 -0.54161835 -0.17542636 0.09408076 -0.8181665 -0.38303018 0.48737377
0.78169966 -0.796095 -0.060853295 -0.9514493 0.55587447 0.5989743 0.79612714 -0.16341378
