scripts/models/simulation_capture_18s_20x_1,5x1m_simulation_18s_16_model_no_quant.tflite (tflite, 4636 bytes, 5 tensors)

dense_2/bias f4 [5]
0	0xbf8f1100	-1.1177063
1	0x3f4196d3	0.75620764
2	0xbf59eb15	-0.8512433
3	0x3d8924ea	0.06696494
4	0x3f92a8e6	1.1457794

sequential/dense/MatMul f4 [18, 18]
0	0xbe98fd6d	-0.2988085
1	0x3ec542c5	0.38527504
2	0xbd8d9c91	-0.06914628
3	0x3e0c9f2e	0.13732597
4	0x3e877803	0.2645875
5	0xbe1091d0	-0.14118123
6	0xbe4ba274	-0.1988619
7	0xbe1cd247	-0.1531459
8	0x3eb4e179	0.35328272
9	0xbe4e94ba	-0.20173922
10	0xbe0cda49	-0.13755144
11	0x3d69d2ef	0.057085928
12	0xbe89a6f5	-0.2688519
13	0xbdfd620b	-0.12372216
14	0xbd3d9476	-0.04628416
15	0x3ef6c7a4	0.4819919
16	0xbdcfbb51	-0.1014315
17	0x3f021cc4	0.5082514
18	0x3e3e9040	0.18609715
19	0x3d9d3353	0.07675805
20	0x3de72f81	0.112883575
21	0xbdd8b10a	-0.105806425
22	0x3e9b6155	0.30347696
23	0xbee672eb	-0.4500955
24	0xbdbd6273	-0.09247293
25	0x3c760320	0.0150153935
26	0xbf2121f5	-0.6294244
27	0xbdec73d4	-0.1154553
28	0xbe63569a	-0.22201005
29	0x3e2e5cc0	0.17027569
30	0xbda81828	-0.082077324
31	0x3ec05341	0.37563518
32	0xbe1cac47	-0.15300094
33	0xbe868c4a	-0.26278907
34	0xbf084bc2	-0.532406
35	0xbe753136	-0.23944554
36	0x3e53cace	0.20682833
37	0x3f1a1b3b	0.601978
38	0x3e9f72aa	0.3114217
39	0xbed264af	-0.4109244
40	0x3e64e0b1	0.22351338
41	0xbeb5a16b	-0.35474715
42	0x3d88cbe1	0.06679512
43	0x3e2e2785	0.17007263
44	0x3d21dd07	0.03951743
45	0xbeba4f6a	-0.36388713
46	0x3eefedbe	0.4686107
47	0x3eaac313	0.33351955
48	0xbd332b3e	-0.04374241
49	0xbb39ad01	-0.0028331878
50	0x3e2f5bb1	0.17124821
51	0x3d64ac7c	0.055828556
52	0x3ec056f7	0.3756635
53	0xbeda4ae1	-0.42635253
54	0xbe54b106	-0.20770654
55	0xbf01ae99	-0.5065704
56	0x3e869ed7	0.2629306
57	0x3ea7c0ed	0.32764378
58	0x3e8d9cb5	0.2765862
59	0xbeb367e6	-0.35040206
60	0x3d7f43b5	0.06232043
61	0xbd982555	-0.074289955
62	0x3e8433eb	0.2582086
63	0x3ecf4bdf	0.40487573
64	0xbe9f9cab	-0.31174216
65	0x3ea0a919	0.3137901
66	0x3ef041ad	0.46925107
67	0x3d0736cd	0.033011246
68	0xbe97ce29	-0.29649475
69	0xbe6a9eee	-0.2291219
70	0x3ea747a4	0.32671845
71	0x3e6e456f	0.23268674
72	0x3dd9e1b7	0.10638755
73	0xbec1f3c1	-0.37881282
74	0xbee4cf2a	-0.44689304
75	0xbee497e1	-0.44647124
76	0xbe8012a6	-0.25014228
77	0xbe74a49b	-0.23890917
78	0x3db79e3c	0.08965728
79	0x3df489f0	0.11940372
80	0x3e16c614	0.14723998
81	0xbe49ca9c	-0.19706196
82	0x3d8d0bcc	0.06887016
83	0xbe83bd3a	-0.25730306
84	0xbd8793af	-0.06619965
85	0xbd801a7a	-0.0625505
86	0xbdfaa6bd	-0.12238834
87	0x3dd46b93	0.10372081
88	0x3d02dd66	0.031949423
89	0xbe362ea0	-0.17791224
90	0x3e67504d	0.22589226
91	0xbf04c544	-0.51863503
92	0xbec28d25	-0.3799831
93	0x3e7d902d	0.2476203
94	0x3e799b36	0.24375615
95	0x3e5f34c5	0.21797474
96	0x3dd4b332	0.10385741
97	0x3e4be2cb	0.19910733
98	0xbea22c3a	-0.31674367
99	0xbdc5ed26	-0.09664373
100	0xbe29545b	-0.16536085
101	0x3d8cd7dd	0.0687711
102	0xbe99efce	-0.3006577
103	0xbee74d3f	-0.45176122
104	0x3e345c39	0.17613305
105	0xbe87e501	-0.26541904
106	0xbeb0a9d4	-0.3450457
107	0xbe40c335	-0.18824466
108	0x3d9109cc	0.07081947
109	0xbf272611	-0.6529246
110	0x3e464027	0.1936041
111	0xbb3402da	-0.002746752
112	0x3e8686fe	0.26274866
113	0xbe32d3b8	-0.17463577
114	0xbe91a7fb	-0.2844847
115	0x3eb9056f	0.36136958
116	0x3e851d6c	0.2599901
117	0x3dbdd2b8	0.09268707
118	0xbf54fd4c	-0.83199
119	0xbbf4da1f	-0.007472291
120	0xbf1ed782	-0.6204759
121	0x3ec13c2e	0.37741226
122	0x3e81a2c1	0.25319484
123	0xbec71ec7	-0.3889067
124	0x3f1450a8	0.5793557
125	0xbd7bc4fd	-0.06146716
126	0xbd05a472	-0.03262753
127	0x3ee785f7	0.45219395
128	0xbf0baa9e	-0.54557216
129	0x3f196684	0.5992205
130	0xbdcf4cc4	-0.10122064
131	0x3c6e90a7	0.014560855
132	0x3ed127fd	0.4085082
133	0xbe6954dd	-0.22786279
134	0xbf060198	-0.5234618
135	0xbd2e5e80	-0.04257059
136	0xbd672ead	-0.056440998
137	0xbe3e987c	-0.18612856
138	0x3e878f24	0.26476395
139	0x3c9b09d6	0.018925589
140	0xbef0ca94	-0.47029555
141	0xbe8fcad4	-0.28084433
142	0xbf189847	-0.59607357
143	0x3de675d3	0.11252942
144	0x3e87848d	0.26468316
145	0xbda68190	-0.08130181
146	0x3dedf3cf	0.116187684
147	0xbe05cb70	-0.13065886
148	0xbee7a9a5	-0.45246616
149	0xbd89028a	-0.066899374
150	0xbe377086	-0.17914018
151	0x3e0ce408	0.13758862
152	0xbe5f0a6a	-0.21781316
153	0x3ed930a5	0.42419925
154	0xbea971d3	-0.33094653
155	0xbdf384ff	-0.11890601
156	0x3f18edd6	0.5973791
157	0x3daca5a1	0.08430029
158	0x3ec0d243	0.37660417
159	0x3ee10d2c	0.43955362
160	0xbdb3b9a5	-0.08775643
161	0xbcde0b0f	-0.027104883
162	0x3efeb889	0.49750164
163	0x3e948d33	0.29013976
164	0xbed7df48	-0.42162538
165	0xbed03b7a	-0.40670377
166	0x3e2c36f7	0.16817842
167	0xbe6e9eaf	-0.2330272
168	0x3c8418e5	0.016125152
169	0xbeee6493	-0.46561107
170	0x3e943b91	0.28951696
171	0xbeddb5e1	-0.43302825
172	0x3ef7e811	0.4841924
173	0xbeed1b47	-0.46309873
174	0x3eb42e53	0.35191593
175	0xbf020570	-0.50789547
176	0x3bf18640	0.00737074
177	0x3ddf1a83	0.108937286
178	0xbeacf213	-0.33778438
179	0xbed5e1ec	-0.41773927
180	0x3e1f0d07	0.15532313
181	0x3e99ce94	0.3004042
182	0x3e01d650	0.1267941
183	0x3e18578e	0.1487715
184	0xbd67ffd4	-0.05664046
185	0xbd82cec8	-0.06387097
186	0xbdbdb552	-0.092631
187	0xbd9ab604	-0.07554248
188	0xbd81dba7	-0.063407235
189	0xbd7154a4	-0.05891861
190	0xbdfbce0f	-0.12295162
191	0x3da2bb8c	0.07945928
192	0xbecb2a0f	-0.39680526
193	0x3e6642d1	0.22486426
194	0xbee26fa8	-0.44225812
195	0xbe5c16d6	-0.21493086
196	0xbee1f549	-0.4413245
197	0xbebe7f54	-0.3720652
198	0x3cb54c66	0.022131156
199	0x3d987063	0.07443311
200	0x3e154c5e	0.14579913
201	0xbe65275a	-0.22378293
202	0x3eac3615	0.3363501
203	0xbd222b13	-0.03959186
204	0xbe381911	-0.17978312
205	0x3eac1d6e	0.33616203
206	0x3ef133df	0.47109887
207	0x3e9a73c6	0.30166453
208	0xbe98e3a5	-0.2986118
209	0xbe3615fb	-0.17781822
210	0x3e65a4cc	0.22426146
211	0xbea9f87b	-0.33197388
212	0x3e55ecd1	0.2089112
213	0xbe6ed604	-0.23323828
214	0x3eee347e	0.46524423
215	0xbce9e7e8	-0.028552964
216	0x3e35d752	0.1775792
217	0x3eba7999	0.36420897
218	0x3e94dfcf	0.29077002
219	0xbea775d6	-0.3270709
220	0x3ea8606f	0.32886073
221	0x3e05af25	0.13055094
222	0xbec84107	-0.39112112
223	0x3cc9e66a	0.024646003
224	0x3ea5672c	0.32305276
225	0x3d8afd8f	0.06786644
226	0xbe8fc9e9	-0.28083733
227	0xbd40c738	-0.04706499
228	0xbe90e6ff	-0.28301236
229	0x3e8774cc	0.26456296
230	0x3dab2679	0.083569475
231	0xbeba9eb2	-0.364492
232	0x3ee1ff37	0.44140026
233	0xbe9f9701	-0.31169894
234	0x3c82094c	0.015873574
235	0x3deec63a	0.116589025
236	0x3dd9783e	0.106186375
237	0xbbbddeea	-0.0057943957
238	0xbe16b10a	-0.14715973
239	0x3ec10378	0.3769796
240	0xbddb5345	-0.10709242
241	0xbd7cb5bb	-0.06169675
242	0x3e812899	0.25226286
243	0xbe34da11	-0.1766131
244	0x3ee12f97	0.4398162
245	0x3e9f5aa8	0.31123853
246	0xbd140eed	-0.036147047
247	0x3d5ba4d7	0.053624
248	0xbe0b405f	-0.13598774
249	0x3eda6f42	0.42663008
250	0xbeb1560e	-0.34635967
251	0x3e9d2a74	0.30696452
252	0xbdb16628	-0.08662063
253	0xbefeb84a	-0.49749976
254	0xbda9e7e5	-0.082961835
255	0x3e382c1d	0.17985578

sequential/dense_1/MatMul f4 [16, 18]
0	0x3bab7ab6	0.005233134
1	0x3e0453d2	0.129226
2	0xbea0d9c1	-0.31416133
3	0xbec1f90f	-0.3788533
4	0x3d34714f	0.044053372
5	0x3ebfbff3	0.37451133
6	0xbe1e3d27	-0.15453015
7	0x3e791fc0	0.24328518
8	0xbeceb2e2	-0.40370852
9	0x3ebca0c9	0.3684142
10	0x3e145132	0.14484099
11	0xbe6dc92f	-0.23221277
12	0x3e4a9461	0.19783165
13	0x3e3e9963	0.186132
14	0x3e8b9093	0.2725874
15	0x3e8a4e99	0.2701309
16	0xbeae08ff	-0.33991238
17	0xbd927286	-0.0715075
18	0xbd100baf	-0.035167392
19	0x3eb1ef75	0.34753004
20	0x3ea5ba36	0.3236863
21	0xbe184fbb	-0.14874165
22	0x3eb6201a	0.35571367
23	0xbec23d04	-0.37937176
24	0xbd92540b	-0.07144936
25	0x3e5b6e5f	0.21428822
26	0xbc6f173b	-0.014592941
27	0x3e76984e	0.24081537
28	0x3dfc1df1	0.12310398
29	0xbe861ca4	-0.26193726
30	0x3e771fcb	0.24133222
31	0xbea38e95	-0.3194472
32	0x3ec5c08d	0.38623467
33	0xbe84a683	-0.25908288
34	0xbeca1ff8	-0.39477515
35	0x3ea8f513	0.32999477
36	0xbdf8e258	-0.12152547
37	0xbd6e50ce	-0.05818253
38	0x3eae1754	0.34002173
39	0xbe09ca47	-0.13456069
40	0x3ed088e9	0.40729454
41	0x3e59d404	0.21272284
42	0xbe189ba9	-0.1490313
43	0xbe4697a7	-0.19393788
44	0x3cfa1821	0.030529084
45	0x3f1be8db	0.60902184
46	0xbd78ec20	-0.06077206
47	0x3e040ec7	0.12896262
48	0xbe14851a	-0.14503899
49	0xbdbd480c	-0.092422575
50	0x3d93a200	0.072086334
51	0xbe5e1d10	-0.21690774
52	0x3f2d6515	0.67732364
53	0xbe8a982a	-0.27069217
54	0x3eacdcee	0.33762306
55	0xbd0fd551	-0.035115544
56	0x3f0b2bd7	0.5436377
57	0x3da6c76d	0.08143506
58	0xbe394b7c	-0.18095201
59	0xbc6e616d	-0.014549595
60	0x3dbaebeb	0.09127029
61	0xbe93d1ac	-0.28870904
62	0xbdbf72c4	-0.09348062
63	0xbb336bd9	-0.0027377515
64	0x3df1fcd1	0.11815799
65	0x3f0a1b9c	0.5394838
66	0x3f0cf101	0.5505524
67	0x3ea5461b	0.3228005
68	0xbeb136e1	-0.34612182
69	0xbf01e6f4	-0.5074303
70	0x3ebc5105	0.36780563
71	0xbd9b5adb	-0.07585689
72	0x3e4d2bbe	0.20036218
73	0xbdfddd93	-0.123957776
74	0x3e6e0338	0.23243415
75	0xbd8d34af	-0.06894814
76	0xbdba4ff2	-0.090972796
77	0xbe2a46ff	-0.16628645
78	0xbf1de8a2	-0.61683095
79	0x3e4f359f	0.20235299
80	0x3d5f3096	0.054489695
81	0x3e56dbf6	0.20982346
82	0x3c33973c	0.01096135
83	0xbee5ef80	-0.44909286
84	0x398c9540	0.0002681408
85	0x3ec3d739	0.3825014
86	0x3db7b54f	0.08970129
87	0xbe86a9ff	-0.26301572
88	0x3ea1eb11	0.31624654
89	0xbee5179c	-0.44744575
90	0xbdd05546	-0.101725146
91	0x3ec464d5	0.3835818
92	0xbec6ec23	-0.38852033
93	0x3ccdf509	0.025141256
94	0x3e6e053e	0.23244187
95	0xbeaa2d01	-0.3323746
96	0xbbc8c0b0	-0.0061264858
97	0x3e98d193	0.29847392
98	0x3d4f7e93	0.05065782
99	0x3e809c72	0.25119358
100	0xbe8ee20f	-0.27906844
101	0x3e640956	0.22269186
102	0x3df35deb	0.11883148
103	0x3dc19f14	0.0945417
104	0xbd4ba4a2	-0.049717553
105	0x3eae9209	0.3409579
106	0x3e9e19da	0.30879098
107	0x3e050dc7	0.12993537
108	0xbe03546f	-0.12825178
109	0xbe9f3f31	-0.311029
110	0xbe14109d	-0.14459462
111	0xbeb64d4b	-0.35605845
112	0x3d9fb493	0.07798114
113	0xbeba616a	-0.36402446
114	0x3f3e4f44	0.743397
115	0xbe19c966	-0.15018234
116	0xbe2cabb3	-0.16862373
117	0xbcd826a4	-0.026385613
118	0xbd52cbda	-0.05146394
119	0xbe119c1c	-0.14219707
120	0x3e5998fd	0.21249767
121	0xbeb2c859	-0.34918478
122	0xbed0de68	-0.40794683
123	0xbda9489e	-0.08265804
124	0xbeb2fb41	-0.34957317
125	0x3ed303af	0.41213748
126	0x3deb04a2	0.11475493
127	0x3ea36383	0.3191186
128	0x3d3e8253	0.046511006
129	0x3e896803	0.26837167
130	0xbe50665d	-0.20351548
131	0xbe4106f3	-0.18850307
132	0xbe2f22fe	-0.17103192
133	0xbd3d7b32	-0.046260066
134	0x3e9dc8b7	0.30817196
135	0x3ee28cfb	0.44248185
136	0xbe5805dd	-0.21095987
137	0x3c30347d	0.010754702
138	0xbe82b5e2	-0.2552939
139	0xbec83b3d	-0.39107695
140	0x3e97c332	0.2964111
141	0xbe13fc52	-0.14451721
142	0xbe78f78f	-0.24313186
143	0xbded97d4	-0.116012245
144	0x3c96399a	0.018338013
145	0x3e08870e	0.1333277
146	0xbe785ca8	-0.24254096
147	0xbea1985f	-0.31561562
148	0xbea1b85b	-0.31585965
149	0x3e87bbca	0.2651046
150	0xbe8bfa1c	-0.27339256
151	0x3dd23c1a	0.1026537
152	0xbdad3b6e	-0.08458601
153	0xbea9c01c	-0.3315438
154	0x3e4345cf	0.19069599
155	0x3e35ea54	0.1776517
156	0xbd63b30e	-0.05559068
157	0x3b5bca0c	0.0033537177
158	0x3ed2a824	0.41143906
159	0x3d52c9a0	0.051461816
160	0xbd4a47fa	-0.04938505
161	0xbecc14f8	-0.39859748
162	0x3db640bc	0.08899066
163	0xbe9f5e6d	-0.3112673
164	0xbeaa34b6	-0.3324334
165	0xbe848f5a	-0.2589062
166	0xbee8f11a	-0.45496446
167	0xbe383551	-0.17989089
168	0xbf12f7ca	-0.57409346
169	0x3d39ae78	0.045332402
170	0x3f16ba0d	0.5887764
171	0xbf2fea42	-0.68716824
172	0xbd30f52f	-0.043202575
173	0x3ee2eae1	0.44319823
174	0xbea86578	-0.32889915
175	0x3e3d7005	0.18499763
176	0xbde79c98	-0.11309165
177	0x3e0e269a	0.13881913
178	0x3e6cd734	0.23128968
179	0x3e0c7db5	0.13719828
180	0xbebd6736	-0.36992806
181	0x3e0ec372	0.13941744
182	0x3e1561e8	0.1458813
183	0x3dd40341	0.10352183
184	0x3e68419b	0.22681277
185	0xbe8622bd	-0.26198378
186	0x3e91f3dc	0.28506362
187	0xbf15f478	-0.58576155
188	0x3cb69746	0.02228893
189	0xbdc7505d	-0.09732125
190	0xbd6ae984	-0.057351604
191	0x3e5d7876	0.21627983
192	0x3f000a4f	0.5001573
193	0xbe8cfa83	-0.27534875
194	0xbe43c4d0	-0.19118047
195	0xbe96e9f6	-0.29475373
196	0x3ec6b195	0.3880736
197	0xbdc222e3	-0.0947931
198	0xbdc169bb	-0.094439946
199	0xbed50737	-0.41607067
200	0xbe752100	-0.2393837
201	0xbf0ba62c	-0.54550433
202	0x3ea9b41c	0.33145225
203	0x3ea9e38b	0.33181414
204	0xbf1a340d	-0.60235673
205	0x3e538270	0.20655227
206	0x3e85fe35	0.26170507
207	0x3f28797d	0.65810376
208	0xbde28af8	-0.110616624
209	0xbe8f2eb3	-0.27965316
210	0xbee66ed9	-0.45006445
211	0xbe1ffc69	-0.1562363
212	0xbe3aa22f	-0.1822593
213	0xbf362d96	-0.7116331
214	0x3eb19267	0.3468201
215	0xbe112199	-0.14172973
216	0xbdd9bf2f	-0.106321685
217	0x3ec453e1	0.38345245
218	0xbf14a92a	-0.58070624
219	0x3ebdb8d2	0.3705507
220	0x3edd93e5	0.43276897
221	0x3f1f66d9	0.6226631
222	0x3f337894	0.7010586
223	0xbefbb2bf	-0.4915981
224	0x3f0c677e	0.54845417
225	0xbeeb2567	-0.45926973
226	0xbdfa6533	-0.122263335
227	0x3e75ab97	0.23991238
228	0x3dc2a25d	0.095036246
229	0xbe744727	-0.23855267
230	0x3f424b5f	0.7589626
231	0x3e336d05	0.17522056
232	0xbed65563	-0.4186202
233	0xbeffa4b6	-0.49930352
234	0x3cc891b3	0.024483537
235	0x3e95832e	0.29201645
236	0x3dc653c4	0.09683946
237	0x3cb1b213	0.021691358
238	0xbe91c300	-0.28469086
239	0x3d817b17	0.06322306
240	0x3ddeb7e4	0.10874918
241	0xbe52f7ac	-0.20602292
242	0xbec162e9	-0.37770775
243	0x3da05b9c	0.07829973
244	0x3d1b68ba	0.037941672
245	0xbef4ad12	-0.47788292
246	0xbdaf0efe	-0.085477814
247	0xbbb7bf51	-0.0056075235
248	0xbe12c805	-0.14334114
249	0x3d530191	0.051515166
250	0xbcd4957f	-0.025950192
251	0xbdd42fb6	-0.10360663
252	0xbe581b9c	-0.21104282
253	0x3f05a339	0.52202183
254	0xbe770bdc	-0.24125618
255	0xbf081b4a	-0.5316664

sequential/dense_2/MatMul f4 [5, 16]
0	0x3eb26a0a	0.34846526
1	0xbef78a85	-0.4834787
2	0xbda6fda9	-0.081538506
3	0xbecf8680	-0.40532303
4	0x3ecfd7dd	0.40594378
5	0xbdf8492a	-0.1212333
6	0x3de2cc4d	0.110741235
7	0x3e4caf4d	0.19988747
8	0x3c8984b2	0.016786907
9	0xbf35b716	-0.7098249
10	0xbe8f69af	-0.28010318
11	0xbf1669d4	-0.5875523
12	0xbf197401	-0.5994263
13	0xbe92292b	-0.28547034
14	0x3efb61d9	0.4909809
15	0xbd6b96cf	-0.05751687
16	0xbdb339e4	-0.08751276
17	0xbea8d7c0	-0.32977104
18	0x3e4e5246	0.20148572
19	0x3d37d915	0.04488476
20	0x3f1c427d	0.61038953
21	0xbe7a8379	-0.24464215
22	0x3f493d37	0.7860903
23	0x3e4e57a7	0.20150624
24	0x3e39fa28	0.18161833
25	0x3f7d2489	0.98883873
26	0x3e3fe442	0.18739417
27	0x3f7fac5d	0.9987238
28	0x3fa4090d	1.2815262
29	0x3d198b42	0.037486322
30	0xbf8836b8	-1.0641699
31	0xbe47f2a1	-0.1952615
32	0x3c49bfb5	0.012313773
33	0x3e5de586	0.21669587
34	0x3e5f0a19	0.21781196
35	0xbf421628	-0.7581506
36	0x3d4451f8	0.047929734
37	0x3eacbff5	0.33740202
38	0x3eea25db	0.45732006
39	0xbddf23ba	-0.10895486
40	0xbe83950e	-0.25699657
41	0xbf95fb98	-1.1717405
42	0xbe2ba703	-0.16762929
43	0x3dbf4b3e	0.09340523
44	0xbef4630f	-0.47731826
45	0x3ebe537e	0.37173074
46	0x3e4349e0	0.1907115
47	0x3cb823a6	0.022477936
48	0xbdf6dcb6	-0.12053816
49	0xbcad9113	-0.02118734
50	0x3f447ebd	0.7675589
51	0x3ed4a14f	0.4152932
52	0x3e7cfc52	0.24705628
53	0xbed335f7	-0.4125211
54	0x3b90e973	0.0044223606
55	0xbf084f20	-0.53245735
56	0x3e802a25	0.25032154
57	0x3cc44548	0.023958817
58	0x3ed2d60a	0.41178924
59	0x3f8ec20f	1.1152972
60	0xbfba4673	-1.4552749
61	0xbe6d9478	-0.23201168
62	0x3eca6bd1	0.39535382
63	0x3eea0e60	0.45714092
64	0x3ea83b4d	0.32857743
65	0xbe27eca0	-0.16398859
66	0xbf04cfb3	-0.51879424
67	0xbf29c4ec	-0.66316104
68	0xbf01cae9	-0.5070024
69	0x3dc273b7	0.09494727
70	0xbeb0b3e6	-0.34512252
71	0xbb9f33d3	-0.004858473
72	0x3f4efa37	0.8085055
73	0x3ebe6bf1	0.37191728
74	0xbf01315c	-0.5046594
75	0xbf621c42	-0.8832437
76	0x3fac35f3	1.3453964
77	0xbebb332d	-0.36562482
78	0xbea0e899	-0.31427458
79	0xbd62ebbd	-0.0554006

sequential/dense_1/MatMul;sequential/dense_1/Relu;sequential/dense_1/BiasAdd f4 [16]
0	0x3f0cfbe3	0.5507185
1	0x3e9ee6c4	0.31035435
2	0x3ee59989	0.448437
3	0xbecde039	-0.4021013
4	0x3da7d57d	0.081950165
5	0xbdee91e0	-0.11648917
6	0xbf1914e1	-0.59797484
7	0x3e84dcfb	0.25949845
8	0x3f8d0839	1.1018134
9	0xbe5269b2	-0.20548132
10	0x3ca9360a	0.02065565
11	0x3f8cd175	1.1001421
12	0x401353cd	2.3019898
13	0xbed74de1	-0.42051604
14	0x3faae817	1.3352078
15	0xbe1841c3	-0.14868836
