scripts/models/simulation_capture_10s_20x_1,5x1m_simulation_10s_16x16x16_model_no_quant.tflite (tflite, 6212 bytes, 9 tensors)

dense_25/bias f4 [5]
000000 c5 54 6c bf 6b f1 24 3f d8 cc 31 bf cd 7a 32 3f
       -0.9231685 0.64430875 -0.6945319 0.6971863
000010 ef 6a 8d 3e
       0.27620646

dense_24/bias f4 [16]
000000 62 e2 00 be af bf 7f 3a 72 e7 e8 bd 48 8c 00 be
       -0.12586358 0.0009756041 -0.1137227 -0.12553513
000010 72 91 4d 3c 5f 36 d6 bc 77 54 02 3e d2 87 c8 3d
       0.012546884 -0.026148973 0.12727533 0.09791531
000020 98 67 92 3e db 21 5b 3e 68 17 ac 3e 56 2c 90 3d
       0.2859466 0.21399634 0.33611608 0.070397064
000030 ac 02 92 3e 98 fb 04 3f cf b4 41 bd 75 13 e3 ba
       0.28517663 0.519464 -0.047291573 -0.0017324524

dense_23/bias f4 [16]
000000 f1 a1 dd bd 2d 8a a2 3d ff 3c 63 3e a3 be 0b 3a
       -0.108219035 0.07936511 0.22191237 0.0005330836
000010 59 47 f7 bd 98 0e e7 3e b3 6e 47 3d b6 8b aa bd
       -0.12074155 0.45128322 0.048689555 -0.08327429
000020 21 1a 1d 3e 93 f2 d9 3e e9 49 5e bb 69 81 7f 3e
       0.15341999 0.42567882 -0.0033918566 0.2495171
000030 d5 09 fc bd d4 e7 70 3e 00 00 00 00 2b da 39 3f
       -0.12306563 0.23525935 0.0 0.7259852

sequential_6/dense_21/MatMul f4 [10, 10]
000000 9d d1 b5 3e 2f 8f 31 bf 4a 1b 32 be 00 12 bf be
       0.35511485 -0.69359106 -0.17393222 -0.3731842
000010 2d 44 12 bf b0 76 4d 3f 54 3f 12 bf bb f2 a3 bf
       -0.5713528 0.8025923 -0.5712788 -1.280845
000020 3b 37 86 3f 79 d7 f9 be ce c4 02 3f 09 c0 3f bf
       1.0485605 -0.48797205 0.5108155 -0.749024
000030 e3 44 39 3c 2a eb 27 bf c3 dd e7 bd 47 ce 89 3c
       0.011307928 -0.65593207 -0.113215946 0.016821994
000040 dc 58 fd 3e ed 77 6e be bf ab 83 be bf d0 fa bd
       0.49481857 -0.23287936 -0.2571697 -0.122468464
000050 03 ce e2 be bf 4a 81 3e 88 61 cf be 46 96 f0 be
       -0.442978 0.2525234 -0.40504098 -0.4698965
000060 a1 15 eb 3e f1 80 7e be c5 4b 5b bc 67 98 c0 be
       0.4591494 -0.24853875 -0.013384764 -0.37616274
000070 08 88 56 bf 94 e0 42 bf 9c 21 32 3e cc e4 2a 3f
       -0.8380132 -0.7612393 0.17395633 0.66755366
000080 33 e2 b3 3e 8f d4 ac be 58 64 42 bf 2a 4b 65 3e
       0.35133514 -0.3375592 -0.7593436 0.22391954
000090 33 1a f7 be ed bc fa bd 66 57 aa 3e fe ff 8e bf
       -0.48262176 -0.12243066 0.33269805 -1.1171873
0000a0 40 4d b0 3e 98 69 b6 3c c8 90 53 3e 9b d8 66 be
       0.34433937 0.022267148 0.20660698 -0.22543566
0000b0 3d 46 ff be 25 17 5b 3e 05 98 d9 3e b0 cc 92 3e
       -0.49858275 0.21395548 0.42498794 0.2867179
0000c0 c5 0a c3 be dd 9a 7b 3e 89 e5 88 3e 97 64 9a 3e
       -0.38094154 0.24570794 0.2673762 0.3015487
0000d0 c9 5e 68 bd 14 e1 68 3e d8 70 33 3f 82 64 8b 3d
       -0.05673102 0.2274211 0.7009406 0.0680628
0000e0 f3 1c 48 bf 7d 38 09 3f 79 dd 86 3f b0 14 18 3f
       -0.78169173 0.5360182 1.0536338 0.59406567
0000f0 c4 4b 57 bc 11 93 03 bf 49 d9 49 bf f5 93 02 3f
       -0.0131406225 -0.5139628 -0.78847176 0.51007015
000100 b0 95 1c 3e dd 2b b2 3e 48 bf 0f 3f 42 3f 6b bd
       0.15291476 0.3479909 0.5615125 -0.057433374
000110 eb 66 48 be 85 68 2b 3e f2 1e 44 bf 16 0d ca be
       -0.1957051 0.1673909 -0.7660972 -0.3946311
000120 fd ed 1e 3f e6 13 63 3e a5 74 8d bc 34 8e ec 3d
       0.6208189 0.2217556 -0.017267535 0.115505606
000130 36 58 16 bf 5f 85 d7 3e 47 b5 5c bf df 99 01 3f
       -0.5872835 0.42093942 -0.8621411 0.50625414
000140 eb ff b6 3f 0b 07 2e 3f b9 cc 7f be fb 32 6a bf
       1.429685 0.67979497 -0.24980439 -0.9148404
000150 da 5a 99 be 06 9e bc be f2 35 c3 3e aa 2c d0 bd
       -0.29952127 -0.36839312 0.38127095 -0.10164769
000160 ea 21 51 3f 50 b1 3b be 37 1b 8e be 40 b4 cb be
       0.81692374 -0.18329358 -0.27755138 -0.39785957
000170 d5 4c 16 3d 31 83 52 bf 42 e9 5f be d8 5e 8d 3e
       0.036694366 -0.8223143 -0.21866325 0.27611423
000180 1e dd 35 bf 1a e8 75 bf d3 47 e5 be d3 b5 9c 3f
       -0.71040523 -0.96057284 -0.4478136 1.2242988

sequential_6/dense_22/MatMul f4 [16, 10]
000000 3c f2 89 be 8e 21 ab 3b fc a6 b0 3e df b6 ef be
       -0.26942623 0.005222506 0.345024 -0.46819207
000010 df 09 6f 3e 48 f8 88 be ee b4 db 3d 71 9e 8e 3e
       0.2334361 -0.26751924 0.10727869 0.27855256
000020 e7 a2 f2 be f1 c9 d7 3e 5e cf 07 bf b5 9f 8d 3d
       -0.4738991 0.42146257 -0.5305079 0.06915227
000030 90 7e 05 3e 93 03 6e be d4 6c c4 be b1 1f fb 3e
       0.13036561 -0.23243551 -0.3836428 0.49047616
000040 9d b8 29 bf 0b 4b 84 3e ca a9 1c 3f dc 84 2e be
       -0.6629732 0.25838503 0.6119658 -0.1704287
000050 1b bf 28 3f 9b ac c7 3e 6c 05 61 bd e2 ac 11 bf
       0.65916604 0.38998875 -0.05493681 -0.56904423
000060 53 12 c3 be cf 98 3a be 41 ec 17 3f 11 9d 93 3c
       -0.38099918 -0.18222354 0.5934487 0.018019231
000070 6f 96 03 be 87 a3 ad be af 68 3b 3f c3 59 bd be
       -0.12850355 -0.33913824 0.7320661 -0.36982545
000080 ca 70 2f 3d d8 da a1 3e e0 dd 4a 3d 3c 1f d6 3e
       0.042832173 0.31612277 0.049528003 0.41820705
000090 26 48 d0 bd ef 72 26 3e dc ad 5d be ff 68 ce 3e
       -0.10170011 0.16254781 -0.21648353 0.4031448
0000a0 ba 8d 46 3e 53 18 ed be 6d 18 34 3e 62 bf 24 3f
       0.19390002 -0.4630762 0.17587443 0.64354527
0000b0 5b 75 46 3e 0b 13 08 be 3a 38 d2 3e 3b d3 21 bf
       0.19380705 -0.13288514 0.41058522 -0.6321294
0000c0 db 5e 44 3e 2e 5d 34 bf 8f a7 7c 3e c3 86 36 be
       0.1917681 -0.7045468 0.24673294 -0.17824845
0000d0 a3 33 46 be 9d e8 c7 3e 5a a7 92 be 30 ac 35 3f
       -0.19355635 0.39044657 -0.28643304 0.7096586
0000e0 d2 ff 0b be af f0 a1 be 38 34 78 3d 16 56 b9 be
       -0.13671806 -0.3162894 0.060596675 -0.3619849
0000f0 02 53 20 3f f6 8c 58 3e a7 56 ae be 03 19 e3 be
       0.6262666 0.21147522 -0.34050485 -0.4435502
000100 29 04 26 3e d5 17 a0 3e 62 2e 1e bb 16 06 16 bf
       0.16212524 0.31268182 -0.0024136533 -0.58603036
000110 e3 89 e5 3e 6a 0c 1b 3f 46 02 47 3f e9 d7 0d 3f
       0.44831762 0.6056582 0.77737844 0.5540758
000120 b0 b3 30 3f 9d 2f 23 3f 49 63 a7 3c db bd 2f bf
       0.6902418 0.6374453 0.020433085 -0.6864907
000130 8b 0d e9 bd 32 87 14 be a9 54 2f 3f 46 42 38 3f
       -0.11379536 -0.14504698 0.68488556 0.71976125
000140 c2 52 49 be 5f 0e e1 bd 64 0f d8 be 5a ed 19 be
       -0.19660476 -0.10989069 -0.42199242 -0.15031949
000150 71 b7 f0 3d 89 87 d6 be 2c 24 e6 3e 0f cf c8 3e
       0.11753739 -0.4190028 0.44949472 0.39220473
000160 bf db 1c 3e da 2e 32 bd 7c d9 2a 3f de b2 96 3d
       0.15318201 -0.043501712 0.66738105 0.07358335
000170 e8 61 2e be 09 3b 89 3e c9 21 c4 be 81 5c 9f be
       -0.17029536 0.26802853 -0.38307026 -0.31125262
000180 4b c0 cc bc 1f dd 4b 3e f6 2d a1 bc d9 2b 80 3e
       -0.024994036 0.1990857 -0.019675236 0.25033453
000190 7c f7 65 3d 0a 1b ac 3c cb f8 23 3f 7f 6f 1d 3f
       0.056144223 0.021008987 0.640515 0.61498255
0001a0 7a 84 99 be e7 17 31 bf f7 28 16 bf 76 9d bc be
       -0.29983884 -0.691771 -0.5865626 -0.36838883
0001b0 4a 1d e1 bd 3e 24 90 be 9c d9 4d bd 90 66 3a 3e
       -0.109919146 -0.2815265 -0.050256357 0.18203187
0001c0 37 0e 04 3f ae 0f 72 3e 3e 4d dd be 07 16 09 be
       0.5158419 0.23638794 -0.43222994 -0.13387309
0001d0 21 3b df 3e 83 9c ae 3e 16 23 bb 3d 1b b6 45 3d
       0.435998 0.34103784 0.091375515 0.048269372
0001e0 b4 89 10 3e 24 c8 0b 3f 16 31 70 3e 30 25 83 be
       0.1411503 0.54602265 0.23456225 -0.2561431
0001f0 d9 06 11 bf 65 b3 07 be a9 9b 5e 3e c4 18 54 be
       -0.56651074 -0.13252027 0.21739067 -0.20712572
000200 b7 68 86 be b9 43 0b bf 68 d4 86 be 6f 93 e8 3e
       -0.26251766 -0.5440021 -0.26333928 0.45424983
000210 6c 33 bf 3e 43 8c 17 3e db f8 d3 3d 45 c0 b3 be
       0.3734392 0.147996 0.103502 -0.35107628
000220 94 1b 08 3e ac d7 d3 be fd 98 3e 3f 7c 7f 0e bf
       0.1329177 -0.41375482 0.7445219 -0.55663276
000230 c1 63 28 bd 05 26 9a 3e e7 3b 9f be 3e ff 29 3e
       -0.041110758 0.30107132 -0.3110039 0.16601273
000240 b0 6d 0b 3f ae f5 92 3d e4 2d 2b be 54 aa 3f be
       0.54464245 0.07175766 -0.16716725 -0.18717319
000250 31 8e a8 3e f7 49 b4 be 2c b9 e7 3e 5c 90 6d be
       0.32920983 -0.3521268 0.45258462 -0.231996
000260 d9 b4 50 3e 17 97 e2 3e b8 8e b2 3e fa b9 77 be
       0.20381488 0.44255897 0.3487451 -0.24192038
000270 b1 56 f4 be 8a d4 be be b3 7f e5 be a3 d5 b6 3e
       -0.4772239 -0.3727153 -0.4482399 0.35709867

sequential_6/dense_23/MatMul f4 [16, 16]
000000 7a ee 61 be 29 24 b0 bd e8 72 c7 be 9d d5 8c bd
       -0.22063628 -0.08600647 -0.38954854 -0.06876681
000010 70 2e 35 3e 6d 1e c6 be bf ea d4 be a3 a6 c8 bd
       0.17693496 -0.38695088 -0.41585347 -0.097974084
000020 8a 7a 3d 3e 73 8a 90 be cf 16 d1 3e e9 82 4f 3e
       0.18503776 -0.28230628 0.40837714 0.20264782
000030 c7 69 9d 3e 2c 66 c9 be 38 e9 5a be b1 6b 19 be
       0.30744764 -0.39335763 -0.21378028 -0.14982487
000040 2a 91 78 bb 6c e0 8f 3d 84 77 93 3d bb 36 1a 3d
       -0.0037928321 0.07025227 0.0720053 0.03764985
000050 a7 d0 ea be 34 d5 f3 3e f7 48 f6 3e 66 9f 99 3f
       -0.45862314 0.476236 0.48102543 1.200177
000060 89 72 fd 3e d9 8b 94 3e 20 11 a7 3e 62 45 59 be
       0.49501446 0.29012945 0.32630253 -0.21217874
000070 e9 e0 92 be ed 02 20 3f 0e 7a 9f 3e 3c 38 36 be
       -0.28687218 0.62504464 0.31147808 -0.17794889
000080 74 3f 60 be 98 ae bd 3e c7 e5 f5 3d b9 74 be be
       -0.21899205 0.37047267 0.12006717 -0.37198427
000090 99 60 27 3f e4 18 90 3e 4b 2f 0d bf 4b 76 bb 3e
       0.6538177 0.2814399 -0.5515029 0.36613688
0000a0 45 a4 af be 56 23 4e bd 97 7d 0f 3f f4 af ba 3e
       -0.34305015 -0.050326668 0.5605101 0.36462367
0000b0 b4 f0 c5 3e df a1 be 3e 46 6d 06 3f cc 78 71 3d
       0.38660204 0.37232873 0.5251049 0.05895309
0000c0 14 af 9d be ee fb 9e be be dc 0f bc 31 73 ba be
       -0.30797637 -0.31051582 -0.008780656 -0.3641601
0000d0 13 81 54 3e 17 8f f5 bd 8a b7 17 3e b0 9f c5 be
       0.20752363 -0.11990183 0.14816108 -0.38598394
0000e0 68 d8 b8 be 40 93 41 3e 1e 41 0b 3e a0 f1 5b bd
       -0.36102605 0.18903828 0.13599059 -0.05369723
0000f0 2f 17 c3 3d fa 9a 04 39 d4 a6 d7 be 9d 84 a4 be
       0.09525906 0.00012646234 -0.42119467 -0.32132426
000100 ac ad e0 3d c1 21 c2 3e 7f 63 97 be d1 bf 4e be
       0.10970625 0.37916377 -0.29568097 -0.2019036
000110 d7 83 d2 be 16 55 f5 bd 55 83 37 be 1e df 5e be
       -0.4111621 -0.119791195 -0.17921193 -0.217648
000120 30 e3 8d 3d f3 e0 1e be 21 a9 90 be c1 07 7f 3e
       0.06928098 -0.15515499 -0.28254035 0.24905302
000130 32 5e a8 3c e5 bd be be 6e 26 f3 be 75 e0 44 be
       0.020552728 -0.37254253 -0.47490257 -0.19226249
000140 1a dc 08 3f 4e 34 46 be 8d f9 1a 3e c5 1d dd 3c
       0.5346085 -0.1935589 0.15134259 0.026991734
000150 52 30 b4 be 24 d0 1b bf 65 f5 47 bf 3e 4e 3a be
       -0.35193115 -0.6086447 -0.7810882 -0.1819391
000160 07 86 1b 3e 13 67 46 3e 8e 9c e1 be 06 51 c2 3e
       0.15187846 0.19375257 -0.44064754 0.3795244
000170 e6 0f 15 3f f7 80 3d bf fb 05 3c 3e 60 1a d6 3e
       0.58227384 -0.7402491 0.18361656 0.41816998
000180 47 64 e5 3e a6 62 cc 3d 12 e3 c0 3e e5 e9 05 bf
       0.44803068 0.09979753 0.3767324 -0.5231002
000190 9e 8b 74 3d 69 a8 93 be d0 09 0f 3e 18 30 b6 be
       0.05970346 -0.28839424 0.13968587 -0.35583568
0001a0 ec 9b 5e 3e 42 69 e5 bd f8 7e c6 be 16 be b0 3d
       0.21739167 -0.11201717 -0.38768744 0.08630006
0001b0 83 86 fc 3c b1 8e c8 be 48 30 0d 3f 67 40 a6 3e
       0.030825859 -0.39171365 0.55151796 0.3247101
0001c0 3f 7e 22 3e 6b f8 21 3d 7f cb 67 3e 6c 88 a0 be
       0.15868472 0.03954355 0.22636221 -0.31354082
0001d0 0d 0b bb be 91 95 ce be bb 2f 30 3e d7 b3 45 be
       -0.3653187 -0.40348485 0.17205708 -0.19306885
0001e0 f1 19 dc 3e 9b a7 a9 3b 77 61 d1 be ff 43 6c 3e
       0.42988542 0.005177451 -0.40894672 0.23072813
0001f0 20 f1 b1 be e1 51 b0 bd ec f6 df 3e 2a c0 a5 3e
       -0.34754276 -0.08609367 0.43743074 0.32373172
000200 d7 26 ce be 05 da 56 3e 78 a0 b3 3d 40 1f 91 3d
       -0.40264007 0.20981605 0.08770841 0.070860386
000210 e6 c4 2d 3e b2 7c 48 3e e8 43 ec be fa 0d f7 be
       0.16969642 0.19578817 -0.46145558 -0.4825285
000220 a0 d4 b4 bd 5d 46 b8 bc ec 8b 8b be 71 f3 fc bd
       -0.088296175 -0.02249449 -0.2725519 -0.1235112
000230 86 98 95 bc 81 a8 91 3e 8a 06 05 3f a4 ff 39 be
       -0.018261205 0.2844887 0.519631 -0.18163925
000240 40 18 53 3d 64 9b 0b bf b0 12 ff be e3 c9 48 3e
       0.0515368 -0.5453398 -0.49818945 0.19608264
000250 c6 f3 4f be 17 8a 23 be 79 28 d7 bd 09 6d d0 3e
       -0.20307836 -0.15970646 -0.105057664 0.40708187
000260 c2 38 2c be 6c ee 04 3f e3 24 00 bf bb f0 44 be
       -0.16818526 0.519263 -0.50056285 -0.19232456
000270 c6 a0 53 3e d0 f4 5f be 62 8a 28 bb cc 1d 99 bd
       0.20666799 -0.21870732 -0.0025717248 -0.074763864
000280 47 e7 c3 3e b6 43 ef 3d b0 23 d1 be b2 9a 70 3e
       0.38262388 0.11682837 -0.4084754 0.23496512
000290 64 f2 43 3e 24 e6 7f 3e 08 d9 60 3e ec 85 6a be
       0.19135433 0.24990135 0.21957791 -0.2290265
0002a0 88 0d 83 3e c8 1c da be 76 c5 96 bd e8 42 a4 be
       0.2559626 -0.42600083 -0.073618814 -0.32082295
0002b0 73 61 fe be a6 13 77 3d f3 d2 a2 3e b4 f9 6a 3e
       -0.49683723 0.060321473 0.31801566 0.22946817
0002c0 99 92 ef bc 45 ce 39 3e 5c 04 f5 3e 73 7b bc 3e
       -0.029244708 0.18145092 0.47854888 0.36812934
0002d0 15 a5 ee bd 3d b5 8e 3d 3d 8b 1c be f1 39 1e bf
       -0.11652581 0.06968162 -0.1528749 -0.6180716
0002e0 7d 2f ad 3e 24 28 0d 3e 7d f2 91 3e 4a b8 a3 be
       0.33825293 0.13784844 0.28505316 -0.3197654
0002f0 b3 cb ac 3e 11 61 2b 3e e3 a0 55 3e f9 3d 89 bd
       0.3374916 0.16736247 0.20862155 -0.067012735
000300 da f7 d1 bd 5c a3 b7 3d 1c 8b b2 3d 91 e8 d9 bd
       -0.10252352 0.08966705 0.08717939 -0.10640062
000310 cc 77 a1 be 50 8c 70 be e2 06 82 3e c6 f3 88 bd
       -0.3153671 -0.23491025 0.25395876 -0.06687121
000320 56 66 8a be e8 9d 9e be 31 eb b5 3e c1 68 aa 3e
       -0.270312 -0.30979848 0.35531 0.33283046
000330 6e 9d 22 3c 28 92 9a be 10 43 64 be 52 f9 1a be
       0.0099252295 -0.30189633 -0.22291207 -0.1513417
000340 cf e0 91 3e 03 66 a4 3e 00 76 31 be fe b8 ad 3c
       0.28491828 0.3210908 -0.1733017 0.021206375
000350 14 a3 c9 3e 30 fc 16 3e 9d 8f 18 3e 20 24 33 bf
       0.3938223 0.1474464 0.14898534 -0.69977
000360 d1 d4 e7 be 82 f5 9b be f9 98 49 be 01 a9 d5 be
       -0.45279554 -0.30460745 -0.1968726 -0.41730502
000370 cd 4e 96 3e 9c 01 bf bb 28 ae e1 3d 31 e9 ac 3e
       0.29356995 -0.0058290493 0.11019546 0.3377166
000380 90 73 b0 bd 55 cf a6 be fc f0 87 be d8 b4 25 bd
       -0.08615792 -0.32580057 -0.26551044 -0.04045567
000390 5e 70 2c 3e 62 cb d2 be 0e 61 60 be b2 0e 6e be
       0.1683974 -0.41170794 -0.21912023 -0.23247793
0003a0 60 dd 82 3d b7 a9 94 3e 0b 56 a5 be f6 a3 21 3e
       0.0638988 0.29035732 -0.32292208 0.15785202
0003b0 0a bd 74 be e9 63 80 3e dc 6b bd be 4d 94 a7 3e
       -0.23900238 0.25076225 -0.36996353 0.32730332
0003c0 48 12 1b 3e 2e 9f 8a be 4b 45 1c bf bd bd 10 3f
       0.15143692 -0.2707457 -0.6104323 0.5653952
0003d0 ec ac 14 bf 42 eb a4 3e ba de 2e be 97 94 99 bd
       -0.5807636 0.32210737 -0.17077151 -0.074990444
0003e0 12 0c b8 be 76 6e 9a 3e 69 5f 28 bf 40 4e ac bd
       -0.3594671 0.301624 -0.65770584 -0.084133625
0003f0 82 7e f3 bc 01 94 fc 3c 9d 48 a3 3e 4e c8 47 be
       -0.02972341 0.030832293 0.31891337 -0.19510004

sequential_6/dense_24/MatMul f4 [16, 16]
000000 a0 ea cf 3e 61 03 d3 3e aa 34 4a 3e 6d 57 b3 3e
       0.40608692 0.41213515 0.19746652 0.35027638
000010 11 da b2 3e 0a ce 89 3d 05 11 3c bc f3 05 0c be
       0.34931996 0.06728752 -0.011478667 -0.13674144
000020 1f f7 18 3e 88 c9 cf 3e d1 96 b3 bd ac c0 dc 3d
       0.14938019 0.40583444 -0.08769 0.10778937
000030 77 3d 2c 3e 21 cb cb bd 1f 8b 96 3e 14 08 02 bf
       0.16820322 -0.09950853 0.29403016 -0.50793576
000040 dd 4c b3 3e 9c 01 fd bc 10 6a d2 be 22 dc 4a 3e
       0.3501958 -0.030884556 -0.41096544 0.19810537
000050 68 16 6c 3d fa 7f 88 be 02 d6 a6 3e 4c 06 f9 3d
       0.057638556 -0.26660138 0.3258515 0.12159404
000060 00 36 95 3c 65 1c 5d 3d bd da d5 be d2 57 88 be
       0.018214226 0.053982157 -0.41768447 -0.26629502
000070 13 bd e9 bd 2a 83 a8 bd 25 a3 c4 3e c2 95 0c be
       -0.11413016 -0.082281426 0.3840572 -0.13729003
000080 4c 52 96 be 30 1e 79 bd d5 4b 46 3c 9e 95 db 3e
       -0.29359663 -0.060819805 0.012103041 0.42887586
000090 7d 55 c3 bd d7 f1 92 3e 8b bc a0 be ef 09 ff 3c
       -0.0953779 0.28700134 -0.31393847 0.031132666
0000a0 7c c4 2f 3e 0f 78 d1 39 48 44 d5 be 4c 3f ab bb
       0.17164797 0.00039953037 -0.41653657 -0.0052260514
0000b0 02 ae d5 be 6f 01 11 be 0f af 84 3e ae ad c1 bd
       -0.4173432 -0.14160703 0.2591481 -0.09456955
0000c0 f0 4d 2a be 0f 05 2b 3e ba 7f a6 be e1 ea bb be
       -0.16631293 0.16701148 -0.32519323 -0.36702636
0000d0 eb 12 4c bd a1 a9 3d 3e b6 31 11 be 0b af 3b 3e
       -0.04982273 0.1852174 -0.1417912 0.18328492
0000e0 00 c8 a3 3d 43 3d a1 be 6c 4d 24 bd dc 85 db be
       0.07997131 -0.3149205 -0.040112898 -0.42875564
0000f0 33 a3 13 bc 94 ad a7 3e 2b ce ad 3e ff bc bf be
       -0.009011078 0.32749617 0.33946356 -0.3744888
000100 e7 95 56 be f4 61 1a 3f c7 66 93 3e e0 92 45 bc
       -0.2095562 0.60305715 0.2878935 -0.0120589435
000110 c0 07 64 3c dd 0e c4 bd c1 13 c1 be 88 97 51 3d
       0.013917863 -0.095731474 -0.37710384 0.051169902
000120 9e 56 f5 be d8 91 2d bd 33 cf 63 be 6e 68 08 be
       -0.47917646 -0.042375416 -0.22247009 -0.13321087
000130 16 c9 ac be 58 e5 02 bf d3 46 94 3e 2a 07 05 bf
       -0.33747166 -0.511312 0.28960285 -0.51964056
000140 0d 4c dc 3e a7 7f 91 be 23 cc 18 be b4 b6 86 be
       0.43026772 -0.28417704 -0.14921622 -0.26311266
000150 1d 64 4f 3e 0f 74 80 3c b4 13 d1 3e 84 02 1c 3e
       0.20253034 0.015680341 0.40835345 0.15235335
000160 89 8c 7d be 29 5b 90 3e bd ab 3e be 14 14 dc 3d
       -0.24760641 0.2819455 -0.186202 0.10746017
000170 96 44 93 be 66 25 e1 be 36 96 6f 3e c9 01 de be
       -0.28763264 -0.43973845 0.23397145 -0.43360737
000180 96 48 05 bd b9 f0 da be 95 01 b2 bd 49 41 3b bd
       -0.032539926 -0.42761782 -0.08691708 -0.045716558
000190 2a 6f fe 3d e8 d8 3d 3f 5f 91 91 3d 47 60 a4 be
       0.124235466 0.741591 0.071078055 -0.32104704
0001a0 70 ca 8c bd 9a df 0f 3f 41 f0 01 be b8 8c 13 3e
       -0.068745494 0.56200564 -0.12689306 0.14409149
0001b0 0d 0a 63 3e 02 f6 0e bd b0 f7 7e 3d 0f b8 fc 3e
       0.22171803 -0.03490258 0.062247932 0.49359176
0001c0 a6 df b1 be c8 a0 b6 3e 55 ac b4 3d 2f b3 67 3d
       -0.34740943 0.3566954 0.08821932 0.056567367
0001d0 08 24 5b bd 4e 8c 49 be 8c 68 b0 3c d2 35 87 3e
       -0.05350116 -0.19682428 0.021534227 0.2640825
0001e0 f7 8b 9f be 01 e5 94 3e 5c 35 9f 3e cd c6 a6 3d
       -0.31161472 0.29080966 0.31095397 0.08143387
0001f0 ba 04 04 3d 3f 95 25 be d0 65 08 bd 4a 08 e2 bd
       0.03223107 -0.16170214 -0.03330022 -0.11036737
000200 3f 26 9f 3e 45 c5 a2 3e 35 a8 29 3e d0 24 9e be
       0.31083867 0.3179113 0.16568072 -0.3088746
000210 80 3a d4 be e9 db 7a 3e 8b 16 03 bf 16 50 7e 3e
       -0.41450882 0.24497952 -0.5120627 0.24835238
000220 47 04 14 3f 7d b7 d2 3e 5b eb 87 be d7 55 00 3f
       0.57819027 0.41155615 -0.2654675 0.5013098
000230 68 3e bc 3e be df e4 3e 79 8c da 3e 92 ad a6 3e
       0.36766362 0.44701952 0.42685297 0.325543
000240 fe 00 07 be ba ee 0a bf 25 29 42 be 9c 13 68 bd
       -0.13183972 -0.5427052 -0.18961008 -0.056659326
000250 32 e5 e4 3e 0f d3 7c 3f ca 09 ba bc 02 b5 6a be
       0.44706112 0.9875955 -0.022709746 -0.22920612
000260 57 c8 03 bf c7 8e 15 3f b5 23 9d be 62 79 92 3e
       -0.5147757 0.58420986 -0.30691305 0.28608233
000270 11 57 a2 3d 7d a1 dc 3e 2a b9 5e be 60 c7 ed 3e
       0.07926763 0.43091956 -0.21750322 0.46441174
000280 ec e3 cd be c6 1e b4 3e eb 57 4f bf 24 28 08 be
       -0.40212953 0.35179728 -0.8099353 -0.13296562
000290 2b f4 4d 3e e0 cb 35 3f 80 00 fa be a7 db b5 be
       0.20112674 0.71014214 -0.48828506 -0.35519144
0002a0 d4 7f ab bd 01 19 de 3e 62 df 80 3e 24 99 ca be
       -0.08373991 0.4337845 0.25170428 -0.39569962
0002b0 4a 37 24 be db d2 5d be f6 3c da be 31 64 17 3f
       -0.16036716 -0.21662466 -0.42624635 0.59137255
0002c0 bf 20 ed 3d 6d 6b 8a 3e d2 15 68 3c 2f 97 8c 3e
       0.115785114 0.27035084 0.014165359 0.27459094
0002d0 de 8b cd 3e 2c 3d 9b bd 0f 3c 2d 3d 20 1a da 3e
       0.40145773 -0.07580027 0.042293604 0.42598057
0002e0 e0 6a 11 be 08 47 a9 3e 63 24 2c 3e d9 00 57 3d
       -0.14200926 0.33062005 0.16810755 0.052491043
0002f0 e7 2b 41 bc 23 71 b7 be 3f 31 b9 3e b6 bb 8d 3e
       -0.011790252 -0.35828504 0.36170384 0.27682275
000300 9a 15 0a 3d 1d 02 d2 be 1f 2d ae be e2 d2 32 3e
       0.033712007 -0.41017237 -0.340188 0.17463258
000310 c1 58 9e 3c 97 fb 4f 3e 11 7a 80 be ab 69 a0 be
       0.01932943 0.20310818 -0.2509313 -0.31330618
000320 86 c3 05 3e 1a 77 09 3f f6 bc 3d 3d c2 a4 08 3e
       0.13062868 0.5369736 0.046322785 0.133441
000330 c4 43 65 3d 00 4c 71 bd 40 21 b9 3c f6 42 38 3f
       0.05597283 -0.05891037 0.022598863 0.71977174
000340 c5 63 cb 3e 3e 72 43 3f fa 8c f6 3e 38 42 09 be
       0.39724556 0.76346195 0.48154432 -0.13404167
000350 33 55 47 3c 04 01 9c be f2 30 94 3d 6f 92 49 3e
       0.012166309 -0.30469525 0.07235898 0.19684766
000360 9f 45 14 3e 22 f5 49 be 54 57 a0 be 48 94 73 bc
       0.14479683 -0.19722417 -0.31316626 -0.014866896
000370 5a 03 cf bd 9b 94 74 be c5 4c d8 be 52 51 81 be
       -0.10108061 -0.23884813 -0.4224607 -0.25257355
000380 8a 9e 03 3e 37 26 f0 3c 4d 2a ba be 89 a2 ac 3e
       0.12853447 0.029315097 -0.36360398 0.33717754
000390 0c ba b8 be 3f 2f b8 3e 4b 4d 7c 3e 2f bb 7e bd
       -0.36079443 0.35973546 0.2463886 -0.06219023
0003a0 e2 3c b1 be 02 9c 81 be 4c c1 a5 3e 05 7c 10 bd
       -0.34616762 -0.25314337 0.32374036 -0.035274524
0003b0 57 53 3f 3e 97 09 6d be 7a 23 5e be 22 1f d8 be
       0.18684135 -0.2314819 -0.2169322 -0.42211252
0003c0 0c 1d ad be 18 52 12 3f 43 0c 24 bf c4 3b 9c be
       -0.33811224 0.57156515 -0.6408121 -0.30514348
0003d0 5e 7b ce be 78 c9 61 3e 77 11 ba be 7d a6 52 bd
       -0.40328497 0.2204951 -0.3634145 -0.051428307
0003e0 f5 41 e5 be f4 eb b1 3e 13 f7 9c be 2f aa 8b be
       -0.44776884 0.3475033 -0.30657253 -0.27278277
0003f0 f3 f6 79 3e a1 78 2d bf ec a8 c6 3d 5d ad 34 3e
       0.2441061 -0.6776219 0.09700188 0.17644258

sequential_6/dense_25/MatMul f4 [5, 16]
000000 9f ac d7 bd 4e df 05 bf 79 f7 1e 3d c6 d2 3f be
       -0.10530972 -0.5229386 0.038810227 -0.18732747
000010 34 45 78 be 82 ff 73 3e 9b a0 0d bf e8 b4 bf be
       -0.24245149 0.23827937 -0.5532319 -0.37442708
000020 af b4 80 bf ed 81 a4 be 62 1e a7 bd e7 27 b0 be
       -1.005514 -0.32130376 -0.08160092 -0.34405443
000030 01 6d 16 bf 66 d9 9c be a2 e2 46 be 2c 8a 55 3e
       -0.58760077 -0.30634612 -0.19422391 0.2085349
000040 69 3f 98 bc b5 15 8c be 9d 57 df be 8e e3 c3 3b
       -0.018584924 -0.2736031 -0.4362153 0.0059780544
000050 3f 11 15 bf a0 cc af be 68 e0 8f 3e ea ad 4e 3e
       -0.5822944 -0.34335804 0.28100896 0.2018353
000060 0b 9d 6b 3f 3c a3 09 3f d6 ab 45 3f d8 4c f4 3c
       0.92036504 0.537647 0.77215326 0.029821798
000070 87 54 16 3f a1 f8 4f 3f 36 e3 57 bd 3b 54 78 3f
       0.5872273 0.8123875 -0.05270692 0.97003525
000080 b9 fa d2 bd 4d 4d bc be ce 45 5f be 3d e2 c4 3d
       -0.10301728 -0.36777726 -0.21803972 0.09613464
000090 03 e2 5f 3e 3c 54 6a 3e c4 d6 4a bf 3b 40 d3 3d
       0.2186356 0.22883695 -0.79233956 0.10314985
0000a0 30 88 97 bf 38 c6 6a bd b3 05 ab be ae 6d a1 be
       -1.1838436 -0.057317942 -0.33402786 -0.3152899
0000b0 9d 97 29 bf 7c e5 a9 be 94 95 f3 3e 77 30 b2 bd
       -0.6624697 -0.33182895 0.47575057 -0.0870065
0000c0 94 68 94 bd 62 e9 81 3e 27 62 a9 bd 51 c3 ff 3e
       -0.07246509 0.2537337 -0.08270674 0.49953702
0000d0 20 2c 33 3e 9f 05 02 3f 95 7c 5d bf a8 2a e0 3e
       0.17497301 0.5078983 -0.8651822 0.43782544
0000e0 aa a0 c0 3e 18 f7 94 bf b6 e0 81 bf d9 a3 3f 3e
       0.37622577 -1.1637907 -1.0146701 0.18714847
0000f0 d3 b4 1b bf f3 13 96 3f 3a 0d 75 3d 6a bb ce be
       -0.6082279 1.1724838 0.059827067 -0.4037736
000100 4f c9 64 bf 89 32 e9 be c1 a7 5e be 41 33 de 3e
       -0.8936967 -0.45546368 -0.2174368 0.4339848
000110 f4 40 01 bf a7 8f 47 3c 38 fd 1c 3f 8d 89 78 be
       -0.50489736 0.0121802455 0.6132388 -0.24271221
000120 6e 47 e0 3e 50 fa 98 3f 57 b7 d9 3e f6 f8 57 bd
       0.43804497 1.1951389 0.4252269 -0.052727662
000130 b5 de d4 3e f5 a8 16 bf 99 4a e0 3e a8 6a d0 3d
       0.41576162 -0.5885156 0.43806913 0.10176593

sequential_6/dense_22/MatMul;sequential_6/dense_22/Relu;sequential_6/dense_22/BiasAdd f4 [16]
000000 67 51 83 3f cc 04 47 bf f3 62 3d 3e 30 61 4c 3e
       1.0259217 -0.77741694 0.18494777 0.19958949
000010 80 a6 73 be 4d e0 4f bf 48 50 04 3e 32 8e 00 40
       -0.23793983 -0.8120163 0.1292125 2.008679
000020 f2 5d 19 bf 10 3a 4d 3f 6e ea 64 3f 37 9d 26 3f
       -0.59908974 0.8016672 0.8942021 0.6508364
000030 1a b4 09 3f c4 f0 94 bb 88 82 a5 be fc b1 09 3f
       0.5379044 -0.004545303 -0.3232615 0.5378721
