scripts/models/simulation_capture_10s_20x_1,5x1m_simulation_10s_48x48_model_no_quant.tflite (tflite, 15116 bytes, 7 tensors)

dense_20/bias f4 [5]
000000 41 9f 01 bf a0 4b 1f 3e de b5 30 bf 3a 99 01 3f
       -0.5063363 0.15556192 -0.6902751 0.5062443
000010 fe e8 08 3f
       0.5348052

dense_19/bias f4 [48]
000000 66 ec d7 3c cc 6c 4e 3d 9c 86 89 bc 8f a1 15 bd
       0.02635784 0.050396726 -0.01678782 -0.036531027
000010 13 08 fb 3d 31 0a 46 3c 82 84 01 3e 88 c4 f3 3d
       0.122573994 0.012087391 0.12648204 0.1190272
000020 5b d2 a8 3d bc 3a 6a bd cf ff bd 3b 8f 61 37 bd
       0.08243247 -0.05718492 0.005798317 -0.044770774
000030 3a 62 c7 3d b3 1a a1 3e c7 6c 0e 3e 90 ca 7e 3e
       0.09735532 0.31465682 0.13908683 0.24881959
000040 dd 56 8e 3c ef fc 2d 3e f2 ab 06 be d0 11 02 3d
       0.017375404 0.16991018 -0.1315153 0.03175527
000050 5a 57 4c 3e 61 53 81 3e 7d 1d 77 bb 3b 17 5d 3e
       0.19955197 0.25258926 -0.0037706785 0.21590893
000060 a3 be df 3d d5 ab 12 bd 84 fc 8a bc 5b 55 9a bd
       0.10925033 -0.035808403 -0.016966112 -0.075358115
000070 6e 9b 02 3e 13 83 8a 3c e2 fc 5f 3d 71 39 5d 3e
       0.12754604 0.016908204 0.054684527 0.21603943
000080 3d 5f 6f bd 29 df a6 3e 59 7e 48 3c 1d 51 0a be
       -0.058440436 0.32592133 0.012237155 -0.13507505
000090 9b ca 90 ba f0 f9 98 3e 30 1d b0 3c d7 97 38 3e
       -0.0011046709 0.29878187 0.021498293 0.18026672
0000a0 2e 84 d1 bd 9b 15 e5 bd 01 73 37 bd ed a3 c0 39
       -0.102302894 -0.111857615 -0.04478741 0.00036743228
0000b0 15 91 ef bc ea 8f 66 3e 30 1d 2f 3e 2c 1e 35 3e
       -0.029243985 0.22515836 0.17100978 0.17687291

sequential_5/dense_17/MatMul f4 [10, 10]
000000 ee d6 a5 bc 49 fc 9f 3e cb 0c e9 3c 3b 93 54 3f
       -0.020244088 0.31247166 0.028448483 0.83037156
000010 79 43 b1 bd 2a 3e 64 be ea 07 8b 3f 7c f1 f9 3e
       -0.086554475 -0.22289339 1.086179 0.4881705
000020 86 1a 2f bf 14 cd 79 be 59 92 cf bd 72 fa 65 bf
       -0.68399847 -0.24394637 -0.101353355 -0.89835274
000030 93 73 07 bf 16 a7 63 3c 98 e3 8b bd 94 87 34 3f
       -0.5291073 0.013894817 -0.068305194 0.70519376
000040 08 bf dd bc 4c 2d d8 be e7 0c 75 3e b4 3e 8a 3e
       -0.02706863 -0.4222206 0.23930703 0.27000964
000050 a7 ed d4 be 5d 7e 25 3e 13 fc e3 3e 12 7f d8 3e
       -0.41587564 0.16161485 0.44528255 0.42284447
000060 34 ba 0b 3c c3 fe a1 3d 54 d6 a9 be 72 55 0c 3f
       0.008528281 0.0790992 -0.33171332 0.5481788
000070 2b 44 37 3e 69 e0 2b 3f b5 4c 32 be 86 62 27 bf
       0.17897098 0.671393 -0.17412074 -0.6538471
000080 01 d6 2f 3e 73 c8 5e 3e 30 98 54 3e be c2 f1 be
       0.1717148 0.21756153 0.2076118 -0.4721889
000090 ab a8 40 3f 05 b6 45 bf 28 4c 53 bf fe 77 33 3f
       0.75257367 -0.77230865 -0.8253808 0.7010497
0000a0 a9 e8 4f bf 39 21 2d bf 56 08 10 3c 34 12 1c 3f
       -0.81214386 -0.6762882 0.00879105 0.60965276
0000b0 80 72 8a be db 62 3c 3e 11 21 1b bf b2 bd 98 3e
       -0.27040482 0.18397085 -0.6059733 0.29832226
0000c0 78 2b 08 bf 54 6d 0c 3f 43 1a 4a bf a5 dc 68 be
       -0.5319133 0.5485432 -0.7894632 -0.22740419
0000d0 e3 44 97 be d1 a9 38 be 19 40 35 3f 1f f0 c8 bb
       -0.29544744 -0.1803353 0.7080093 -0.0061321403
0000e0 50 d6 cd 3e 98 ce 5a 3f 44 a2 ac bf 73 b3 e7 be
       0.4020257 0.8547149 -1.348702 -0.45254096
0000f0 df db 63 3f 9f ad 48 be d4 d5 11 bf f6 4a 24 bd
       0.8900737 -0.19597481 -0.569669 -0.04011055
000100 a5 4f e2 3d 22 c2 7c be 11 5b 66 3f f3 39 40 bf
       0.11050347 -0.24683431 0.89982706 -0.75088423
000110 9c d6 c1 3d 7b a8 10 bf 4f 2a 8a bd 91 d5 22 3f
       0.094647616 -0.5650708 -0.06746351 0.63607126
000120 d8 29 1c bf 08 ee 56 be 19 70 ed be 9f 7b a1 bd
       -0.6100135 -0.20989239 -0.46374586 -0.07884907
000130 dd 5b 38 bd 64 2a 48 be 8b ec 1b bf 70 f5 fd be
       -0.045009483 -0.1954742 -0.6090781 -0.49601316
000140 90 93 86 be c1 dc 13 3e d0 01 1c bc ab 2e 32 3f
       -0.26284456 0.1443968 -0.0095219165 0.6960246
000150 fc 6f f4 3e 62 15 b3 be e2 e7 98 3e db 54 98 3f
       0.47741687 -0.3497725 0.29864413 1.1900896
000160 4e 66 2f 3f 0d 68 21 3d b2 3a 88 bf 3c 29 6f bf
       0.6851548 0.03940587 -1.0642912 -0.93422294
000170 f2 45 ab 3b aa 6c cc 3e bd 85 80 3d 42 bf 37 3c
       0.005226844 0.39926654 0.062755086 0.011215033
000180 88 b5 59 be cf a2 0d bf 60 c5 26 bf af 1c 90 3d
       -0.21260655 -0.5532655 -0.6514492 0.07036721

sequential_5/dense_18/MatMul f4 [48, 10]
000000 f8 0f 7a 3a 6c f5 b0 3e ad 01 5c 3e 30 4e 8c 3e
       0.00095391227 0.34562242 0.21485014 0.27403402
000010 f4 74 f2 bd dc 6a 25 be 02 d2 4f 3e 94 37 d5 bd
       -0.11838713 -0.16154045 0.20294955 -0.10410991
000020 a4 57 13 3e e4 44 21 3e 48 67 92 3e c8 d5 ba bd
       0.14388901 0.15748936 0.28594422 -0.09122807
000030 7d 04 72 be fd c2 bd 3e 0f 88 ab bd 14 e3 2e 3d
       -0.23634525 0.37062827 -0.083755605 0.042697027
000040 ca dd 5e 3e ab d5 6b bd 95 93 e4 3e b7 10 a1 bd
       0.21764293 -0.057576817 0.44643846 -0.07864516
000050 da 66 38 3e 1d 47 11 3e 53 b9 80 3e fd bd 95 3e
       0.18007985 0.14187284 0.2514139 0.29246512
000060 31 7e e0 be 51 0f e8 be 39 ce b6 bd c1 1e 68 be
       -0.43846276 -0.45324185 -0.089260526 -0.22667982
000070 41 67 16 3d fd e7 a1 be cb 77 8a be 80 74 9d 3d
       0.036719564 -0.31622306 -0.2704452 0.07688236
000080 26 82 b7 3e 08 e9 ad be f1 fe 3f 3d 4a 33 47 be
       0.35841483 -0.3396685 0.04687399 -0.19453159
000090 a9 09 fb 3c 3f 1b 07 3b 3e e0 68 3e a6 89 2f be
       0.030644255 0.0020615605 0.22741792 -0.17142352
0000a0 3a 7d ea 3d 21 d9 b9 3c cf 9d 0e 3e ad a4 40 3e
       0.11449666 0.022686543 0.13927387 0.18812819
0000b0 33 96 91 3e 0e 3a a3 3e ae 5e d3 be 54 a6 9d 3e
       0.28434905 0.3188023 -0.41283172 0.3079096
0000c0 77 71 de bd 7d c6 c1 be aa 9c 49 3d c0 d6 3e be
       -0.108614855 -0.37846747 0.049221672 -0.18636608
0000d0 46 4c 4c be ad 10 96 bd 03 8e cb 3d 8a 5b 82 3d
       -0.19950971 -0.073273994 0.09939196 0.06365116
0000e0 eb 03 c9 3d b6 d1 3a 3e 11 4d 89 be 22 b0 e5 3d
       0.098152004 0.18244061 -0.2681661 0.11215235
0000f0 f0 84 de 3e cc 53 ab be 5c 84 6b 3e 09 f6 8f 3e
       0.43460798 -0.3346237 0.2299971 0.28117397
000100 8e 9b 00 3d 6e 06 7d 3e 61 5c 8a bd e2 73 b7 3d
       0.03139835 0.24709484 -0.06755901 0.0895765
000110 25 23 7a 3e 3d c3 a9 bd d3 ce b4 be 8d e5 24 3e
       0.24427469 -0.08289192 -0.35314044 0.16103192
000120 0c b8 d4 bd 38 b9 13 3e fc 1a 3d 3e 41 8b e5 be
       -0.10386667 0.14426124 0.18467325 -0.44832805
000130 bb 2a 96 3e 93 ad 26 bd f3 e5 1a bf db 2e 9b bd
       0.29329476 -0.040692877 -0.60507125 -0.07577296
000140 c6 8f e2 3d 0f a2 12 3e 92 04 69 be bc 3d c6 3d
       0.11062579 0.14319633 -0.2275565 0.09679744
000150 bd e0 99 bd 1f 92 30 3e 75 f1 aa 3e 64 07 e1 3e
       -0.075135686 0.17243241 0.33387342 0.4395095
000160 6c dd a2 be 59 32 a2 bd 16 24 27 3d ac d2 92 3b
       -0.31809556 -0.07919759 0.0408059 0.0044806805
000170 60 f0 28 3e a2 75 bd 3e 21 9d 80 3e 59 92 37 3d
       0.16497946 0.3700381 0.2511988 0.044817302
000180 f8 f2 bc be 78 de 9f 3d f0 ac d9 3d 09 3e 36 3f
       -0.3690412 0.078061044 0.10628688 0.7118841
000190 38 b3 ae 3d b4 5c 23 3e fb 32 79 be 93 c4 be be
       0.08530277 0.15953332 -0.24335854 -0.3725935
0001a0 ed 14 9c 3e 44 1a 2a be d3 10 d5 3e e6 13 6d 3e
       0.30484715 -0.16611582 0.41614398 0.23152122
0001b0 7e 0e 87 bd 67 c9 91 3e c7 c1 4e 3e e2 ed 2e 3d
       -0.06594561 0.2847397 0.20191108 0.04270733
0001c0 14 4d cc bd 7d de cd 3e 36 02 88 be c0 d1 7a 3e
       -0.09975639 0.40208808 -0.26564187 0.24494076
0001d0 45 7d 3a be 59 30 16 be 15 8a bb be 4a 36 3b be
       -0.18211849 -0.1466688 -0.36628786 -0.18282428
0001e0 2b 42 ae 3e 8a 7f 88 3e e8 05 74 be 3a bc 80 be
       0.34034857 0.26659805 -0.23830378 -0.25143605
0001f0 a4 c8 29 be a3 6c 4c be 95 00 1b 3e 62 73 aa 3e
       -0.16580445 -0.19963317 0.15136941 0.33291155
000200 6a 8d 83 3e b5 07 53 bd 06 58 05 be 17 b8 d1 3e
       0.25693828 -0.051521022 -0.1302186 0.40960762
000210 8c 5b 02 3d ac 1e 23 be d4 64 9d bd be c8 6a be
       0.031825587 -0.15929669 -0.07685247 -0.2292814
000220 6c c6 71 bd 9f 21 05 bf 98 3f 83 3e 51 01 86 be
       -0.05902712 -0.52004427 0.25634456 -0.2617288
000230 ba 20 c8 bd 55 14 8d be 58 e7 56 be 47 b8 ff be
       -0.09771867 -0.27554575 -0.20986688 -0.4994528
000240 ec e9 b5 bc 9c 94 48 3d 8f 00 5d be ea 11 0e be
       -0.02220627 0.04896985 -0.21582244 -0.13874021
000250 bf ea 84 3d 72 ff d6 be 03 fe 2c 3e 49 6e 73 3e
       0.06490087 -0.41991764 0.16893773 0.23772539
000260 fb 34 aa bd 45 53 13 3d 55 4b 89 be 58 25 39 3e
       -0.083108865 0.035968084 -0.26815286 0.18080652
000270 79 2e 6b 3d d3 83 ed 3e b6 8f 3b bd 16 0a 45 3e
       0.057417367 0.46389636 -0.04579135 0.19242129
000280 da a5 0b 3e 41 cc 4a bd e0 d2 82 bd 4d 5a 4b 3e
       0.13637486 -0.049511198 -0.063878775 0.19858666
000290 2c de 2e 3e 6f 58 c1 bd 2a 08 ac 3d b9 bd 69 3e
       0.1707694 -0.094406955 0.08399995 0.2282628
0002a0 47 94 60 be f2 85 7e 3e f5 79 98 3e 95 d6 b9 3e
       -0.21931563 0.24855784 0.29780546 0.36296526
0002b0 6c f3 df 3e b1 10 e5 3d c8 b2 84 3e 53 96 22 be
       0.43740404 0.11184824 0.2591765 -0.15877657
0002c0 13 4d 3e 3e e1 c7 35 3d 8a a6 b3 3e 7a 31 8f be
       0.18584089 0.044380073 0.35087997 -0.27967435
0002d0 a8 ad 07 be df 7f 3a be c0 da ea bb b3 e8 a3 be
       -0.13249838 -0.18212841 -0.0071671903 -0.32013473
0002e0 08 d0 ee be fa d7 0b 3d 9a db 54 be 16 35 ca be
       -0.4664309 0.03414152 -0.20786896 -0.39493626
0002f0 80 38 f8 3e ed 76 ee be 4e 07 00 3f b4 49 c5 be
       0.48480606 -0.46575108 0.50011146 -0.38532794
000300 66 9f d0 3e bc 88 2d 3e ac 20 10 3d f4 38 4e be
       0.4074661 0.16946691 0.03518741 -0.20138913
000310 1a 13 61 3e f9 74 65 3e 7b 8c e9 3d ea 1b 75 3d
       0.21979943 0.22407903 0.11403748 0.059841074
000320 ec b3 a0 be 26 25 f8 bd 7c 6a da bd e3 c8 8d 3e
       -0.3138727 -0.121164605 -0.106648415 0.27692327
000330 47 d1 be 3e 4e f4 9b be 26 90 43 3d 03 e1 3b be
       0.3726904 -0.30459827 0.047744893 -0.18347554
000340 44 2b fa be 69 45 39 3e e4 f1 91 be 6e b7 86 be
       -0.48861134 0.18092884 -0.2850486 -0.2631182
000350 2e ae 9c bd 64 5d b2 3d 23 f7 97 bd da 24 74 3e
       -0.0765041 0.08709219 -0.074201845 0.23842183
000360 70 92 45 bd 64 c9 bf bd fe 5a 87 be 4d 22 9d bd
       -0.048235357 -0.09364584 -0.2643661 -0.07672558
000370 5a d7 b2 3d 86 b7 53 be 18 ef ff bd cc 0f 87 3e
       0.08732481 -0.20675477 -0.124967754 0.2637924
000380 cc 1e 48 be 34 94 c3 be 5d 6e d3 3e b6 88 9e 3e
       -0.19542998 -0.38199008 0.41295138 0.30963677
000390 f7 e3 e7 bd 33 f3 cf 3e 17 8f c2 be 20 fa 77 3e
       -0.11322778 0.40615234 -0.37999794 0.24216509
0003a0 87 10 a8 be a9 4c 25 3d 57 d9 3c 3e 2f 6d c9 be
       -0.3282511 0.040356312 0.18442284 -0.39341113
0003b0 a7 ab 9c be 99 c2 67 3e 4a ad 08 3e 4c b2 39 bd
       -0.3059971 0.22632827 0.13347355 -0.045336053
0003c0 42 ec 43 be 2f d8 6b bd f5 b7 fb bd 17 8a 1a be
       -0.19133094 -0.057579216 -0.122909464 -0.1509174
0003d0 b6 9d 8f 3e 9c c4 26 bd f2 b5 ec 3d 1b c2 91 3e
       0.2805001 -0.040714845 0.11558141 0.28468403
0003e0 9c 96 6b be df af 35 3d 9b 8f 9b be d5 8b c6 3d
       -0.23006672 0.044357177 -0.30383 0.096946396
0003f0 37 13 96 3e b8 10 b2 be 18 8f 4f 3e fa a7 c7 3e
       0.29311535 -0.3477838 0.2026943 0.38995343

sequential_5/dense_19/MatMul f4 [48, 48]
000000 4a 4f bf bd ee 54 3b bd 8c 25 04 be c8 1f c9 bd
       -0.09341295 -0.045735292 -0.12904948 -0.09820515
000010 cc 40 e1 3a dd 2c f0 3c 01 90 f8 bb d2 88 3e 3d
       0.0017185449 0.029318267 -0.007585526 0.0465172
000020 1c 7c 78 bd da b3 b1 be 35 f2 e2 bd da 3b db 3d
       -0.060665235 -0.34707528 -0.110813536 0.10704775
000030 dc 24 06 be 06 75 69 3e 0e 74 fa 3d 7b 91 f8 3d
       -0.13099998 0.22798547 0.12229167 0.12137123
000040 59 4d a3 3d c6 5f 90 3d 4c 5c 93 bd 69 5f 6c bd
       0.07973737 0.07049517 -0.071953386 -0.057708178
000050 e5 e7 1a 3e 29 f9 ec bd 26 6b 2f 3d 38 b0 75 be
       0.15127523 -0.11570961 0.042826794 -0.23993003
000060 fa 44 1d be de 6e 90 3d c9 b0 83 be 39 1f 6c 3e
       -0.15358344 0.07052396 -0.25720814 0.23058785
000070 75 f0 e4 bd 72 92 2d 3e 2b fa 13 be 2c 66 49 3e
       -0.11178676 0.16950396 -0.144509 0.19667882
000080 0c af 22 be cd 94 af bc b9 7c 08 be b3 63 a5 bd
       -0.15887088 -0.021433258 -0.13328828 -0.08075657
000090 4e 1c 05 3d 9b 17 aa bd 24 2c 0c bd b6 cf 69 3d
       0.032497697 -0.08305284 -0.034221783 0.057082854
0000a0 b6 f8 b2 3c 67 cc 2a 3e bc ad 13 bd 1f f2 fa 3d
       0.02184711 0.16679536 -0.036054358 0.12253212
0000b0 2b bf 97 3d eb 4e 45 3e b8 98 76 bd 87 18 e0 38
       0.07409509 0.19268386 -0.060204238 0.00010685721
0000c0 0c bd 1b bd ea 35 84 3e ca ed 41 3e ca 02 85 3b
       -0.038022086 0.25822383 0.18938366 0.0040591704
0000d0 00 76 f7 3d c8 84 61 3e 18 6f aa 3e 85 ea 91 3e
       0.120830536 0.22023308 0.33287883 0.28499237
0000e0 64 36 79 3e 7b 8b a0 bd 95 15 11 bd 1e 3f 28 3e
       0.24337155 -0.07839104 -0.035420973 0.16430327
0000f0 9f 8f 94 be 6b 3c d6 bd fb 59 9e be 2f b5 45 3d
       -0.29015824 -0.104607426 -0.30928025 0.048268493
000100 a8 e6 93 3d 11 48 ad bd 89 15 d1 bb ba f8 a1 bd
       0.072217286 -0.08461011 -0.006380741 -0.07908769
000110 cb 62 4c 3e 65 1e 78 bc b4 1f 5c 3d 3b 77 49 3e
       0.19959562 -0.015143965 0.053741172 0.19674389
000120 85 d1 50 be fd af ec bd 36 67 1c 3d 03 29 10 3e
       -0.20392425 -0.115570046 0.038184367 0.14078145
000130 85 a5 14 3e 62 a1 a9 ba 74 43 96 be 50 8b f0 3d
       0.14516266 -0.0012941773 -0.29348338 0.11745322
000140 40 c0 74 3d 65 eb f5 bb 53 cc 5b be ed fc 13 be
       0.059753656 -0.007504868 -0.21464662 -0.14451952
000150 37 88 b2 bc fb 88 5b 3d 11 14 21 be b4 39 a9 be
       -0.021793468 0.05359743 -0.15730311 -0.33051836
000160 fc a6 c9 3d 87 b5 45 3e 74 db 15 be fe 4b 17 3d
       0.09846303 0.19307528 -0.14634496 0.036937706
000170 c2 8c 7e 3d 1c 79 84 be 16 90 7b be 86 46 55 bd
       0.062145956 -0.2587365 -0.24566683 -0.05206921
000180 2b 47 1b be 7c d9 e2 bd 27 0f cc bb 91 31 48 be
       -0.15163867 -0.11076638 -0.0062273922 -0.19550158
000190 70 b4 3f be 71 11 e3 3d a4 f4 ee 3c 6f 36 e4 bc
       -0.18721175 0.11087311 0.029169388 -0.027857987
0001a0 c3 51 1f be af bb 0c 3e 18 62 4c 3e ce 53 94 bc
       -0.15558533 0.1374347 0.19959295 -0.018106367
0001b0 91 75 6e 3c 6c ec 39 3e b7 40 6e 3e f2 bd 97 3d
       0.014554397 0.18156594 0.23266874 0.07409276
0001c0 0d e7 20 be cd bd 2e 3e 5f fe 7d be 8c 06 f0 bd
       -0.15713139 0.17064591 -0.24804066 -0.11719999
0001d0 8e 85 c9 bd 43 a6 2f 3d 44 e5 3f bd 30 75 00 3e
       -0.09839927 0.04288317 -0.046849504 0.12544703
0001e0 8d 6c 82 3d 0b 14 76 3e fc 85 a5 3d 40 49 b7 3b
       0.06368361 0.24031083 0.08082196 0.005593449
0001f0 4e df 28 3e 3b 86 8c bd 5a b2 cd 3d 60 ce 5c 3d
       0.16491434 -0.0686154 0.100437835 0.053907752
000200 89 2a 2e be 4f 74 13 be 96 01 49 be 2c 63 70 be
       -0.17008413 -0.14399837 -0.19629511 -0.23475331
000210 a9 a6 10 3e 3d c5 6d be f5 4b 08 be 0c 2f 90 bd
       0.14126076 -0.23219772 -0.13310225 -0.070402235
000220 29 a0 39 3d 81 ff 7d be 0a ea 98 bd 2e e4 77 be
       0.045318756 -0.24804498 -0.074665144 -0.24208137
000230 bf e7 6f 3e 75 14 34 3e 7a 56 19 be bc 66 6e be
       0.23428248 0.17585929 -0.14974394 -0.23281378
000240 de 8b 54 be f7 1a 70 be bb aa 1b be 17 ce 50 3e
       -0.2075648 -0.23447786 -0.15201847 0.20391117
000250 5d 87 68 3d 8a ed e7 bd 6f 4c 7f be 67 7b d2 3c
       0.056769717 -0.11324604 -0.24931501 0.025693608
000260 6c 94 b8 3d 73 a2 08 3e e8 81 51 bb 15 3e 03 3e
       0.09012684 0.1334322 -0.00319683 0.12816651
000270 a3 c7 5b 3e 7f c8 0c 3e 45 e7 e4 3d 3f 1c 21 3e
       0.21462874 0.13748358 0.11176924 0.15733431
000280 98 41 4e 3e 13 4b 1b 3c a3 5d 0b 3d e9 ca 83 3d
       0.2014221 0.009478348 0.034024846 0.064351864
000290 1e 15 c0 bd 6c 23 22 3e df 80 82 3e e4 1c 80 be
       -0.09379028 0.15833825 0.25488946 -0.25022042
0002a0 e2 1d 25 3e 70 52 03 be 12 52 38 bc da f1 20 3e
       0.1612468 -0.12824416 -0.011250036 0.15717259
0002b0 99 01 29 3e 73 4d 75 3e fd 0d 45 3e 60 60 a9 bd
       0.16504516 0.23955326 0.19243617 -0.08270335
0002c0 2b d8 bb be 04 dc cf bd 58 8d 81 3d 05 a8 51 3e
       -0.3668836 -0.101493865 0.06325787 0.2047425
0002d0 6c d4 83 be 64 63 2e 3e d3 0e 66 3e 46 b3 c7 bd
       -0.25748003 0.17030102 0.22466592 -0.097509906
0002e0 6a 1d f7 bd 61 5f 86 3d 4f 5a 54 3e 52 c0 21 bd
       -0.12066157 0.06561161 0.20737575 -0.03949005
0002f0 38 2c 27 3e 6d 78 9a be 67 6c d7 3d 6f 61 2d 3e
       0.16325462 -0.30170003 0.10518723 0.16931699
000300 58 2b 97 be b5 84 49 be 9f f6 8a bd 03 e3 96 bd
       -0.29525256 -0.1967953 -0.067853205 -0.07367518
000310 75 12 f4 bd d5 2d b1 3d 0c 56 7c be f0 6a b5 3d
       -0.11917583 0.0865132 -0.246422 0.08858287
000320 8b 14 89 3d df 04 89 be b0 36 08 be 49 6d 33 be
       0.066933714 -0.2676153 -0.13302112 -0.17522158
000330 3c 7f 05 be d4 4f 57 be ff b1 70 be 4c 98 71 3d
       -0.13036817 -0.21026546 -0.235054 0.058983132
000340 23 81 ef 3d fe 82 81 be ec ad 70 bc 6d ad 05 3e
       0.11694553 -0.25295252 -0.014689904 0.13054438
000350 71 8d 6e be f4 f4 ad bd 57 b3 2e 3e 55 da a3 3d
       -0.23296143 -0.08493987 0.170606 0.08000628
000360 63 87 96 bc f6 b3 6f be d0 3a 89 3d 2b 06 38 3e
       -0.018375104 -0.23408493 0.06700671 0.17971103
000370 d1 67 dd bd 98 ff 71 be 46 b0 99 3d 43 db bd bd
       -0.10810817 -0.23632658 0.075043246 -0.092703365
000380 2f 06 b5 bd 49 52 cb 3d 78 6c 33 3d d7 84 69 be
       -0.0883907 0.09927804 0.043804616 -0.2280458
000390 1b 00 f7 3d db df f9 bd b4 27 01 3e 18 80 05 bd
       0.12060567 -0.122009 0.12612802 -0.032592863
0003a0 f1 e6 c2 bd c4 75 e0 3d 73 fe 0f 3e 88 8f 90 bd
       -0.09516705 0.10959962 0.14061908 -0.070586264
0003b0 7f 70 58 3e ae 0f de bd e9 16 3f 3e a0 63 5c be
       0.21136664 -0.108428344 0.18661083 -0.21522379
0003c0 b3 5d 21 3d e7 4e 31 be 6a 46 fc 3d 1b 5f 87 bc
       0.039396 -0.17315255 0.12318118 -0.016524842
0003d0 1e b5 3d 3e 3a 59 95 bc b5 28 64 be af ad 65 3d
       0.18526122 -0.018231023 -0.22281154 0.05607384
0003e0 e5 b3 fc 3c 88 5a 06 bd 8a c2 6e bd 5f e9 c1 bd
       0.0308475 -0.03280118 -0.058290996 -0.0946834
0003f0 72 d5 61 3e 8d 02 0b 3e ef 83 82 be 52 9a 0d 3e
       0.22054079 0.13575192 -0.25491282 0.138284

sequential_5/dense_20/MatMul f4 [5, 48]
000000 f2 cc 30 be 94 ee e4 3b 11 c2 a3 be 5f 0a 14 3e
       -0.1726568 0.0069864485 -0.31983998 0.14457081
000010 75 49 44 be f0 cb d4 be 3f 0b 03 bf ab fb 01 bf
       -0.19168647 -0.41561842 -0.51189035 -0.5077464
000020 1d fc 56 3e 7b 8a 08 be 1e 9e 62 3e c2 02 66 bd
       0.20994611 -0.13334076 0.2213063 -0.056154974
000030 ee ba 00 bc e9 78 05 be a0 f3 48 bd d2 50 44 bd
       -0.0078570675 -0.13034405 -0.049060464 -0.04792864
000040 f5 15 8a 3d 8f ba d6 be a9 d8 93 3e 2a 5c 37 be
       0.06742469 -0.41939208 0.28876236 -0.17906252
000050 9e ab b7 be 3a 35 a1 be 88 4c 99 bc 6f ef 7c be
       -0.3587312 -0.3148592 -0.01871325 -0.24700712
000060 95 24 61 3e 11 ea e1 3c b3 09 9d bc b4 65 c7 3b
       0.21986611 0.027577432 -0.019169664 0.006085122
000070 69 a0 bc 3c 45 ab 8a be de 87 10 bf 7e f1 d7 be
       0.023025708 -0.27083793 -0.56457317 -0.4217643
000080 8a 5f 84 bd e3 26 8a 3c 96 2a 59 be 7b 63 84 3e
       -0.06463535 0.016864246 -0.21207651 0.25857148
000090 73 78 75 be 44 ff 59 bd c4 b3 cc bb 5d 0c f1 be
       -0.23971729 -0.053221956 -0.0062470157 -0.47079745
0000a0 19 74 00 be 30 bb 65 bd 88 ea 37 ba af 30 95 3e
       -0.12544288 -0.05608672 -0.0007015844 0.29138705
0000b0 bd da d6 3d 36 24 e4 be fb 4d fb be 4d 9c af be
       0.1049094 -0.44558877 -0.49082932 -0.34298936
0000c0 47 28 c2 be f5 c1 00 3f dd 0b ca bd a6 92 45 3d
       -0.37921354 0.50295955 -0.09865544 0.048235558
0000d0 62 08 63 be cd 5e 08 3e ea 34 8b 3e fe 76 c8 3e
       -0.22171167 0.13317414 0.27188808 0.39153284
0000e0 a0 97 35 3d 98 63 20 be 8f 14 a9 bd 26 54 ab bd
       0.044334054 -0.15662992 -0.08255874 -0.083656594
0000f0 23 4b 98 be c9 17 6b 3f 24 c8 fb be b4 a3 34 3f
       -0.29744825 0.9183317 -0.49176133 0.7056229
000100 cf 05 c3 3c 62 7c 71 3e 2c ce 1a 3e 4c 53 33 3e
       0.02380648 0.23582605 0.15117711 0.17512244
000110 d2 cb 48 3e 7d 96 aa 3e 72 22 6b 3e eb 08 08 3f
       0.19609001 0.33317938 0.22962359 0.5313861
000120 10 33 d7 3e de ec ad be 86 45 f3 3e 2c 95 75 3e
       0.42031145 -0.33969778 0.4751398 0.23982686
000130 6d 83 3e 3e 67 19 be 3d fb 88 f6 3e 3e 5d 3a 3f
       0.18604822 0.09282189 0.48151383 0.72798526
000140 a3 54 95 be de b1 13 3f fa 27 18 3e 19 23 50 3d
       -0.29166135 0.5769328 0.14859 0.05081472
000150 02 98 aa be b7 0a 71 3e e6 a5 a0 be d8 c7 d0 3e
       -0.33319098 0.23539244 -0.3137657 0.4077747
000160 fe 10 45 3e cc 30 6b be 31 35 5b 3d b8 a9 45 3e
       0.19244763 -0.22967833 0.053517524 0.19303024
000170 89 ff d2 3e 4f b8 16 3f 15 7d 93 3e f2 08 70 3e
       0.41210583 0.5887498 0.28806368 0.23440912
000180 b6 87 9a 3e 7d 2b 27 bd c8 eb de bd 65 1d 6e 3d
       0.30181664 -0.040812958 -0.108848155 0.0581335
000190 d3 75 e8 bc 04 d7 4b be 46 2f 09 bf 34 bf 18 bf
       -0.028376495 -0.1990624 -0.5358776 -0.5966675
0001a0 0e 1b 4a be 1d 91 1a 3d 58 aa 55 be 95 07 86 be
       -0.19736883 0.037736047 -0.20865762 -0.2617766
0001b0 8f c9 02 bd d6 4d be be 0a 62 93 3d 85 f9 1a 3e
       -0.031930503 -0.3716876 0.07196434 0.15134247
0001c0 5f d4 37 3e 8a dd 02 bf f3 89 52 3e d6 e8 75 bc
       0.17952107 -0.5111929 0.20560436 -0.015009126
0001d0 ad 31 05 bf 53 63 5d 3d d1 00 ab bd ce 8f 8b 3d
       -0.52028924 0.0540498 -0.08349765 0.06814538
0001e0 20 c2 92 be 4a 85 e5 3d c1 74 ba bd 0a 01 f6 bb
       -0.2866373 0.112070635 -0.091043 -0.007507448
0001f0 29 b5 32 3e de dc a4 3e 37 26 f0 bd e6 c3 33 be
       0.1745192 0.32199758 -0.11726039 -0.17555198
000200 d3 51 0a 3d 81 e8 11 3e 92 2b 36 bd 20 b6 05 be
       0.03376944 0.1424885 -0.044475146 -0.13057756
000210 48 44 b4 bd e0 3a b2 bd a1 d3 fb 3d 2d cc fb be
       -0.08802086 -0.08702636 0.122962244 -0.4917921
000220 14 47 78 3e 27 b3 82 bd 8a cf 10 be 2c dd 09 be
       0.24245864 -0.06381827 -0.1414167 -0.13463277
000230 cd 2e 2c be 82 74 01 bf 3c 80 b1 be 56 74 af bc
       -0.16814728 -0.505684 -0.34668148 -0.021417778
000240 7c cd 23 be 2e 91 0b be fd 00 14 be cb b1 0b 3e
       -0.15996355 -0.136296 -0.14453502 0.13642041
000250 0c 3f b0 3e 57 6b 07 3e da 3a 2f be 9f 56 26 3f
       0.344231 0.1322454 -0.17112294 0.64975923
000260 f3 9e 8b be 2c 4d 79 3e 05 c8 8f 3e a8 51 e4 3d
       -0.27269706 0.24345845 0.2808229 0.11148387
000270 d6 ee cf 3c 71 5c 5a bf 41 35 29 3f 85 38 c5 3e
       0.02538244 -0.85297304 0.66096884 0.38519683
000280 50 cd a4 3d b1 d0 29 3f 59 f5 a5 be 45 eb bf 3e
       0.08046973 0.6633406 -0.32413748 0.37484184
000290 bf bb 67 be fd c8 dd 3e db 7a a7 3e 60 3b 33 3f
       -0.22630213 0.43317404 0.3271092 0.70012474
0002a0 bc be 83 3e bf 65 d3 bc 63 1b e9 be 07 4a a2 3e
       0.25731456 -0.025805352 -0.45528707 0.31697103
0002b0 55 e2 2a 3f 1b 4e 17 bd a2 36 ab 3e aa 29 9d be
       0.66751605 -0.03693972 0.3344012 -0.3069585
0002c0 0a b1 10 be 0b 24 61 bf 52 bf d8 3d db 79 64 3e
       -0.14130035 -0.8794562 0.105833665 0.22312109
0002d0 06 e7 83 be 7d 1b 0f 3f 6e fb 3f be e9 f1 ab bd
       -0.25762194 0.5590132 -0.18748257 -0.0839575
0002e0 ab 53 44 3e b3 5e 3f 3e dc bb ff be 81 80 ba 3d
       0.19172542 0.18688469 -0.49948013 0.091065414
0002f0 5c 3f 94 be 4b d1 a0 3e 02 2c ee be 26 a5 a3 be
       -0.2895459 0.31409678 -0.4651795 -0.31961936
000300 53 b2 0f bc 11 ed 1c bc 8d 36 80 be 0e 02 05 bf
       -0.008770543 -0.009578005 -0.2504162 -0.5195626
000310 70 82 17 3c 53 2b e1 3d d6 a4 c6 3e a4 07 1c be
       0.009247407 0.109945916 0.38797635 -0.1523729
000320 e2 73 82 3e 42 fc 6f be 16 cc 95 be aa 96 99 be
       0.25479037 -0.23436072 -0.29257268 -0.2999776
000330 45 d6 be 3d e1 da 38 3f 03 5e bc 3e c6 18 12 bf
       0.093182124 0.7220898 0.36790475 -0.5706905
000340 40 cf 8b 3e cd f4 e4 be 61 58 32 be d9 03 4c 3e
       0.27306557 -0.44718018 -0.17416526 0.19923343
000350 eb b2 94 3e 83 d9 03 bf 2c 04 9b 3d 87 00 4a bf
       0.29042754 -0.5150377 0.07569155 -0.78907055
000360 3e 86 1e bf 72 ed 11 be 75 04 9a 3d 30 5c 8a be
       -0.6192359 -0.14250734 0.07520381 -0.27023458
000370 7d aa 31 be c7 7a e5 3d 6d e6 ba bd ee 31 50 3f
       -0.17350192 0.112050585 -0.091259815 0.81326187
000380 c7 e7 57 be 7d 71 2c 3f 4e 54 81 3e c0 b8 b8 3c
       -0.2108451 0.6736067 0.25259632 0.022549033
000390 3c d7 06 be 80 7a ca be bf ad 5b bd f3 99 28 3f
       -0.13168043 -0.39546585 -0.053632494 0.6585991
0003a0 57 6e 15 be ba fb c4 be 4b ef cf 3b df 0d e3 3d
       -0.14592873 -0.38473302 0.0063456646 0.1108663
0003b0 0e 64 8d bc e3 e1 eb 3e e0 53 0b 3f c2 44 96 3e
       -0.017259624 0.46070775 0.5442486 0.29349333

sequential_5/dense_18/MatMul;sequential_5/dense_18/Relu;sequential_5/dense_18/BiasAdd f4 [48]
000000 86 bc 4e 3e ee 9a 0b bf f2 be 2a bf 71 52 d7 be
       0.20189103 -0.5453328 -0.6669761 -0.42055085
000010 80 f3 d9 3e 29 8f 09 3f d2 a1 be be ca bc 7e 3f
       0.42568588 0.5373407 -0.37232834 0.9950682
000020 b6 11 3b 3f fa f9 4d 3f 58 1b 05 3f f0 35 8e 3e
       0.730739 0.8045956 0.5199485 0.27775526
000030 36 30 10 be f7 04 67 bf 5c 9b 42 bf de d5 0e 3f
       -0.14080891 -0.9024195 -0.7601831 0.55795085
000040 cf 39 0b 3f d2 f1 cc be ef 0c a6 bf e4 ee 98 bd
       0.54385084 -0.40028244 -1.2972697 -0.0746744
000050 06 52 3d 3f e6 9b 1c 3e dd 22 48 3f a6 c0 0b 3d
       0.7395328 0.15293846 0.781782 0.03411927
000060 f6 e7 b0 3e 78 2a 58 3e 01 a2 52 bd fb 14 81 3e
       0.34551972 0.2110995 -0.05142403 0.2521132
000070 b0 df ca 3e 62 6d cb be e1 e9 16 be 91 36 42 be
       0.39623785 -0.3973189 -0.14737655 -0.18966128
000080 f4 62 8a 3e 76 24 d7 be 68 db 61 3f 9c 33 17 bf
       0.2702862 -0.42020005 0.8822541 -0.59063125
000090 b6 51 90 3f bf 74 9b 3e bb f6 c3 3e 69 f0 5f bf
       1.1274936 0.30362508 0.38274178 -0.8747621
0000a0 43 c5 6d 3e 95 58 fd be 1c 1d 94 3d a1 a5 82 3f
       0.2321978 -0.49481645 0.07232115 1.0206796
0000b0 cc 75 59 3f dc b7 c7 3e 19 06 5c be 7d 89 ba 3e
       0.8494537 0.3900746 -0.21486701 0.3643302
