scripts/models/simulation_capture_6s_20x_1,5x1m_simulation_6s_48x48x48_model_no_quant.tflite (tflite, 23876 bytes, 9 tensors)

dense_35/bias f4 [5]
0	0xbf4e93fe	-0.8069457
1	0x3ee5ba12	0.44868523
2	0xbf34a6bc	-0.70566916
3	0x3f045c3e	0.5170325
4	0x3f0c0190	0.54689884

dense_34/bias f4 [48]
0	0x3e4f7a82	0.20261577
1	0x3e8b1488	0.27164102
2	0x3dc065cc	0.09394416
3	0x00000000	0.0
4	0x3ea7fc24	0.32809556
5	0x3deb0add	0.114766814
6	0x3e5614a8	0.20906317
7	0xbd81653e	-0.063181385
8	0xbc835607	-0.016032232
9	0xbc2e1925	-0.010626112
10	0x3d915cbb	0.07097765
11	0xbd7adaac	-0.061243698
12	0xbd4a5cfb	-0.04940508
13	0x3de48dfd	0.111598946
14	0x3e3f9a21	0.1871114
15	0x3e453366	0.19257888
16	0x3e63a1a5	0.22229631
17	0x3ccea322	0.025224272
18	0x3d47a4ca	0.04874114
19	0xbdb99db7	-0.09063285
20	0x3d30ef56	0.043197
21	0x3e402b88	0.18766606
22	0x3e66cd3d	0.2253923
23	0xbdd9aaf9	-0.106283136
24	0xbe2f7c99	-0.17137374
25	0xbe19fbf4	-0.15037519
26	0xbe35727e	-0.17719457
27	0x3e008ed2	0.12554482
28	0x3e6793ca	0.22614971
29	0x3dbccac3	0.09218361
30	0x3db62c15	0.08895127
31	0x00000000	0.0
32	0x3cc3b9c7	0.023892296
33	0x3d95f7c1	0.07322646
34	0xbd4c7e34	-0.049925044
35	0x3d0923f9	0.03348157
36	0x3d8e986e	0.069626674
37	0x3e277e5c	0.16356796
38	0xbd96d075	-0.07363979
39	0xbda7d973	-0.08195772
40	0x3e1a680c	0.15078753
41	0x3e03a5f1	0.1285627
42	0xbeaf0094	-0.3418013
43	0xbc7a4964	-0.015276287
44	0x3e68e0f5	0.22742064
45	0x3e0cb181	0.13739587
46	0xbdb05683	-0.08610251
47	0x3cf4694c	0.029835366

dense_33/bias f4 [48]
0	0xbd082b12	-0.0332442
1	0x3c4ac384	0.012375716
2	0xbd796871	-0.06089062
3	0xbd3eb0a4	-0.046555176
4	0x3e3f419a	0.18677369
5	0x3e6e4f79	0.23272504
6	0xbe2d1655	-0.1690305
7	0x3b5ecf37	0.0033998021
8	0xbdcb7438	-0.09934276
9	0x3dc48e6a	0.09597476
10	0xbe0091f3	-0.12555675
11	0x3d388cbf	0.0450561
12	0x00000000	0.0
13	0x3da29447	0.07938438
14	0x3e598271	0.21241166
15	0x3e338f95	0.17535241
16	0x3dc26651	0.094921716
17	0x3dd24b38	0.10268253
18	0x3de3728e	0.11105834
19	0xbcde9519	-0.027170705
20	0x3e0bda1f	0.13657425
21	0x3e4c46cf	0.19948886
22	0x3bd5371c	0.0065068137
23	0xbdf412d8	-0.11917657
24	0xbda3ca3a	-0.07997556
25	0x3e4c4966	0.19949874
26	0x3e1a4670	0.15065932
27	0xbe6680cc	-0.2251007
28	0x3e712a08	0.2355119
29	0x3c4e73cb	0.012600849
30	0x3e77a0ef	0.24182485
31	0x3d7745ff	0.060369488
32	0xbd234d40	-0.039868593
33	0x3dbeb9e9	0.09312803
34	0x3d6c8d2c	0.05775182
35	0x3e204d4d	0.15654488
36	0x3da4fece	0.08056413
37	0x3cdb4c79	0.026769863
38	0x3e99b644	0.3002187
39	0x3e8cc7ec	0.27496278
40	0xbdcaecc4	-0.09908441
41	0x3dfa709e	0.12228511
42	0x3d62c60f	0.055364665
43	0xbd127f44	-0.0357659
44	0x3e4f9a67	0.20273744
45	0x3e86ea8b	0.26350817
46	0x3e3c9a5a	0.18418255
47	0x3e524917	0.20535694

sequential_8/dense_31/MatMul f4 [6, 6]
0	0xbf1d1c7d	-0.61371595
1	0x3ee06da7	0.43833658
2	0x3f350528	0.7071099
3	0xbeac6a2f	-0.33674762
4	0xbf58872e	-0.8458127
5	0x3f8a6e4c	1.081491
6	0xbf72f4f7	-0.94905037
7	0x3f8d6d00	1.1048889
8	0xbfc61642	-1.5475543
9	0x3e9e423b	0.30909905
10	0x3e0544a9	0.13014473
11	0xbf1b5d54	-0.6068928
12	0xbf1e0b62	-0.6173612
13	0xbfc66302	-1.5498965
14	0xbf0f7251	-0.5603381
15	0x3e380baa	0.179732
16	0x3f63e132	0.89015496
17	0x3c44de1e	0.0120158475
18	0xbf84683e	-1.0344312
19	0xbf625583	-0.8841173
20	0x3f1b0b90	0.6056452
21	0x4007c5d7	2.1214502
22	0xbdfea681	-0.12434102
23	0x3f6d744c	0.9275558
24	0xbfa3c04b	-1.2793058
25	0xbf3e03a9	-0.74224335
26	0xbe31b4c3	-0.17354111
27	0xbf242160	-0.64113426
28	0x3f84c402	1.0372317
29	0x3e79fa57	0.24411903
30	0xbf563c56	-0.83685815
31	0x3e021234	0.12702256
32	0x3f8c2390	1.0948353
33	0xbdc2f987	-0.0952025
34	0x3e8b17cf	0.27166602
35	0xbeef9e6c	-0.46800554

sequential_8/dense_32/MatMul f4 [48, 6]
0	0x3e5ddbe4	0.21665913
1	0x3e18676e	0.14883205
2	0x3ea827fb	0.32843003
3	0x3f01c75a	0.5069481
4	0x3eccd376	0.40005082
5	0x3b092dde	0.002093188
6	0xbe7bfd12	-0.24608257
7	0xbe0f79cf	-0.1401131
8	0xbd6d8cfc	-0.05799578
9	0xbebd5f5f	-0.36986825
10	0x3ec96294	0.39333022
11	0xbe22ca58	-0.158975
12	0xbe72cc2c	-0.23710698
13	0xbd4685b0	-0.048467338
14	0x3e638e6b	0.22222297
15	0xbec03870	-0.37543058
16	0x3d85420c	0.06506738
17	0xbe32b737	-0.17452703
18	0xbe3a9f5c	-0.18224853
19	0x3f0e638e	0.5562066
20	0xbc57f4a7	-0.013180888
21	0x3e311249	0.17292131
22	0x3e2d7d5b	0.1694235
23	0x3eac1b30	0.33614492
24	0x3eb73dcc	0.35789335
25	0xbecc2c05	-0.39877334
26	0x3e756c9d	0.23967214
27	0xbc19220a	-0.009346494
28	0x3e934aae	0.28767914
29	0xbe7dcea5	-0.2478586
30	0xbe0a7307	-0.13520442
31	0xbef009a5	-0.46882358
32	0xbe86580d	-0.26239052
33	0xbeccf9c6	-0.40034312
34	0xbd96e0f4	-0.07367125
35	0x3edeacbe	0.43491167
36	0x3e01f027	0.12689267
37	0x3e195090	0.14972138
38	0xbe2aa3fb	-0.16664116
39	0x3e47163b	0.19442074
40	0x3e04061f	0.1289296
41	0x3da443e2	0.0802076
42	0x3c9155aa	0.017741043
43	0x3d83bd39	0.06432576
44	0xbdbe451f	-0.092905276
45	0x3e4713f1	0.19441201
46	0xbd27f31c	-0.04100333
47	0xbe0d9a46	-0.13828382
48	0x3e86e324	0.2634517
49	0x3c3c62e1	0.011498184
50	0x3de4b5b9	0.11167473
51	0x3d3d97cc	0.046287343
52	0xbe080687	-0.1328374
53	0x3d83eb36	0.06441347
54	0x3ebeb8cb	0.3725036
55	0xbe527ed0	-0.20556188
56	0xbe6b7980	-0.22995567
57	0x3e33991f	0.1753888
58	0xbe4c8a3d	-0.19974609
59	0x3e346e42	0.17620185
60	0x3d9e9ff0	0.077453494
61	0x3de626d4	0.112378746
62	0x3e785006	0.24249277
63	0x3de3df19	0.11126537
64	0x3e3ad21a	0.1824421
65	0x3e855cc8	0.2604735
66	0xbb06dee3	-0.0020579628
67	0x3e13216e	0.14368221
68	0xbc778d3e	-0.015109358
69	0xbea5f446	-0.32412928
70	0x3ebf30bd	0.37341872
71	0xbe8f081c	-0.27935874
72	0xbddbc3bc	-0.10730693
73	0x3e22b867	0.15890656
74	0x3e546d6c	0.20744866
75	0xbe9bf381	-0.30459216
76	0xbd589cd3	-0.052883934
77	0xbe029e54	-0.1275571
78	0xbe382820	-0.17984056
79	0xbe6b2b68	-0.22965777
80	0x3e50fb27	0.20408307
81	0xbe71c4d5	-0.23610242
82	0xbe2aa3f4	-0.16664106
83	0xbe35bb02	-0.17747119
84	0x3e891087	0.26770422
85	0x3e581774	0.21102697
86	0x3e3bbbda	0.18333378
87	0x3e495bbc	0.196639
88	0x3ede8253	0.43458804
89	0xbe03db41	-0.12876607
90	0x3ef3227e	0.47487253
91	0x3e1456f9	0.14486302
92	0xbedf2847	-0.43585417
93	0xbf216ba4	-0.6305487
94	0x3d86b599	0.06577606
95	0xbd4e015d	-0.05029427
96	0xbd9a3acd	-0.075307466
97	0xbc1a1717	-0.009404919
98	0x3cc23c18	0.023710296
99	0xbcdbb870	-0.026821345
100	0x3eac73bd	0.3368205
101	0xbe4beca8	-0.19914496
102	0x3eb001a2	0.34376246
103	0xbe25ee8e	-0.16204283
104	0xbec364b3	-0.38162765
105	0x3dc4dcd6	0.096124336
106	0xbea85e6c	-0.32884538
107	0x3e12ffdb	0.14355414
108	0x3e8ed9ea	0.2790063
109	0xbd7c6b5e	-0.06162583
110	0xbe8f17ca	-0.27947837
111	0x3dda0614	0.106456906
112	0x3d3f87cd	0.04676037
113	0x3e733a66	0.23752746
114	0xbe23ad63	-0.1598411
115	0xbf1ac47a	-0.6045605
116	0x3d07d249	0.033159528
117	0x3e87cfb7	0.2652566
118	0x3edc18ec	0.42987764
119	0x3e7ce835	0.24697955
120	0x3eba4694	0.36381972
121	0xbebb7109	-0.36609676
122	0xbdabd917	-0.08391016
123	0xbdded1f7	-0.10879891
124	0x3c0ef412	0.008725183
125	0x3ea76b8d	0.32699242
126	0x3e928005	0.28613296
127	0xbe81296a	-0.2522691
128	0xbac64655	-0.0015127162
129	0x3e2c2727	0.1681181
130	0x3e922c9c	0.2854966
131	0xbe331d0c	-0.17491549
132	0x3e0f4024	0.13989311
133	0xbe0f2d7b	-0.13982193
134	0x3f002060	0.500494
135	0x3ee14652	0.43998963
136	0x3ed90156	0.42383832
137	0xbe615112	-0.22003582
138	0xbe41fe79	-0.1894473
139	0x3ed5a8bc	0.41730297
140	0x3e1e7306	0.15473565
141	0xbc32ea26	-0.010920083
142	0x3eddf179	0.43348292
143	0x3ec414d5	0.38297144
144	0xbe701923	-0.23447089
145	0x3ec960c3	0.39331636
146	0xbe8aadae	-0.27085632
147	0x3e7e309c	0.2482323
148	0xbdd88539	-0.10572285
149	0xbefd3e0f	-0.4946141
150	0x3e93c774	0.28863108
151	0xbe0de4af	-0.13856767
152	0x3eba1314	0.3634268
153	0xbe194d05	-0.14970787
154	0x3dd4bbe4	0.103874
155	0xbd4b9b01	-0.04970837
156	0x3f2851e8	0.6574998
157	0xbd617893	-0.05504663
158	0xbee925f2	-0.45536762
159	0x3e60b9c9	0.21945871
160	0xbec51ff6	-0.38500947
161	0xbf0830e6	-0.53199613
162	0xbe80478e	-0.25054592
163	0xbe0c9854	-0.13729984
164	0xbeb70dc7	-0.357527
165	0x3d878622	0.06617381
166	0xbe4b719d	-0.19867559
167	0xbd33f546	-0.043935083
168	0xbd93b204	-0.07211688
169	0x3e37578b	0.17904489
170	0xbea3e7c2	-0.32012755
171	0x3e95b850	0.29242182
172	0x3e923554	0.2855631
173	0x3e1d79f1	0.15378548
174	0x3e06aa60	0.1315093
175	0xbf1d8a71	-0.6153937
176	0xbd113200	-0.035448074
177	0x3ec5bfe4	0.38622963
178	0x3ed58c16	0.4170844
179	0xbe802418	-0.25027537
180	0xbe7e425a	-0.24829999
181	0xbeadc76a	-0.33941203
182	0xbe1a618b	-0.15076272
183	0xbe15c1b9	-0.1462468
184	0x3e6d46f6	0.231716
185	0x3e8acad1	0.27107862
186	0x3e0bcd87	0.13652621
187	0xbe298bc8	-0.16557229
188	0x3e103d8f	0.14085983
189	0xbd218875	-0.039436776
190	0x3c9f3ee5	0.01943917
191	0x3e49832d	0.19678946
192	0xbe37c6e0	-0.17946959
193	0xbdfc467f	-0.123181336
194	0x3e657da2	0.22411206
195	0xbd2973b1	-0.041370098
196	0xbdb1e6f2	-0.086866274
197	0x3e7558b9	0.23959626
198	0xbe139e79	-0.14415921
199	0xbe8fbad4	-0.28072226
200	0x3ddc2625	0.10749463
201	0x3ea03b76	0.31295365
202	0xbda7a913	-0.08186545
203	0xbe04fef8	-0.12987888
204	0x3ea05ec3	0.31322297
205	0x3e657bcb	0.22410505
206	0xbe823f26	-0.25438803
207	0xbf0012e9	-0.50028855
208	0x3e000503	0.12501912
209	0x3ee76211	0.45192006
210	0xbcb34457	-0.021883173
211	0x3eda6b56	0.42660016
212	0xbeccefc3	-0.40026674
213	0xbcedcb0b	-0.029027482
214	0x3d84671f	0.06464981
215	0xbe93a0c9	-0.28833607
216	0xbb4e319a	-0.003146267
217	0x3ef5c694	0.48003066
218	0x3e17b3e6	0.1481472
219	0xbf1848be	-0.59485996
220	0x3ebf0562	0.37308794
221	0x3e9a41bf	0.30128285
222	0xbd0e0997	-0.034677114
223	0x3eaf6842	0.3425923
224	0x3e7a7611	0.24459101
225	0x3e72f74c	0.23727149
226	0x3ebea94e	0.37238544
227	0xbe718e6e	-0.23589489
228	0xbefc93d3	-0.4933153
229	0xbf04ad98	-0.51827383
230	0x3e9f1c4d	0.3107628
231	0x3d27e105	0.04098608
232	0x3e276885	0.16348465
233	0x3e9ec403	0.3100892
234	0x3f0c3b17	0.54777664
235	0xbe841b9c	-0.25802314
236	0xbee30ac9	-0.44344166
237	0x3dc767ec	0.097366184
238	0x3d459034	0.048233226
239	0x3e590e6a	0.21196905
240	0xbea5cc3b	-0.32382378
241	0x3eaa807f	0.3330116
242	0xbe059753	-0.13046007
243	0xbe91c1f4	-0.28468287
244	0x3e91758c	0.28409994
245	0xbe90799d	-0.28217784
246	0xbe88ecaa	-0.2674306
247	0x3ea19c67	0.31564638
248	0xbd901819	-0.07035846
249	0xbec5820d	-0.38575783
250	0x3e830413	0.25589046
251	0xbe780bc3	-0.24223237
252	0xbd64e6df	-0.05588424
253	0x3e04c208	0.12964642
254	0x3e65a1cd	0.22425003
255	0xbee68db3	-0.45029983

sequential_8/dense_33/MatMul f4 [48, 48]
0	0xbd984da1	-0.074366815
1	0xbe281a91	-0.16416384
2	0xbe60d9dd	-0.21958108
3	0x3d5c7262	0.05382002
4	0xbe27551b	-0.16341059
5	0xbd86f380	-0.06589413
6	0xbe6a72a2	-0.22895291
7	0x3e828bca	0.25497276
8	0xbe038a62	-0.12845758
9	0x3e30e259	0.17273845
10	0x3e3eda27	0.18637906
11	0x3da4fcdc	0.080560416
12	0xbe0b7670	-0.13619399
13	0xbd3bf14b	-0.04588441
14	0xbd21b184	-0.039475933
15	0x3e69f19f	0.22846077
16	0xbe090374	-0.13380224
17	0x3ded4c64	0.11586836
18	0xbda1ac60	-0.07894206
19	0x3e349a30	0.17636943
20	0xbe8f357b	-0.2797049
21	0x3ea1088e	0.3145184
22	0x3dde9163	0.10867574
23	0x3cd7ce43	0.02634347
24	0x3dd99635	0.10624353
25	0x3e1a4eee	0.15069172
26	0x3eabe4ed	0.33573094
27	0x3dc600e7	0.09668141
28	0xbde6973c	-0.112593144
29	0x3e9aff64	0.30272973
30	0xbe3508f7	-0.17679201
31	0xbe011490	-0.126055
32	0x3c0e1a6c	0.008673292
33	0x3e202c30	0.15641856
34	0xbcffe832	-0.031238649
35	0xbd3560e1	-0.044281844
36	0xbe626636	-0.22109303
37	0xbd7d6a02	-0.061868675
38	0x3e58a151	0.21155287
39	0xbe3082ee	-0.17237446
40	0xbdda3e8f	-0.10656463
41	0x3e0a8d8e	0.13530561
42	0xbddc0e2f	-0.10744893
43	0xbe5065d3	-0.20351343
44	0x3db65491	0.089028485
45	0xbe28cbef	-0.16484044
46	0x3d5a704e	0.05332976
47	0xbd2b1568	-0.04176846
48	0xbe4f362c	-0.20235509
49	0x3d253450	0.040333092
50	0x3e2c41aa	0.16821924
51	0x3e310d10	0.17290139
52	0x3e2b396e	0.16721126
53	0x3cccd255	0.025002638
54	0x3dd1acc7	0.10238033
55	0x3e069b6a	0.13145223
56	0x3e447fde	0.19189402
57	0x3e7af517	0.24507557
58	0xbe6f7931	-0.23386075
59	0xbddecc77	-0.10878842
60	0xbe7268b0	-0.23672748
61	0x3e15ef42	0.14642051
62	0x3e2eaf18	0.1705898
63	0x3e17cc4c	0.14824027
64	0x3e4d4191	0.20044543
65	0x3e21c909	0.15799345
66	0xbe251a7c	-0.16123384
67	0xbe85c484	-0.26126492
68	0xbe0db968	-0.13840258
69	0xbbf64480	-0.00751549
70	0xbe54f670	-0.20797133
71	0xbda7f2ff	-0.08200645
72	0xbcaddf0d	-0.021224523
73	0xbdf391e2	-0.11893059
74	0x3d8c0abd	0.06837986
75	0xbe372c4f	-0.17887996
76	0xbc042777	-0.00806605
77	0xbe234db7	-0.15947615
78	0x3d88a97f	0.06672954
79	0x3b0a3669	0.002108956
80	0xbc9c7a85	-0.01910139
81	0x3e5281d6	0.20557341
82	0xbe8989c5	-0.26862922
83	0xbd93d11f	-0.07217621
84	0xbd982b33	-0.074301146
85	0xbd669f21	-0.0563041
86	0x3dea512e	0.11441265
87	0x3d5e6a1d	0.054300416
88	0x3e564d8d	0.20928021
89	0xbe3a7411	-0.18208338
90	0x3e698cf0	0.2280767
91	0xbceeaf34	-0.029136278
92	0x3dc527f9	0.09626765
93	0x3e880bd4	0.26571524
94	0xbc71ba78	-0.01475393
95	0xbdf64d58	-0.12026471
96	0x3e8881a7	0.26661417
97	0xbd4617a0	-0.048362374
98	0x3e166244	0.14685923
99	0xbd2f285f	-0.04276311
100	0xbdc1514b	-0.094393335
101	0xbeabadea	-0.33531123
102	0xbe38a908	-0.1803323
103	0x3dd07679	0.10178847
104	0xbe017651	-0.1264279
105	0xbe056bff	-0.13029478
106	0x3dc36a33	0.0954174
107	0x3d9728e2	0.07380845
108	0xbdc6fa4b	-0.09715708
109	0x3e095dd8	0.13414705
110	0xbe305999	-0.17221679
111	0x3c5228f2	0.012827145
112	0xbe1f7553	-0.155721
113	0xbd7b8f4c	-0.061415955
114	0xbe7879a6	-0.24265155
115	0x3e35e542	0.17763236
116	0xbe3d8d6c	-0.1851098
117	0x3e8180a2	0.25293452
118	0x3c945a14	0.018109359
119	0xb9260912	-0.00015834373
120	0xbe1d1c1e	-0.15342757
121	0xbe51f2fd	-0.20502849
122	0x3e0e6b63	0.13908152
123	0x3d80d8f3	0.0629138
124	0xbe0f9f13	-0.14025526
125	0x3e88ccbd	0.26718703
126	0xbcae59f0	-0.02128312
127	0xbc314310	-0.010819212
128	0xbe50b44f	-0.20381282
129	0xbe3dee24	-0.18547875
130	0xbe7d3918	-0.24728811
131	0xbd7a6d14	-0.06113918
132	0xbe4bc412	-0.19899014
133	0xbe269c0e	-0.16270468
134	0x3df6e223	0.12054851
135	0xbd58608a	-0.05282644
136	0x3d68b869	0.056816492
137	0x3e021df5	0.1270674
138	0xbe3053a2	-0.17219403
139	0xbd3a0aef	-0.045420583
140	0xbc9035a8	-0.01760371
141	0x3e302f8e	0.1720564
142	0xbe435558	-0.19075525
143	0x3e6b187e	0.22958562
144	0x3e2705fd	0.16310878
145	0x3d40de49	0.047086988
146	0x3e48bad4	0.1960252
147	0x3e618769	0.22024311
148	0x3cdd8df1	0.027045222
149	0x3e079ba3	0.13242964
150	0x3e17a732	0.14809874
151	0x3d979a04	0.07402423
152	0xbbbff06a	-0.005857517
153	0x3d8c8b7f	0.06862544
154	0x3e38986b	0.18026893
155	0xbe6a30fa	-0.22870246
156	0xbe346b85	-0.1761914
157	0x3df73262	0.12070157
158	0x3e4c980d	0.19979878
159	0xbe321bdd	-0.17393441
160	0x3d95057b	0.07276436
161	0xbe569e02	-0.20958713
162	0x3d1a760d	0.03771024
163	0xbc50c6f7	-0.012742749
164	0x3d83fa21	0.06444193
165	0xbe4c3cc5	-0.19945057
166	0x3e6a432d	0.22877188
167	0xbe16cf61	-0.14727546
168	0x3e3f969b	0.18709795
169	0x3da9d5e0	0.082927465
170	0x3d6dfcdc	0.058102474
171	0xbc9dabd4	-0.019246973
172	0xbe05228c	-0.1300146
173	0xbe32aac8	-0.1744796
174	0xbd012306	-0.03152754
175	0x3e4f3b35	0.2023743
176	0x3d9b39de	0.07579397
177	0xbe0b5d53	-0.13609819
178	0x3e2c191e	0.16806456
179	0xbe31bebc	-0.17357916
180	0xbdf6ea26	-0.12056379
181	0xbe633836	-0.22189412
182	0xbe4b7e82	-0.19872478
183	0xbd40cc73	-0.047069978
184	0xbe5c8df4	-0.21538526
185	0xbcfae982	-0.030628923
186	0xbe5d1fe8	-0.21594203
187	0x3de7874a	0.11305101
188	0x3e2b1931	0.16708829
189	0x3d2ce982	0.042214878
190	0x3d0aab99	0.033855055
191	0xbddd0873	-0.10792627
192	0x3dc29001	0.09500123
193	0xbe2cc30a	-0.16871276
194	0x3e1b857c	0.15187639
195	0x3e31122e	0.17292091
196	0xbe7fdb65	-0.24986036
197	0x3e0ea251	0.13929106
198	0xbdba16c5	-0.09086374
199	0x3e39cb1f	0.18143891
200	0x3e639643	0.22225289
201	0x3e4b670f	0.19863532
202	0xbe09f981	-0.13474084
203	0xbe7ff1c6	-0.24994573
204	0xbe57f651	-0.21090056
205	0x3e921bfd	0.28536978
206	0x3e3b0389	0.18263067
207	0xbea7416b	-0.32667097
208	0xbb57a950	-0.0032907315
209	0x3e7a9958	0.24472558
210	0xbdf633e5	-0.12021617
211	0xbdf6638c	-0.12030706
212	0x3d00bb92	0.03142888
213	0x3d98b2f3	0.07456007
214	0xbd76315e	-0.060105674
215	0x3dd590c4	0.104280025
216	0x3e5e9490	0.2173636
217	0x3d9ca079	0.07647795
218	0xbe1a22b2	-0.15052298
219	0xbe208e3d	-0.1567926
220	0xbe2f0e00	-0.17095184
221	0x3da1bb81	0.07897092
222	0x3d93e8c5	0.07222132
223	0x3e31d120	0.17364931
224	0xbe66deff	-0.22546004
225	0xbdf89bd2	-0.12139095
226	0x3c54f14f	0.012996986
227	0x3e528e41	0.20562078
228	0xbe4232da	-0.18964711
229	0x3e3236e4	0.17403752
230	0x3e81d7d2	0.2535997
231	0xbe1d9915	-0.15390427
232	0xbe44e231	-0.1922691
233	0x3c229349	0.009922811
234	0xbe42df61	-0.19030525
235	0xbe7e8852	-0.2485669
236	0xbc644cd4	-0.013934333
237	0x3b2efb3c	0.002670004
238	0xbde15605	-0.11002735
239	0x3e254e26	0.16143093
240	0x3ea3f5ca	0.3202346
241	0xbe3c7d74	-0.18407232
242	0xbe941841	-0.28924754
243	0x3c9785bf	0.018496392
244	0xbe07dc40	-0.13267612
245	0xbe3dd12f	-0.18536828
246	0x3d899563	0.067179464
247	0x3cb6fa60	0.022336185
248	0x3e3aa9c2	0.1822882
249	0xbd8b6e08	-0.06808096
250	0xbdd2722d	-0.102756836
251	0x3d07b4f4	0.033131555
252	0xbd62afdb	-0.05534349
253	0xbde1a979	-0.110186525
254	0x3e30d056	0.17266974
255	0xbeccc84c	-0.39996564

sequential_8/dense_34/MatMul f4 [48, 48]
0	0x3dc239ef	0.09483706
1	0x3e22ebc8	0.15910256
2	0xbe83c9d8	-0.25739932
3	0xbe00329c	-0.12519306
4	0x3bf266ec	0.007397523
5	0xbe9f2eea	-0.3109048
6	0xbe48fff2	-0.19628885
7	0xbe58f14b	-0.21185796
8	0xbe04cbd2	-0.12968376
9	0x3e19192f	0.14951013
10	0x3d76a1bb	0.060212832
11	0xbd0a15d7	-0.033712234
12	0x3dda6750	0.106642365
13	0xbc0ea7e3	-0.0087070195
14	0x3d699147	0.057023313
15	0xbde86c79	-0.113488145
16	0xbe2bae96	-0.16765818
17	0xbe062939	-0.13101663
18	0x3decc08a	0.115601614
19	0xbe457bf3	-0.19285564
20	0x3d940843	0.07228138
21	0x3e3ca73b	0.18423168
22	0x3df31f56	0.11871211
23	0xbdb42537	-0.08796161
24	0x3e73d4c9	0.2381164
25	0x3d13eaec	0.03611271
26	0x3e63ae69	0.22234501
27	0xbe61d75a	-0.22054806
28	0x3eabf963	0.33588704
29	0x3d089f4e	0.03335505
30	0xbbc839d4	-0.0061104093
31	0xbe56ed9b	-0.20989077
32	0xbe6b23ce	-0.22962877
33	0xbd73c405	-0.05951311
34	0xbe283625	-0.16426904
35	0x3e63b545	0.22237118
36	0xbe19c69e	-0.15017173
37	0x3e49ea59	0.19718303
38	0xbe95604c	-0.2917503
39	0x3dbf9ca3	0.09356048
40	0x3e0cee26	0.13762721
41	0xbdf43dd1	-0.11925853
42	0x3dc1c3e7	0.094611935
43	0x3e8fd701	0.28093722
44	0x3ea59e57	0.32347366
45	0xbda93738	-0.08262485
46	0x3e7b0998	0.24515378
47	0xbe34ca8d	-0.17655392
48	0xbd7b5a71	-0.06136555
49	0x3e11bc33	0.14231949
50	0xbe612faa	-0.21990839
51	0x3e60d5cf	0.21956562
52	0x3d7aa8fe	0.06119632
53	0x3dff6ad8	0.12471551
54	0xbdbdcd55	-0.092676796
55	0x3d2be4b9	0.041966174
56	0x3e1232cd	0.14277191
57	0x3e4664ba	0.19374362
58	0x3e83aee7	0.25719377
59	0x3cf742a8	0.030183151
60	0xbd2807e0	-0.041023135
61	0x3d496331	0.049166862
62	0x3db227f4	0.08699027
63	0x3e9359ca	0.2877944
64	0xbe50b84e	-0.20382807
65	0x3de91efd	0.11382864
66	0x3dc4bdf0	0.0960654
67	0xbd7b452d	-0.061345268
68	0x3e00c321	0.12574436
69	0x3e77733e	0.24165055
70	0xbc8253cf	-0.015909104
71	0xbe444212	-0.19165829
72	0xbda47116	-0.08029382
73	0xbe85009a	-0.2597702
74	0xbe2f81c1	-0.17139341
75	0xbe7331f5	-0.23749526
76	0x3e59424f	0.21216701
77	0xbdc6cadc	-0.09706661
78	0x3e87c06a	0.26513988
79	0x3c98b63b	0.018641582
80	0xbdcaaac1	-0.0989585
81	0xbe0d3e7c	-0.13793367
82	0x3e4a72c0	0.19770336
83	0xbd8b0a75	-0.06789104
84	0x3e0f77f1	0.14010598
85	0xbd85ce4a	-0.06533487
86	0xbd2c41b7	-0.042054858
87	0x3e5da1a8	0.21643698
88	0xbe5fbc0e	-0.21849081
89	0x3e696972	0.2279413
90	0xbd16f7ec	-0.03685753
91	0xbcb1f921	-0.02172524
92	0x3e50c772	0.20388582
93	0x3e896234	0.26832736
94	0x3e189e67	0.14904176
95	0x3e3b07a3	0.18264632
96	0xbdc8ab7d	-0.09798334
97	0x3e1324f3	0.14369564
98	0x3ce338b4	0.027737
99	0x3d7c9501	0.06166554
100	0xbe02f769	-0.12789692
101	0x3c586645	0.013207977
102	0x3e1a19ce	0.15048906
103	0x3e231684	0.15926558
104	0x3da553f9	0.08072657
105	0x3e2b1aba	0.16709414
106	0xbe470553	-0.19435625
107	0x3e135b45	0.14390285
108	0xbdbe2488	-0.092843115
109	0x3e366e6e	0.17815563
110	0xbc1599aa	-0.009130875
111	0x3daee43f	0.08539628
112	0x3e3d06b3	0.18459587
113	0xbd9c2fe0	-0.07626319
114	0xbdf2afcc	-0.11849937
115	0xbca3cba0	-0.019994557
116	0xbca32c00	-0.019918442
117	0xbc9f9fa8	-0.01948531
118	0xbe426a02	-0.18985751
119	0x3da2188f	0.079148404
120	0x3dabc82e	0.083877906
121	0xbea571c8	-0.3231337
122	0x3e87863d	0.26469603
123	0x3d037ece	0.032103352
124	0xbe66d4b6	-0.2254208
125	0x3e22464c	0.15847129
126	0xbe275b64	-0.16343457
127	0x3db4a1fe	0.0881996
128	0xbdecb7e2	-0.1155851
129	0xbde8ea55	-0.1137282
130	0x3e221e8c	0.15831965
131	0x3e8563c7	0.26052687
132	0x3db2dd9a	0.087336734
133	0x3cc335b7	0.023829324
134	0xbe52e587	-0.2059537
135	0xbd781ffd	-0.06057738
136	0x3da0a4cd	0.07843933
137	0x3ea1823d	0.31544676
138	0x3e9bee99	0.30455473
139	0x3e87d07c	0.26526248
140	0xbd5ba5ee	-0.05362504
141	0xbe22461b	-0.15847056
142	0x3e684385	0.22682007
143	0x3d4b2781	0.04959822
144	0xbd231490	-0.03981453
145	0xbdd0aa28	-0.10188705
146	0xbcb04d80	-0.02152133
147	0xbe734714	-0.23757583
148	0xbe18f9b0	-0.14938998
149	0xbe2a9f58	-0.16662347
150	0xbdacd020	-0.08438134
151	0xbd33fb80	-0.04394102
152	0x3cd01c60	0.025404155
153	0x3de6b8f0	0.11265743
154	0xbe4654a0	-0.1936822
155	0x3e202bec	0.15641755
156	0xbe3c85ec	-0.18410462
157	0x3ded4418	0.115852535
158	0xbe5f6194	-0.21814567
159	0xbe136ce4	-0.14397007
160	0x3e78569c	0.24251789
161	0xbe328308	-0.17432797
162	0xbd040f40	-0.032241106
163	0xbe2068dc	-0.15665
164	0x3e33a0b8	0.17541778
165	0xbc543f40	-0.012954533
166	0x3e23fb24	0.16013771
167	0x3e5bbf70	0.21459746
168	0x3db8fc78	0.090325296
169	0x3dbe1810	0.09281933
170	0xbe2fa8dc	-0.17154258
171	0xbde1ec68	-0.11031419
172	0x3e07fbbc	0.13279623
173	0x3e63a868	0.2223221
174	0xbdfbe490	-0.12299454
175	0x3dffe610	0.12495053
176	0xbe2fd868	-0.17172396
177	0x3e0213f8	0.1270293
178	0x3da474a8	0.08030063
179	0xbdc5a7a0	-0.096511126
180	0xbe25514c	-0.16144294
181	0xbe4b8638	-0.19875419
182	0xbdfa1368	-0.12210733
183	0x3cc2eda0	0.023794949
184	0xbe3c88a0	-0.18411493
185	0x3e396ab4	0.1810711
186	0xbd5b0120	-0.05346787
187	0xbe57b2f8	-0.21064365
188	0x3cd0de20	0.025496542
189	0xbe4fa454	-0.2027753
190	0xbe63e7bc	-0.22256368
191	0xbda0a030	-0.07843053
192	0xbe4a84af	-0.19777177
193	0x3de22f89	0.11044223
194	0x3c6ba748	0.014383145
195	0x3d03a14d	0.03213625
196	0xbd8b4a8c	-0.06801328
197	0xbf178a74	-0.5919564
198	0xbd6fce95	-0.05854662
199	0x3e0ccf33	0.13750915
200	0xbc19e927	-0.009393967
201	0x3e120845	0.14260967
202	0x3df8f181	0.12155438
203	0x3e0ef97c	0.13962358
204	0x3e36859c	0.17824405
205	0xbda967cd	-0.082717516
206	0xbbc818c4	-0.006106468
207	0xbd29fd5a	-0.04150138
208	0xbe2e8504	-0.17042929
209	0xbd525481	-0.05135012
210	0x3dfac285	0.12244133
211	0xbdbc78b8	-0.09202713
212	0xbeabaa5c	-0.3352841
213	0x3e13e8d7	0.1444429
214	0xbe0a100e	-0.13482687
215	0x3e20d25e	0.15705249
216	0x3d08feba	0.03344605
217	0xbdf3d8af	-0.119065635
218	0x3f0084b1	0.5020247
219	0xbe5b8c53	-0.21440248
220	0x3f13faf5	0.57804805
221	0x3e82efd3	0.25573596
222	0xbdc8a706	-0.09797482
223	0xbe8a50c5	-0.27014747
224	0xbe3c1b97	-0.183699
225	0xbe6f6e33	-0.23381881
226	0x3e22f09e	0.159121
227	0x3eb63220	0.35585117
228	0xbe2167a4	-0.15762192
229	0x3d12d458	0.035847038
230	0xbeb1f5d9	-0.3475788
231	0x3e107c69	0.14109959
232	0x3e0c167a	0.13680449
233	0xbed74191	-0.4204221
234	0xbd6c53a5	-0.057696957
235	0x3e7032c1	0.23456861
236	0x3dd5f438	0.10446972
237	0x3e24b9af	0.16086458
238	0x3eb99b60	0.36251354
239	0xbe356963	-0.17715983
240	0x3d8acbe3	0.067771696
241	0x3e627ff1	0.22119118
242	0xbe739c18	-0.23790014
243	0x3e2dd72b	0.16976611
244	0x3e2e366f	0.17012952
245	0x3e301555	0.17195638
246	0xbe2ba2d6	-0.16761336
247	0xbdadbc0e	-0.08483134
248	0xbe2e1a10	-0.1700213
249	0x3ddb47c0	0.107070446
250	0xbe771487	-0.24128924
251	0x3e027b7f	0.12742423
252	0xbe4b4690	-0.19851136
253	0x3e0ede5c	0.13952011
254	0xbd012887	-0.03153279
255	0x3db20fb2	0.086944

sequential_8/dense_35/MatMul f4 [5, 48]
0	0xbee1f4a2	-0.44131953
1	0xbf5eeaaa	-0.8707682
2	0xbe6a876f	-0.22903226
3	0xbe267f82	-0.16259578
4	0xbd13f319	-0.036120508
5	0x3e0837b7	0.13302504
6	0xbd38ef43	-0.045150053
7	0x3d81f926	0.063463494
8	0x3e678e0a	0.22612777
9	0xbe9ee569	-0.310344
10	0x3b42b66a	0.0029710778
11	0x3c00e808	0.007867821
12	0xbe81e153	-0.2536722
13	0x3e5ff387	0.21870242
14	0xbeab87ec	-0.33502138
15	0xbf0e7459	-0.5564628
16	0xbe0b4b52	-0.13602951
17	0xbe255c8a	-0.16148582
18	0xbeadf2be	-0.3397426
19	0xbdb208a4	-0.08693054
20	0x3d777ff9	0.06042478
21	0x3e266312	0.1624873
22	0xbebabeb3	-0.36473617
23	0x3c2fc739	0.010728651
24	0x3c914f6d	0.017738068
25	0x3ddd3a33	0.10802116
26	0x3d0138a4	0.031548157
27	0xbeb0a652	-0.34501892
28	0xbee1fb19	-0.44136885
29	0xbdc8f3cf	-0.09812128
30	0xbe605ef5	-0.21911223
31	0x3e14a794	0.14517051
32	0xbe95b186	-0.29237002
33	0xbea84f8f	-0.32873198
34	0x3e7942d9	0.24341907
35	0x3b9bdbf3	0.0047564446
36	0x3dc2cd84	0.09511855
37	0xbf1a965a	-0.6038567
38	0x3e71a93b	0.23599713
39	0x3e200e59	0.15630473
40	0xbdc34226	-0.09534101
41	0xbeea7b37	-0.4579713
42	0x3e733eef	0.23754476
43	0x3e53912f	0.20660852
44	0x3d4d888c	0.05017905
45	0xbd7b7bb1	-0.06139726
46	0xbd057da7	-0.032590535
47	0x3dd266a6	0.10273485
48	0x3efda63c	0.4954089
49	0x3ee10b7e	0.4395408
50	0x3e283c36	0.16429219
51	0x3b80ef00	0.003934741
52	0x3f278525	0.6543754
53	0x3eb80347	0.3594
54	0x3efc3a23	0.49263105
55	0xbe4c5f92	-0.19958332
56	0x3e9198e5	0.28436962
57	0xbe082eef	-0.13299154
58	0xbf0eed02	-0.55830395
59	0xbd9e9279	-0.07742781
60	0xbdddf517	-0.10837763
61	0x3e88cba7	0.26717874
62	0x3f0cac31	0.54950243
63	0x3eb48444	0.3525716
64	0x3f31e66e	0.6949223
65	0xbed35caf	-0.4128165
66	0xbdd3310d	-0.1031209
67	0x3d652d1f	0.055951234
68	0xbe3d3a9f	-0.18479393
69	0x3dfaebf6	0.12252037
70	0x3da82acf	0.0821129
71	0xbea4a0eb	-0.3215402
72	0x3e6eb7dc	0.23312324
73	0xbe91f6f7	-0.28508732
74	0x3e61d0bc	0.22052282
75	0x3e495732	0.19662169
76	0x3d899846	0.06718497
77	0xbec4c6cf	-0.3843293
78	0x3f2583ac	0.6465404
79	0x3e6c6ef2	0.23089197
80	0xbd9d98fe	-0.076951966
81	0x3b9525bb	0.004551617
82	0xbea6278c	-0.32452047
83	0xbe407f24	-0.187985
84	0xbe2b29e6	-0.16715202
85	0x3ee30ff0	0.44348097
86	0xbe591692	-0.21200016
87	0x3dd302f6	0.10303299
88	0x3ed88f21	0.422967
89	0xbd4494ee	-0.047993593
90	0x3e9c6752	0.30547577
91	0xbe1b16dc	-0.15145439
92	0x3ed7cdde	0.42149252
93	0x3eb4511c	0.35218132
94	0x3ddc88c2	0.10768272
95	0x3f00dba6	0.50335157
96	0xbecbdf8d	-0.39818993
97	0xbf4aea55	-0.7926381
98	0xbecce7e5	-0.4002067
99	0xbdc6b582	-0.097025886
100	0xbdf8788a	-0.12132366
101	0xbedcb381	-0.431057
102	0xbe0f9d2a	-0.14024797
103	0xbe7aa804	-0.24478155
104	0x3e3b4772	0.18288973
105	0xbe8ffb86	-0.28121585
106	0x3e189c73	0.1490343
107	0x3e855035	0.26037756
108	0x3d9db244	0.07700017
109	0xbe23219d	-0.15930791
110	0xbf05da06	-0.522858
111	0x3db919de	0.09038137
112	0xbe86f5c5	-0.26359382
113	0xbde91c55	-0.11382357
114	0xbe5adc58	-0.21373117
115	0xbdb14b89	-0.08656985
116	0x3bccca1c	0.0062496793
117	0xbed86a19	-0.42268446
118	0xbef856cb	-0.48503718
119	0xbe6a9255	-0.22907384
120	0x3eaafd2d	0.33396283
121	0x3e3760d7	0.17908035
122	0xbe186a11	-0.14884211
123	0x3c20e26c	0.009819608
124	0xbe94f310	-0.29091692
125	0x3dc68b79	0.09694571
126	0xbd6ea77d	-0.058265198
127	0xbdfc9524	-0.12333134
128	0xbd772284	-0.06033565
129	0x3e4013c3	0.18757538
130	0xbd373922	-0.04473222
131	0xbe64a291	-0.22327639
132	0x3d41c2f7	0.047305074
133	0xbf13dc61	-0.57758147
134	0xbdbf01aa	-0.09326489
135	0x3e318db0	0.17339206
136	0x3e4ed7a2	0.20199445
137	0xbe9b634f	-0.30349204
138	0x3e2caafe	0.16862103
139	0xbe9be01c	-0.3044442
140	0xbe8182a8	-0.25294995
141	0x3e4f52c9	0.20246424
142	0xbcc9f0b7	-0.024650915
143	0xbecbd61c	-0.3981179
144	0x3ef46eb2	0.47740704
145	0x3e59962e	0.21248695
146	0x3ea45467	0.32095644
147	0x3df1c11c	0.11804411
148	0x3f5e89b3	0.8692886
149	0xbf17535b	-0.59111565
150	0xbf005807	-0.5013432
151	0x3e87bbaa	0.26510364
152	0x3e8c7ff0	0.2744136
153	0xbe6b0489	-0.22950949
154	0x3e8de0cc	0.2771057
155	0xbe49e661	-0.19716789
156	0x3e4f7284	0.20258528
157	0x3e6be42f	0.23036264
158	0x3f0d98d0	0.553113
159	0x3eb1f3ca	0.3475631
160	0xbf42ec7b	-0.7614209
161	0x3ea59dfe	0.323471
162	0x3c4d941e	0.012547521
163	0xbe215e6f	-0.1575868
164	0x3e84fb41	0.25972942
165	0xbe77d9e4	-0.24204212
166	0x3d89995c	0.06718704
167	0x3ea461ed	0.3210596
168	0x3e97248e	0.29520077
169	0x3d1ac336	0.037783824
170	0xbe7083e4	-0.23487812
171	0xbec06394	-0.37575972
172	0xbf0ea32b	-0.55717725
173	0x3eb1cee6	0.34728163
174	0x3a3e38d6	0.0007256394
175	0x3e834d15	0.25644746
176	0x3e432196	0.19055781
177	0x3ce5deed	0.0280604
178	0x3e11d011	0.14239527
179	0xbdf98e6e	-0.121853694
180	0x3e78a9f0	0.24283576
181	0xbd34e8f6	-0.04416748
182	0x3d2a49c2	0.041574247
183	0xbe6d5e8b	-0.23180597
184	0x3e8cee6e	0.27525657
185	0xbd1f91c4	-0.038957372
186	0xbe019d50	-0.12657666
187	0xbe4dea3d	-0.20108886
188	0x3ecf4a23	0.4048625
189	0xbee007e2	-0.43756014
190	0xbe6971a3	-0.22797255
191	0xbeea8976	-0.45808
192	0xbec687d6	-0.3877551
193	0x3e3a713e	0.18207261
194	0xbe18d1aa	-0.1492373
195	0xbd0ad200	-0.033891678
196	0xbf9f556b	-1.2447942
197	0x3ec0666a	0.37578136
198	0x3ee482ac	0.44630945
199	0x3e0e213e	0.13879868
200	0x3df05ee0	0.11736846
201	0xbde21c48	-0.110405505
202	0x3eea292f	0.45734546
203	0xbe075820	-0.13217211
204	0xbe3379e3	-0.17526965
205	0x3ec236e7	0.37932512
206	0x3e923fe6	0.28564376
207	0x3e65cd54	0.22441608
208	0x3f3a3197	0.7273192
209	0x3d96eafe	0.0736904
210	0xbed5b344	-0.4173833
211	0xbd9e61ff	-0.07733535
212	0x3e48b0d5	0.19598706
213	0x3f084f24	0.5324576
214	0x3e26f3d2	0.16303948
215	0x3e5ede96	0.21764597
216	0xbe18d48d	-0.14924832
217	0xbd3842ae	-0.044985466
218	0xbeb416ef	-0.35173747
219	0x3dd35330	0.10318601
220	0x3ed02770	0.40655088
221	0xbe039a62	-0.12851861
222	0x3e9db38c	0.30801046
223	0xbe6206d0	-0.22072911
224	0x3d5f56d4	0.054526165
225	0x3e9a0511	0.3008199
226	0xbdd0ac5b	-0.10189124
227	0x3dbd5615	0.092449345
228	0x3e0ce866	0.13760528
229	0x3ea95682	0.33073813
230	0xbe88bd28	-0.26706815
231	0x3d0f84cc	0.035038754
232	0xbf0c83c1	-0.5488854
233	0x3e1064ce	0.14100954
234	0xbe9a782c	-0.3016981
235	0xbd98337e	-0.07431696
236	0xbe80b4fb	-0.25138077
237	0x3eb94029	0.36181763
238	0xbde10a98	-0.10988349
239	0x3e8338dc	0.25629318

sequential_8/dense_32/MatMul;sequential_8/dense_32/Relu;sequential_8/dense_32/BiasAdd f4 [48]
0	0x3e87d5c6	0.26530284
1	0x3edb10cc	0.42786252
2	0x3f074a5a	0.52847826
3	0x3ef71acb	0.4826263
4	0xbe15cbd8	-0.14628541
5	0xbeb06696	-0.34453267
6	0x3d969a1c	0.07353613
7	0x3d4673cc	0.048450276
8	0xbe07208d	-0.13196011
9	0xbf1b02a0	-0.6055088
10	0x3dc442a6	0.09583025
11	0x3f082d04	0.5319369
12	0x3ebd03c4	0.36916935
13	0xbe358fdd	-0.1773066
14	0x3ef9a464	0.48758233
15	0x3dec945b	0.11551734
16	0x3f0aadb7	0.5417132
17	0xbf145383	-0.5793993
18	0xbe1410b2	-0.14459494
19	0xbe7d7435	-0.2475136
20	0xbe556b96	-0.20841822
21	0x3d84ce45	0.06484655
22	0xbe300954	-0.17191058
23	0x3ed47461	0.4149504
24	0x3d8703a3	0.065924905
25	0x3d9f0890	0.07765305
26	0xbeb35838	-0.35028243
27	0xbeb72af6	-0.35774964
28	0x3e3ed2ae	0.18635055
29	0xbe60419a	-0.21900025
30	0x3e0be881	0.13662912
31	0xbe07ea5e	-0.13272998
32	0xbe0618a8	-0.13095343
33	0xbeeefa55	-0.46675363
34	0x3ec7d101	0.39026645
35	0x3ec32991	0.3811765
36	0x3f4933e7	0.7859482
37	0x3f11c1e3	0.5693647
38	0xbe5ea222	-0.21741536
39	0xbf13160d	-0.5745552
40	0x3f20f043	0.6286661
41	0x3f2c2b89	0.6725393
42	0x3f295e7e	0.6615981
43	0xbf21debc	-0.6323049
44	0xbe43a9b6	-0.19107708
45	0x3f50b4f8	0.81526136
46	0x3ea87f91	0.32909825
47	0xbe8d53d5	-0.2760302
