scripts/models/simulation_capture_10s_20x_1,5x1m_simulation_10s_48_model_no_quant.tflite (tflite, 5304 bytes, 5 tensors)

dense_8/bias f4 [5]
000000 4e 86 2b bf 14 4e 07 3f e6 2b 13 bf ee 1b af 3d
       -0.6700181 0.5285351 -0.5748886 0.08550249
000010 8e 80 21 3f
       0.63086784

sequential_2/dense_6/MatMul f4 [10, 10]
000000 a9 51 61 bd a3 2e d4 be d5 5d 85 3d ea 91 ea 3e
       -0.055009518 -0.4144183 0.06512038 0.4581445
000010 f7 4a 05 3f f6 d0 cd be 48 f1 c1 bb 0e 99 ab 3e
       0.5206751 -0.40198487 -0.0059186555 0.3351521
000020 51 cd 7c bf e0 ac f1 3e 6d f5 97 3f f6 5d ee 3e
       -0.9875079 0.47202206 1.1871773 0.46556062
000030 c9 33 7c bc dc a1 f0 be e4 b2 97 3e 98 0d 55 3e
       -0.015393206 -0.4699849 0.2962867 0.20805967
000040 d3 9c 80 3e 08 b5 0c bf 01 b0 84 3f e2 8d 6f be
       0.25119647 -0.5496373 1.0366212 -0.23393968
000050 b9 1c 44 be b8 d8 a9 be 12 c6 f1 3e d3 aa 3b 3f
       -0.19151582 -0.33173156 0.47221428 0.7330753
000060 66 24 4a bf 4a 31 a2 3e bb 54 a8 bf 2e 9c 59 3e
       -0.7896179 0.3167823 -1.3150858 0.21250984
000070 31 24 24 3f 26 89 4f 3f 0d 80 db 3e 6b ad 85 3e
       0.64117724 0.81068647 0.42871132 0.2610887
000080 73 79 0d be 0e 05 31 3f b6 13 0d 3e 44 23 68 3d
       -0.1381586 0.6914834 0.1377705 0.056674257
000090 64 ae bc 3e 2a 1a c4 bd 5f 54 48 3d dc a0 fe be
       0.368518 -0.09575303 0.048908588 -0.497321
0000a0 2f 90 6e bf a4 d0 cb be 4c 9d df 3d 27 9b a3 bc
       -0.93188757 -0.39807618 0.10918674 -0.019971443
0000b0 65 88 a7 bd a0 16 2a 3f 4c ae 88 3e 4b 7b 45 3f
       -0.08180312 0.66440773 0.26695478 0.77141255
0000c0 57 35 ba 3d d7 35 d3 3e 8c cc 68 3f db b0 23 be
       0.09092205 0.41252014 0.90937114 -0.15985434
0000d0 6e 5d 18 bf c2 c8 52 bf 30 5c 26 3e f0 a5 81 3e
       -0.5951756 -0.8233758 0.16246104 0.25321913
0000e0 9a 4d b1 be 49 b3 b3 3d 7d 97 3d 3f 15 8d bd bd
       -0.34629518 0.0877443 0.7405928 -0.09255425
0000f0 2e 3a 0e 3f e8 2c 41 bf fa 4c e1 3e 83 da 29 bf
       0.55557525 -0.75459146 0.4400404 -0.6634905
000100 09 41 5f bf 09 50 61 3e 3c d7 09 3f 6a 3b 66 bf
       -0.8720861 0.22003187 0.53844047 -0.8993441
000110 d5 e7 f5 be 36 94 d4 bd 4b f1 8a be ee 6c f8 be
       -0.48028436 -0.103798315 -0.27137217 -0.48520607
000120 a2 5b 21 be b6 6e e5 3e 7e e3 55 3f c6 dd a9 3c
       -0.15757611 0.44811028 0.8355025 0.020735633
000130 a3 11 e4 be 81 10 3d 3e a2 ca 88 bf 63 91 d5 3d
       -0.44544706 0.18463327 -1.0686839 0.10428121
000140 39 fb a0 3e 51 32 86 3f 32 e5 3f bc f6 dd 00 3f
       0.31441668 1.0484105 -0.011712359 0.50338686
000150 43 cf 00 3d aa fd 04 bf 2f ba 83 3f d0 d9 cd 3e
       0.03144766 -0.5194956 1.0291194 0.4020524
000160 3c 1d e0 3e af 61 0d bf 7e c3 0c 3f 07 25 1a be
       0.43772304 -0.5522718 0.549858 -0.15053187
000170 0c 27 64 3e d6 74 2b 3f 59 21 5a 3e 54 e3 9f be
       0.2228052 0.6697515 0.21301784 -0.31228125
000180 e2 36 a2 3e b6 f4 45 3f 2c ad 3b 3f 83 d1 e2 3e
       0.31682497 0.77326524 0.73311114 0.4430047

sequential_2/dense_7/MatMul f4 [48, 10]
000000 28 ce 1b be 8c cf 39 be ec df 5e be b2 8a 9f be
       -0.15215361 -0.18145579 -0.21765107 -0.31160504
000010 87 83 06 3d 45 8d c4 bc fc 11 ba bd 08 14 4f 3c
       0.032840278 -0.023993144 -0.090854615 0.012639053
000020 b1 1c 56 be 18 f3 74 3e e1 05 1c 3e 81 11 b8 bd
       -0.20909382 0.23920858 0.15236618 -0.089877136
000030 0f a5 02 3f b1 d5 45 3d c3 e2 d4 bd 58 d7 66 3e
       0.5103311 0.048299495 -0.10394814 0.22543085
000040 ab b2 99 3e a5 59 88 3c 23 67 3e bf 6b a4 06 bf
       0.30019125 0.016644308 -0.74376124 -0.5259463
000050 38 1c 3b bd 0d 15 06 3c ac 41 f3 be bd 36 7e be
       -0.04568121 0.00818373 -0.4751104 -0.24825568
000060 ef 07 a0 3d f5 17 86 3d 11 50 8b be 4f 50 f1 bd
       0.07814013 0.06547538 -0.27209523 -0.11782896
000070 32 fa a5 be e8 f1 f5 be e6 3f 0e be d3 04 1f 3d
       -0.32417446 -0.48036122 -0.13891563 0.03882296
000080 ae 53 96 3e e3 f9 71 be c1 8c fe 3d 03 6e 92 3e
       0.29360718 -0.2363048 0.124291904 0.28599557
000090 c9 25 dc 3e a0 5f 45 bd 10 fc 37 be dc a2 c3 be
       0.42997578 -0.0481869 -0.17967248 -0.3821019
0000a0 d3 cb 22 be 8a 25 a3 bd bc d7 67 be 41 da 60 be
       -0.15898065 -0.079661444 -0.2264089 -0.21958257
0000b0 33 76 a2 be 0f 2c 45 be 3e 5b 26 bd c1 92 67 bd
       -0.31730804 -0.19255088 -0.04061436 -0.05653644
0000c0 66 fd 91 be 99 93 23 3e 4c 7b e5 3d b3 73 ad be
       -0.2851364 0.15974273 0.11205158 -0.33877334
0000d0 91 ea e9 be eb 97 31 3d a9 80 a8 3e aa 6a 92 be
       -0.45686772 0.04335777 0.3291066 -0.28597003
0000e0 0c 5a 6c bd ad 4d 26 3e 4d 3f dc 3d a4 67 31 3e
       -0.057703063 0.16240568 0.10754261 0.17324692
0000f0 c5 00 24 be 79 f4 8b be 22 c1 fc 3d 7b 50 79 be
       -0.16015919 -0.27334955 0.12341525 -0.24347107
000100 38 8c 81 3e 27 d1 47 3e e2 aa ea 3d 9b a6 86 3d
       0.2530229 0.19513379 0.114583746 0.06574746
000110 71 54 5d 3e 6d f6 da bc c3 f7 0f be 4f 9a a0 3e
       0.21614243 -0.026728833 -0.14059357 0.31367728
000120 8b d0 03 bf 80 59 f8 bc 43 ab 1a be 4a 60 8c 3e
       -0.51490086 -0.030316114 -0.15104394 0.27417213
000130 ed 0b f0 bc 85 45 dc 3e e6 3b a4 bd 79 b8 b3 be
       -0.029302562 0.4302179 -0.08019237 -0.3510168
000140 d7 4a 17 3e 80 19 6e 3e 5c 09 cd be a7 32 17 be
       0.14774643 0.23251915 -0.40046203 -0.14765416
000150 aa c1 dc bd bd 4b c6 3d 85 d7 02 3f be 95 bc be
       -0.10779126 0.09682415 0.51110107 -0.36832994
000160 37 3e 4f be 82 ea b1 be 34 0e ae be 7c e1 d4 3d
       -0.20238577 -0.34749228 -0.3399521 0.1039457
000170 17 a7 05 3d 83 c3 70 be 91 a5 75 3b e2 60 95 3e
       0.032630052 -0.23512082 0.0037482718 0.29175478
000180 73 af 62 3e 67 5d 6e be 93 09 ba 3c 8e 3e ea bd
       0.22137241 -0.23277818 0.022709643 -0.114377126
000190 9c 0e fa 3d 9e 7d e2 3d c5 6d e6 be bc 4e 04 3e
       0.12209818 0.11059116 -0.45005623 0.1292066
0001a0 34 54 b2 3d 3e 15 b5 be 9d a7 a8 3d 2c 88 20 bc
       0.08707467 -0.3536777 0.08235095 -0.009798091
0001b0 24 0a 31 3f 68 d7 9e 3e 92 03 9b 3e dc 98 a5 be
       0.691561 0.31023717 0.3027616 -0.32343185
0001c0 d4 13 dc 3e 78 a4 62 3e 95 e0 be bc 1a 1e 01 bf
       0.42983878 0.22133052 -0.023300448 -0.50436556
0001d0 db 9f 87 be 43 17 8f 3e 88 0b cf be dd 4d b5 be
       -0.26489148 0.27947435 -0.40438485 -0.35410967
0001e0 a6 a9 9a bd 39 30 0a 3f 60 29 46 ba 21 52 40 3e
       -0.07551889 0.5397983 -0.0007559266 0.1878133
0001f0 9b 77 3d 3d dc 03 df 3e 17 ce 9d be 2e c4 3e be
       0.046256643 0.43557632 -0.30821297 -0.18629524
000200 8b ae 96 3e 1f ca ce 3e 48 36 30 3d 58 28 c0 bd
       0.2943004 0.4038858 0.043020517 -0.09382695
000210 a1 8e fb 3d 9f ed 95 be a8 68 86 be 15 b2 7c 3e
       0.12283064 -0.29282853 -0.2625172 0.24677308
000220 15 26 df 3d 2a 41 a9 3c c9 41 79 bc 54 f9 15 be
       0.108959354 0.020660955 -0.015213438 -0.14645892
000230 3f ad 08 bd e8 48 cb bd f8 94 1b be 1e df 4b be
       -0.033368345 -0.09926015 -0.15193546 -0.19909331
000240 17 81 78 be 8d c2 a2 3e ef fa b1 3d 3e bf 9c be
       -0.24267994 0.31789055 0.0869044 -0.30614656
000250 5b 72 21 3e 4d 4b 6b 3e 6c 1a 85 3e 57 7a 9c 3e
       0.1576628 0.22977944 0.2599672 0.30562088
000260 84 66 e5 be c6 f1 bc 3d 1c 3c 82 be c2 e3 c9 3e
       -0.44804776 0.09225802 -0.25436485 0.39431578
000270 b3 9d 33 3c 1b c3 26 3e be 91 13 be 32 9f bb 3d
       0.010962891 0.16285364 -0.14411065 0.091612235
000280 aa 93 8d 3c b4 e2 7a bd 84 37 5a 3e bc b0 76 be
       0.017282326 -0.061251357 0.2131024 -0.24090856
000290 54 25 91 bd bc 62 90 bd f7 a3 cb be ab d8 98 3e
       -0.07087198 -0.07050082 -0.39773533 0.29852805
0002a0 f0 9c 7b be 3e c3 9b bd 8b 59 be bb 35 b1 f1 bd
       -0.24571586 -0.07605599 -0.005809014 -0.11801378
0002b0 56 f3 a5 be 32 2d 02 3e 9d 02 e1 3d f2 ea 35 be
       -0.32412213 0.12712553 0.109868266 -0.17765406
0002c0 8f 95 c2 bd b2 5d df 3d 8b df 0e be 06 05 be be
       -0.09501182 0.10906543 -0.13952462 -0.37113208
0002d0 8e b3 25 be f3 2c 1e 3d cb 40 85 3e ed 66 60 be
       -0.16181776 0.038617086 0.26025996 -0.21914263
0002e0 41 0f 25 be fd 9c 21 3e 76 db d2 be b0 eb 9f 3d
       -0.161191 0.15782543 -0.4118306 0.07808626
0002f0 36 8e 28 3e 6d 46 92 be d5 6a 22 3e 61 f5 25 bc
       0.16460499 -0.28569356 0.15861066 -0.010129304
000300 23 e1 68 be 1c 7d 2a 3e 44 7f 09 be 5e c0 35 be
       -0.22742133 0.16649288 -0.13427454 -0.17749164
000310 69 9a 57 3e fd 73 32 be de 1e f0 bd f0 85 ee be
       0.21054997 -0.17427059 -0.117246374 -0.4658656
000320 c3 a7 15 be f8 bc 1f 3e b6 b7 5a 3e 7f b3 1a 3e
       -0.14614777 0.1559943 0.21359143 0.15107535
000330 77 3d 1a 3e b8 89 06 be dc 99 3e 3d 5f b8 8a 3e
       0.1506251 -0.13138473 0.04653345 0.2709379
000340 93 15 0b bf 35 9a 45 be 02 fd 2b 3e c5 51 00 be
       -0.54329795 -0.19297107 0.16795734 -0.12531193
000350 75 12 30 3d 9e 91 7f 3b fe b3 43 be 76 36 44 be
       0.042986352 0.0038996707 -0.1911163 -0.191614
000360 91 1e 14 be b3 45 78 3e 8d c4 3e be 7a 2b d7 bd
       -0.14464785 0.24245338 -0.18629666 -0.10506339
000370 b6 cd 6c bd 5c 32 84 3e 4f de 91 be c9 cc c0 bc
       -0.05781337 0.2581967 -0.2848992 -0.02353515
000380 d0 f6 25 3e 57 46 4b be c5 c2 b4 3e 68 85 8c 3e
       0.16207433 -0.19851051 0.35304847 0.2744553
000390 ac c7 0e 3e 79 65 50 3e f6 b3 d8 bd 6d 00 df 3e
       0.13943356 0.20351209 -0.105812 0.43555012
0003a0 c4 b4 c3 3e 9b 04 9b 3e 3f a5 80 3d 5d 6d 1e 3d
       0.3822385 0.3027695 0.06281518 0.038678516
0003b0 cd e6 46 3d b8 01 c1 be 8c 34 3f 3e 9f af 2a 3e
       0.048559953 -0.37696624 0.18672389 0.16668557
0003c0 78 e4 53 3e 29 7b 1d bf 90 87 12 3d d6 52 18 3e
       0.20692623 -0.6151605 0.035773814 0.1487535
0003d0 89 91 cf 3e d2 4f 94 3c ba a8 08 bd b8 c5 10 3f
       0.40540722 0.018104468 -0.033364035 0.56551695
0003e0 18 f6 ad be 2e 0c ca be a9 a4 0e 3e b1 0f 37 be
       -0.33976817 -0.39462417 0.1393 -0.1787708
0003f0 e0 65 3c 3e 08 b1 98 be e2 5e 0e 3e d8 4a 2e 3d
       0.18398237 -0.29822564 0.13903382 0.042551845

sequential_2/dense_8/MatMul f4 [5, 48]
000000 4e 75 55 3c 16 00 e4 be 03 30 b8 3c 3c 0f eb 3d
       0.013028456 -0.44531316 0.022483831 0.11477515
000010 9f 54 d6 bd a7 b6 94 3d 0d 8c 39 be 03 4c 18 3e
       -0.10465359 0.07261401 -0.18119831 0.14872746
000020 8c 88 c2 bd e8 12 a0 bd a0 d7 2a 3e 6e 98 33 bd
       -0.094987005 -0.07816106 0.16683817 -0.04384654
000030 b4 72 ef be 59 a7 3a 3e 80 a2 83 3e b5 c9 56 bc
       -0.467672 0.182279 0.25709915 -0.013109614
000040 bc 88 3f 3e ab 8e 39 bd 95 65 7b be 59 56 40 be
       0.18704504 -0.045302074 -0.24550469 -0.18782939
000050 75 b5 aa bd dc 62 4f 3e e9 19 3e 3e 6d 32 f2 be
       -0.083353914 0.20252556 0.18564571 -0.47304097
000060 c7 b8 9b 3d 5c 85 60 3e 5a 3b 5b be 96 5a 4e 3d
       0.07603603 0.21925873 -0.2140936 0.05037936
000070 7f 38 30 be 33 93 bb 3d 18 02 2d 3c d8 9c fc bd
       -0.17209052 0.091589354 0.010559581 -0.12334603
000080 a7 dc ab 3d 16 45 36 bd 16 d3 2b be ea 84 08 be
       0.083916955 -0.04449948 -0.16779742 -0.13331953
000090 fc 42 65 bc 39 6d b8 bd 5d 4e 12 3e 23 5d ef bc
       -0.013993021 -0.090052076 0.14287706 -0.029219216
0000a0 16 01 e7 bd b4 48 23 3e 66 f8 93 3e 41 86 7e bf
       -0.11279504 0.15945703 0.2890045 -0.99423605
0000b0 f9 fe e2 be 29 3a 53 bf 9d 94 0d 3c 42 16 2d be
       -0.44335154 -0.8251062 0.008641389 -0.16903022
0000c0 78 48 65 be e9 4d 52 3f f7 26 1f bf 7d 3b 2e 3f
       -0.22390926 0.8215013 -0.6216883 0.6805952
0000d0 6b e2 9c be 7e 14 c1 3d 8b 2f 47 3e 92 d0 97 bd
       -0.30641493 0.09427737 0.1945173 -0.074128285
0000e0 aa af 09 3e fa b8 08 3e 4d 6d 02 3f 0a 4c d5 3e
       0.13445917 0.13351813 0.5094803 0.41659576
0000f0 67 19 21 3f 05 07 f7 bd 0a 97 c7 be f8 91 20 be
       0.62929386 -0.12061886 -0.3898242 -0.15680683
000100 bf b5 94 3e 13 d0 f5 bd d4 be a9 3e 83 6c 44 be
       0.2904491 -0.12002578 0.33153403 -0.19182019
000110 bc 8f 0d 3f 26 b3 db bb 72 d3 43 3e 52 bb 90 3e
       0.55297446 -0.006704706 0.19123629 0.28267914
000120 c3 02 0b 3f c0 f3 ed 3e c8 f6 46 3f 64 d2 58 be
       0.5430109 0.4647503 0.7772031 -0.21174008
000130 c0 2a a3 bc 32 ac 90 3e bf 8e 81 3e 94 ab b1 3e
       -0.019917846 0.28256375 0.2530422 0.34701216
000140 db 96 16 3f 3d e3 83 3e b7 16 97 bb ef 3d df 3e
       0.5882394 0.25759307 -0.004610862 0.4360194
000150 cb c4 07 3f 0a 2a 3a 3e 78 9f fb be 2a f6 6d bd
       0.5303466 0.18180099 -0.49145103 -0.05809609
000160 9d 69 f1 3e 72 62 52 be d1 f9 6b 3e 51 92 3e 3f
       0.4715089 -0.20545366 0.23044516 0.7444201
000170 73 69 59 3d 2b d0 09 3f 45 2b a0 be 44 3b 81 3e
       0.05307908 0.53833264 -0.31283012 0.2524053
000180 c8 6e 02 3e b3 2f dc bd de be 1d be d0 46 82 3d
       0.12737572 -0.107512854 -0.15404841 0.06361163
000190 92 43 62 3e 08 21 c3 bd 18 54 bd 3d b1 f1 92 be
       0.22096089 -0.095277846 0.09244555 -0.2870002
0001a0 05 97 a4 be 6c 4b 04 3e e8 3d d4 3d 3b d8 4c be
       -0.3214647 0.12919396 0.1036337 -0.2000436
0001b0 02 a2 1c bd 73 36 44 3e 91 a2 5b bd db 51 39 be
       -0.03824044 0.19161396 -0.053621832 -0.18097632
0001c0 83 0d 62 be 70 10 2e 3e bf 10 1e be d6 7e 46 3e
       -0.22075467 0.16998458 -0.15436076 0.19384322
0001d0 bf 57 10 bf eb c5 34 be a9 07 bf bd 9b 70 b1 be
       -0.5638389 -0.17653625 -0.09327633 -0.34656224
0001e0 aa bb 44 3e 1e 3a 99 3e 2d b3 ab be d0 8f 90 be
       0.19212213 0.29927152 -0.33535138 -0.2823472
0001f0 1e fe 63 3e 44 32 46 3e 4b ff 4c be 60 a9 85 be
       0.22264907 0.19355112 -0.20019262 -0.26105785
000200 f0 e3 4c 3d 2a 3c f9 bc 0b 08 55 3e bf 02 f6 be
       0.050022066 -0.030424196 0.2080385 -0.4804897
000210 f2 d9 9e bd 45 b7 ed bd c8 e8 91 3e 62 4a 15 3e
       -0.077564135 -0.116072215 0.2849791 0.14579156
000220 7e 61 7a bd 43 c4 71 3e 71 79 a8 3e dd 76 46 bf
       -0.061128132 0.23610024 0.32905152 -0.7752512
000230 60 0a 6b be cd c7 3f bf d7 eb a8 3e 48 12 84 be
       -0.22953176 -0.74914247 0.32992432 -0.25795197
000240 ae 9d 9f be b8 a0 0e bf 4d df 73 3d 9a 24 fe bd
       -0.31174988 -0.5571399 0.059539128 -0.12409325
000250 1a 4e c1 3c 23 1f 9c be e2 d6 fc bd 61 61 a8 3e
       0.023596812 -0.30492505 -0.12345673 0.32886794
000260 93 82 e8 3e 9e b4 62 3e ed 56 e0 be 96 ba 4c bf
       0.4541212 0.22139212 -0.4381632 -0.7997221
000270 11 46 0f 3f ba 69 93 3d 72 51 02 3d 9d 8d 06 3f
       0.5596629 0.071979 0.031815954 0.52559835
000280 a3 ad 9a 3e 6a 7b a3 3e ab 49 ca be 96 5c 9b 3d
       0.302106 0.31930095 -0.3950933 0.07586019
000290 8e 29 20 be ab 14 8e be 51 f5 a5 be 47 53 ad 3e
       -0.15640852 -0.27750143 -0.32413724 0.33852598
0002a0 57 d8 35 bf 80 9d aa be 5c 50 2f bf a3 63 cc 3e
       -0.71033233 -0.33323288 -0.68481994 0.39919767
0002b0 6d 26 90 3e 27 cf 72 3f 06 7b 15 3d 0a b8 8f 3e
       0.28154317 0.9484734 0.036494277 0.28070098
0002c0 73 8e 76 be 42 d4 b1 bd 70 56 f1 3d f7 88 0a 3f
       -0.24077778 -0.08683063 0.11784065 0.5411524
0002d0 fb d3 2f 3f 01 e1 5a 3e 8c ac 05 bd ef fe a1 3d
       0.6868283 0.21374895 -0.032635257 0.07909953
0002e0 9b e1 f6 be 61 c7 63 bc 71 c5 4b 3d 57 58 e3 3d
       -0.48218998 -0.013902516 0.04974884 0.11100834
0002f0 71 83 96 3d d6 6c 40 3f a9 b2 91 3e 2e 4f ea be
       0.07349289 0.7516607 0.2845662 -0.45763534
000300 55 ad 8f 3d ce ff 0c 3f 3b 92 ee 3d cf 71 48 bc
       0.07015482 0.55077827 0.11648985 -0.012234165
000310 12 dc 3a 3e cf 60 0a 3f c3 9d 21 be 33 ac 2c bf
       0.18248013 0.5405397 -0.15782838 -0.67450255
000320 cb da fd be 2d a4 c0 be 1c 63 13 be 9a 48 03 3f
       -0.49580988 -0.37625256 -0.14393276 0.51282656
000330 e7 41 99 be 29 d8 b7 bd 3d 64 7a bc 20 4a 53 3e
       -0.29933092 -0.08976776 -0.015282688 0.20633745
000340 66 d9 88 be 56 46 de 3d b8 e4 22 3e e0 30 13 bf
       -0.26728362 0.10853259 0.15907562 -0.5749645
000350 6a ce fa 3e 10 a5 6f 3e f9 12 b1 be 2a 2b 0c be
       0.48985606 0.2340281 -0.34584787 -0.13688341
000360 dd b1 0a 3f 56 98 16 be e8 b4 72 bd 83 1f fb 3e
       0.5417765 -0.14706549 -0.059254557 0.4904748
000370 f8 fd f2 bd 3f 5a 7b bf a9 cf a7 bd 50 24 53 3e
       -0.11864847 -0.9818458 -0.08193905 0.20619321
000380 57 46 95 be a0 0e a9 be 04 bf 8e 3e 35 11 4f be
       -0.29155228 -0.3301897 0.27880108 -0.20221408
000390 e3 d1 21 bf 7e 1b 84 be d9 69 76 bd c4 3c af be
       -0.63210887 -0.25802225 -0.060159538 -0.34226048
0003a0 09 f2 f9 3e 89 3b 42 3d 1b 19 95 be ef 1e 45 3f
       0.4881747 0.04742006 -0.29120716 0.77000326
0003b0 ae c8 cb 3e ec 7f 45 be c3 a3 b6 3e 50 a3 b3 3e
       0.39801544 -0.1928708 0.35671815 0.35085535

sequential_2/dense_7/MatMul;sequential_2/dense_7/Relu;sequential_2/dense_7/BiasAdd f4 [48]
000000 70 b9 28 be a0 dc d4 3f b5 74 0b 3f d2 0f 1c 3f
       -0.16476989 1.662983 0.54474956 0.6096164
000010 0a c3 4a 3d 2e 8e 24 bd db 68 4e be cf 6b 25 3f
       0.04950241 -0.040174656 -0.20157187 0.6461763
000020 85 e4 4b 3f 05 9a 0b 3d c2 1f 59 bf d5 04 6f 3f
       0.7964557 0.03408243 -0.84814084 0.9336675
000030 9f c8 8e bf 57 79 f9 3d af de 09 bf a1 51 fa 3e
       -1.1154975 0.12181347 -0.53855413 0.48890403
000040 7e c9 03 be c5 e8 0b 3f b5 06 8d be 42 3a 34 3f
       -0.12869832 0.54652053 -0.2754418 0.70401394
000050 da fd 43 3f dc 2a fe 3e 8c 1f 89 be 93 46 bf be
       0.7655922 0.49642074 -0.2678188 -0.3735853
000060 ff d4 7b 3f 23 1e a0 bd 9c d6 a1 3f 96 7d 56 3f
       0.9837188 -0.07818248 1.2643619 0.8378538
000070 80 30 93 3d 30 0c a1 3f b0 9f 5b be 4c fa 61 be
       0.07186985 1.2581844 -0.21447635 -0.22068137
000080 29 96 46 bf 37 e0 c9 3d b2 84 f1 bc 67 a3 07 bd
       -0.77572876 0.09857219 -0.02948222 -0.033114817
000090 6d 34 06 3f 94 1b f1 3c 81 fd 8c 3e ef e8 f1 be
       0.52423745 0.029432096 0.27537158 -0.47248027
0000a0 99 f4 8c 3f 2d dd 1e bd 83 25 9a be e3 4f 17 3d
       1.1012145 -0.03878515 -0.30106744 0.03694142
0000b0 ea 9f a0 3e db 2b 8d be 89 13 a1 bd 41 45 7d 3f
       0.31372005 -0.27572522 -0.07865054 0.989338
