scripts/models/simulation_capture_18s_20x_1,5x1m_simulation_18s_32x32_model_no_quant.tflite (tflite, 10828 bytes, 7 tensors)

dense_16/bias f4 [5]
-0.6445431 0.49955568 -0.67317915 0.14708538 0.67108357
00000000: c700 25bf c3c5 ff3e 7855 2cbf 8d9d 163e
00000010: 22cc 2b3f

dense_15/bias f4 [32]
0.07500175 0.04397755 0.47966287 0.049202945 0.1749158 0.47087172 0.26735184 -0.09423008
-0.1481326 -0.1733584 -0.01516994 -0.035994582 0.06484652 0.42264286 0.10128562 -0.10255684
0.24063955 -0.025159283 0.09896571 0.050934307 -0.10378672 0.4289755 -0.13873342 -0.04707018
0.056642227 -0.1315163 0.18849726 -0.1636925 0.06252937 0.49933636 -0.0074361013 0.016858837
00000000: 849a 993d ce21 343d 5f96 f53e 0789 493d
00000010: 211d 333e 1916 f13e 57e2 883e b3fb c0bd
00000020: 13b0 17be dd84 31be 578b 78bc 0e6f 13bd
00000030: 41ce 843d a564 d83e d66e cf3d 5209 d2bd
00000040: 376a 763e d71a cebc 89ae ca3d 7ea0 503d
00000050: 228e d4bd ada2 db3e 2210 0ebe a9cc 40bd
00000060: ae01 683d 35ac 06be 6d05 413e 029f 27be
00000070: 660f 803d 04a9 ff3e 8aaa f3bb 8b1b 8a3c

sequential_4/dense_13/MatMul f4 [18, 18]
0.09774802 0.51448697 0.09472969 -0.07657777 0.23700094 0.04432366 -0.05284723 0.09076189
-0.13298523 0.2582229 0.57077515 -0.012485136 0.0771863 -0.019781437 -0.31160048 0.1068501
-0.16899516 -0.3012948 0.21246022 0.26753995 0.021077259 -0.110417366 -0.19618413 0.4310412
-0.27694362 -0.13198882 -0.18337707 0.10153431 0.41831848 -0.045597833 0.17861877 -0.049318984
0.2527581 0.4780899 -0.047808204 0.10212419 -0.037646584 -0.31133488 -0.50190485 -0.30565616
0.26306292 0.34828994 -0.29617923 0.33880138 -0.30932394 -0.25044376 -0.18356048 0.09660364
-0.32894608 0.13836822 -0.378473 -0.14614373 -0.37520424 -0.29778266 -0.017062414 -0.22688335
-0.17468703 0.21787746 0.5160877 0.030257562 -0.24455725 0.14962378 0.21435028 -0.18075792
-0.32943025 -0.027355658 -0.34506416 0.01752317 -0.09733653 0.05586183 -0.22751793 -0.30627352
-0.13430548 0.22677037 -0.47470325 0.06467221 -0.19647877 -0.16810115 -0.03525667 0.037393864
-0.48000002 0.44346797 0.33924162 -0.12460995 -0.068743266 0.5502312 -0.07400158 0.3337529
-0.7345991 -0.32682812 -0.3046911 0.22711854 0.51182556 0.2097229 0.22394665 0.17000511
-0.33084363 0.29916206 0.39294776 0.6852066 -0.33113623 0.09920408 -0.18559714 -0.33249372
-0.21830504 0.4689914 0.44602466 0.40311474 -0.011932806 0.5235719 0.40722847 -0.32028484
-0.36036175 0.18462683 0.1731457 0.16565782 0.0064569754 0.28992432 0.13930652 -0.20830998
-0.090495504 -0.42044747 0.33144286 0.3597098 0.12415959 -0.36399862 0.16220888 -0.0416521
-0.035979208 0.16156569 -0.35665628 0.66606605 0.34412083 -0.22370692 -0.13534148 -0.82641304
0.3542045 -0.09883087 0.113823704 -0.34227493 0.32167196 -0.08607802 0.39065424 -0.7041607
-0.18813106 -0.54732 0.3152146 0.18783957 0.18941064 0.48599115 -0.08963752 -0.3252818
0.39066333 -0.32243523 -0.3221886 -0.059011776 0.45912656 0.5063696 0.381949 -0.22878695
0.19840272 0.080036476 0.032151774 -0.24907035 0.41905314 0.29901555 -0.24624492 0.43054706
0.20515256 0.455285 -0.043830875 -0.025657352 -0.06833082 -0.048473373 -0.27205527 -0.10768402
-0.38382104 -0.0041069193 0.33926845 -0.11956369 -0.37567967 -0.17067248 0.23370801 0.17233813
-0.10404005 -0.11574555 0.13908611 0.29629773 -0.08299262 -0.51147467 0.06718364 -0.09551667
0.29238373 0.047557727 -0.13757831 -0.60229623 0.4033519 0.3793115 -0.527742 -0.48688537
0.12679447 0.39770883 0.25738207 0.023161186 -0.18603274 0.5475981 -0.43869004 0.090533964
-0.2895982 0.63515437 -0.21070407 0.33994213 0.12667027 -0.09770507 0.1228272 -0.15160796
0.14324598 -0.2658295 0.088172935 0.10069888 0.051134214 0.022174897 0.18752031 -0.16860825
0.3502115 0.45995674 -0.3516581 0.09211896 0.26246116 -0.1297887 0.2887284 0.23605634
-0.4494726 0.09953264 0.026583942 -0.60172594 -0.2956961 0.29220888 0.37195617 -0.4426197
-0.2751274 -0.16444767 -0.80035204 0.7371254 -0.1989085 0.3662354 0.005762617 -0.31732818
-0.3486836 0.16564359 -0.13660458 0.11115405 -0.38850442 0.18561336 0.06536308 0.3223013
00000000: 1d30 c83d 6bb5 033f a401 c23d ced4 9cbd
00000010: 60b0 723e ba8c 353d 5676 58bd 5fe1 b93d
00000020: 482d 08be cb35 843e 521e 123f 758e 4cbc
00000030: da13 9e3d ae0c a2bc 198a 9fbe 3ad4 da3d
00000040: 110d 2dbe 5043 9abe 2c8f 593e fffa 883e
00000050: 37aa ac3c 8022 e2bd 7ee4 48be 6fb1 dc3e
00000060: 8ecb 8dbe 1428 07be 33c7 3bbe 38f1 cf3d
00000070: d72d d63e cbc4 3abd d7e7 363e b402 4abd
00000080: 8269 813e 33c8 f43e 89d2 43bd 7d26 d13d
00000090: 4e33 1abd 4967 9fbe d67c 00bf f77e 9cbe
000000a0: 2fb0 863e 0f53 b23e cea4 97be 6077 ad3e
000000b0: b55f 9ebe 2a3a 80be 47f7 3bbe 21d8 c53d
000000c0: 9f6b a8be 66b0 0d3e 37c7 c1be b4a6 15be
000000d0: c51a c0be f876 98be 7ac6 8bbc 1c54 68be
000000e0: 28e1 32be 451b 5f3e 531e 043f b5de f73c
000000f0: 376d 7abe fa36 193e a47e 5b3e 9b18 39be
00000100: 15ab a8be f918 e0bc 40ac b0be c08c 8f3c
00000110: 6058 c7bd 60cf 643d 76fa 68be e2cf 9cbe
00000120: 6087 09be 7e36 683e 4e0c f3be dd72 843d
00000130: bb31 49be b522 2cbe 4c69 10bd 4f2a 193d
00000140: 90c2 f5be 3c0e e33e 14b1 ad3e 8033 ffbd
00000150: 45c9 8cbd f4db 0c3f 248e 97bd a9e1 aa3e
00000160: b00e 3cbf 0456 a7be 7900 9cbe c391 683e
00000170: 0007 033f 9ac1 563e 4552 653e d215 2e3e
00000180: 5664 a9be c52b 993e 7330 c93e b369 2f3f
00000190: b08a a9be 822b cb3d 2d0d 3ebe 9e3c aabe
000001a0: 5b8b 5fbe a41f f03e 585d e43e 0e65 ce3e
000001b0: d181 43bc cf08 063f 4080 d03e 60fc a3be
000001c0: 5681 b8be d10e 3d3e 1b4d 313e 34a2 293e
000001d0: 0995 d33b f670 943e 5ea6 0e3e 364f 55be
000001e0: b555 b9bd e444 d7be e1b2 a93e e22b b83e
000001f0: 6247 fe3d 075e babe 161a 263e 649b 2abd
00000200: ef5e 13bd 7a71 253e a79b b6be 4e83 2a3f
00000210: 9b30 b03e 6d13 65be f596 0abe ce8f 53bf
00000220: 4b5a b53e d767 cabd 671c e93d a93e afbe
00000230: 30b2 a43e ac49 b0bd d503 c83e e043 34bf
00000240: 6ea5 40be 2a1d 0cbf cf63 a13e 0459 403e
00000250: ddf4 413e d5d3 f83e e093 b7bd 568b a6be
00000260: 0605 c83e 3b16 a5be e7f5 a4be 55b6 71bd
00000270: a312 eb3e 70a1 013f d28e c33e 2047 6abe
00000280: 152a 4b3e 2aea a33d 94b1 033d 4c0c 7fbe
00000290: 228e d63e 9118 993e a127 7cbe aa70 dc3e
000002a0: 8313 523e 1e1b e93e 0188 33bd 5e2f d2bc
000002b0: 07f1 8bbd 048c 46bd d44a 8bbe 7189 dcbd
000002c0: 3184 c4be 5693 86bb 98b4 ad3e cfdd f4bd
000002d0: 1659 c0be c4c4 2ebe 2751 6f3e 6879 303e
000002e0: f312 d5bd 010c edbd 976c 0e3e 56b4 973e
000002f0: 09f8 a9bd 01f0 02bf 9497 893d 3e9e c3bd
00000300: 52b3 953e e4cb 423d 54e1 0cbe 1630 1abf
00000310: 2484 ce3e 1e35 c23e 1a1a 07bf 0a49 f9be
00000320: 69d6 013e 7ea0 cb3e 95c7 833e 87bc bd3c
00000330: 5e7f 3ebe 642f 0c3f fb9b e0be df69 b93d
00000340: 3746 94be 7a99 223f cfc2 57be e50c ae3e
00000350: dab5 013e 9919 c8bd d48c fb3d 1e3f 1bbe
00000360: 13af 123e ce1a 88be 0394 b43d 373b ce3d
00000370: 1c72 513d 21a8 b53c 5305 403e a4a7 2cbe
00000380: ec4e b33e 737f eb3e 880c b4be dea8 bc3d
00000390: 4f61 863e 54e7 04be 35d4 933e c1b8 713e
000003a0: 4621 e6be c5d7 cb3d 91c6 d93c b60a 1abf
000003b0: 7b65 97be 679c 953e 0a71 be3e 0d9f e2be
000003c0: 80dd 8cbe f864 28be dfe3 4cbf 40b4 3c3f
000003d0: abae 4bbe 3583 bb3e 56d4 bc3b d778 a2be
000003e0: a886 b2be 799e 293e 12e2 0bbe bca4 e33d
000003f0: 0dea c6be 6e11 3e3e 14dd 853d ad04 a53e

sequential_4/dense_14/MatMul f4 [32, 18]
-0.27088585 -0.1785392 0.039387297 0.16699629 0.38764754 0.06590299 -0.23368557 0.22415593
-0.4029178 0.19755976 0.10162792 -0.24808149 0.23303424 0.40271342 -0.2762287 0.17839377
0.28791195 -0.021680435 -0.15760937 0.25450808 0.53814334 0.44543892 0.12955044 -0.1117802
-0.1582124 0.20872822 0.42570743 -0.040263902 0.16220093 -0.20266642 0.057922296 0.46074557
-0.18492217 0.0028216268 0.05908454 0.40421337 0.31187692 0.39361465 -0.23651636 -0.33111447
0.38435462 0.11793572 0.21544087 0.15110879 -0.12227612 -0.26184076 -0.083383024 0.22068116
-0.22270279 0.13911968 0.38268754 0.16382363 -0.28583342 0.32477593 0.33739552 0.18597257
-0.09056078 0.2332169 0.024006113 0.08435214 -0.14552464 -0.14213733 0.16394128 -0.055080663
-0.24779184 -0.21133411 -0.32800865 -0.24233559 -0.096138515 -0.46345893 0.1215723 0.46210933
0.22236319 0.2846953 0.01633213 -0.37950227 0.20980428 -0.21172296 0.12920956 0.13321872
-0.23010293 -0.0265344 -0.24245694 -0.28826702 -0.06698552 -0.30234748 0.340611 -0.13447608
0.17422935 0.12847085 -0.19165121 0.2031626 -0.07426311 -0.18866813 0.18923737 -0.11560188
0.164529 0.40605518 0.2991454 -0.27703604 0.020069886 -0.044246268 -0.1196435 -0.41228163
0.11666417 -0.14291084 -0.09451363 0.1362839 0.10480421 0.21979357 -0.12580168 -0.08908518
-0.48684648 -0.25241715 0.11974921 0.32842594 -0.26334733 0.22092783 0.11815098 -0.31096616
-0.1184057 -0.053352475 0.11370555 -0.15970275 -0.33503473 0.1512201 -0.005569081 -0.36673787
0.2543313 -0.16287853 -0.17555243 -0.10808424 -0.45703292 -0.23864259 -0.0887394 -0.19090165
0.023900738 0.24252188 -0.2605653 0.16358988 0.294597 0.13418964 -0.30936885 -0.13795298
0.28437337 0.22968787 -0.043782458 0.17997757 0.25684607 0.24838175 0.19699116 -0.39095807
-0.44952452 -0.29499176 -0.47962964 -0.025859298 -0.208589 0.3738206 -0.20894428 0.19296196
0.004518656 -0.06491568 -0.2696338 -0.1722262 0.31572017 0.20166779 0.2528616 -0.37276384
-0.034306716 -0.12591535 0.009443921 -0.35544506 -0.03795203 -0.12865202 -0.12676269 -0.16674104
-0.10861704 -0.023884032 0.23384018 -0.12525806 -0.22992457 -0.15412162 0.34665394 0.30636436
0.16525666 0.32306883 0.18456161 -0.4321873 0.2405764 0.20299716 -0.13635224 0.20778659
-0.24009705 0.0680599 -0.03699194 -0.1258113 0.24421333 0.14175436 -0.1264567 -0.180233
0.25855836 0.07226441 -0.22345592 0.122421235 0.052976303 -0.15637152 -0.25547975 0.17560613
0.27369544 0.48539618 0.07509716 0.22351496 -0.24299583 -0.068809725 -0.2475279 -0.43587622
0.19324805 -0.27784273 0.086068355 0.117373206 0.15243532 0.035186302 0.18305877 -0.012574948
-0.37648374 0.0025272719 -0.21785694 -0.33116013 -0.3248484 0.15743081 -0.039937936 0.38346797
-0.2730596 0.11162181 -0.23780015 -0.06442136 0.0858054 0.19746172 -0.36285385 -0.51583076
-0.044682603 0.24048465 -0.012929775 -0.039488167 0.27586263 0.21870935 -0.30263612 -0.28429067
-0.18115339 -0.23199327 -0.3170767 0.09317194 0.016497212 -0.059224423 0.27392673 0.058296524
00000000: 8db1 8abe fbd2 36be 9354 213d 1301 2b3e
00000010: bd79 c63e 26f8 863d 454b 6fbe 2289 653e
00000020: 3e4b cebe 1b4d 4a3e 4d22 d03d 1309 7ebe
00000030: 87a0 6e3e 7430 ce3e d96d 8dbe dbac 363e
00000040: 3269 933e 2b9b b1bc 5a64 21be e24e 823e
00000050: c3c3 093f 9210 e43e dfa8 043e 04ed e4bd
00000060: 6e02 22be dabc 553e 53f6 d93e c3eb 24bd
00000070: 0018 263e c987 4fbe ee3f 6d3d d8e6 eb3e
00000080: 3d5c 3dbe 0beb 383b a102 723d 0ef5 ce3e
00000090: 55ae 9f3e dc87 c93e 5831 72be d687 a9be
000000a0: 21ca c43e 4888 f13d 889c 5c3e 43bc 1a3e
000000b0: e76b fabd fe0f 86be b8c4 aabd 3efa 613e
000000c0: 330c 64be 6475 0e3e 9fef c33e 62c1 273e
000000d0: c258 92be 0849 a63e 1bbf ac3e 986f 3e3e
000000e0: ee77 b9bd 69d0 6e3e 78a8 c43c d1c0 ac3d
000000f0: 6904 15be 738c 11be 39e0 273e 439c 61bd
00000100: 25bd 7dbe f867 58be c0f0 a7be d226 78be
00000110: 45e4 c4bd 7d4a edbe e6fa f83d 9899 ec3e
00000120: 2db3 633e 95c3 913e f6ca 853c 1f4e c2be
00000130: efd6 563e e7cd 58be 834f 043e 7d6a 083e
00000140: 1aa0 6bbe ac5e d9bc a246 78be bc97 93be
00000150: b42f 89bd 4acd 9abe 9164 ae3e 19b4 09be
00000160: 2e69 323e dd8d 033e 3740 44be db09 503e
00000170: 4217 98bd 3832 41be 71c7 413e aec0 ecbd
00000180: 4a7a 283e 77e6 cf3e 9629 993e abd7 8dbe
00000190: 9a69 a43c 933b 35bd a707 f5bd 9416 d3be
000001a0: a0ed ee3d 3857 12be 5d90 c1bd 028e 0b3e
000001b0: 97a3 d63d 9111 613e 28d2 00be 4a72 b6bd
000001c0: f143 f9be d23c 81be 133f f53d 7227 a83e
000001d0: 76d5 86be e83a 623e 24f9 f13d f536 9fbe
000001e0: b07e f2bd 2088 5abd 75de e83d 1e89 23be
000001f0: ac89 abbe 71d9 1a3e d67c b6bb 11c5 bbbe
00000200: b637 823e a1c9 26be 04c4 33be 455b ddbd
00000210: 3800 eabe b95e 74be 01bd b5bd b97b 43be
00000220: 7bcb c33c a857 783e d168 85be 1b84 273e
00000230: 6bd5 963e 0269 093e 9865 9ebe 8c43 0dbe
00000240: 6399 913e 4c33 6b3e 3c55 33bd 0a4c 383e
00000250: 5481 833e c957 7e3e 0db8 493e a82b c8be
00000260: 1428 e6be 2909 97be 0492 f5be e1d6 d3bc
00000270: 5b98 55be 6a65 bf3e 7df5 55be d297 453e
00000280: 3c11 943b 83f2 84bd 710d 8abe 115c 30be
00000290: 13a6 a13e 0082 4e3e 1377 813e e7da bebe
000002a0: 3385 0cbd f4ef 00be adba 1a3c e5fc b5be
000002b0: 9673 1bbd 5bbd 03be 14ce 01be 2abe 2abe
000002c0: 9c72 debd 72a8 c3bc cd73 6f3e a643 00be
000002d0: 5971 6bbe 0fd2 1dbe a07c b13e cadb 9c3e
000002e0: 0b39 293e 4769 a53e b8fd 3c3e a747 ddbe
000002f0: a959 763e 7dde 4f3e ec9f 0bbe 02c6 543e
00000300: 00dc 75be fd62 8b3d dc84 17bd add4 00be
00000310: 0f13 7a3e 0e28 113e dd7d 01be 008f 38be
00000320: c361 843e 5dff 933d a1d1 64be fcb7 fa3d
00000330: aefd 583d db1f 20be 3ece 82be 18d2 333e
00000340: cf21 8c3e d985 f83e 8acc 993d 1be1 643e
00000350: e6d3 78be 1dec 8cbd f477 7dbe 2b2b dfbe
00000360: d1e2 453e 6741 8ebe 9b44 b03d 5d61 f03d
00000370: 0118 1c3e 831f 103d c273 3b3e 2807 4ebc
00000380: 7ac2 c0be 96a0 253b e415 5fbe d28d a9be
00000390: 8852 a6be 8b35 213e f695 23bd ea55 c43e
000003a0: 78ce 8bbe fa99 e43d e281 73be 59ef 83bd
000003b0: beba af3d 6833 4a3e fbc7 b9be 7c0d 04bf
000003c0: 1b05 37bd 9c41 763e 68d7 53bc 58be 21bd
000003d0: de3d 8d3e 58f5 5f3e 1ff3 9abe 8c8e 91be
000003e0: 4680 39be a58f 6dbe e157 a2be eed0 be3d
000003f0: 2925 873c 4f95 72bd 2040 8c3e 56c8 6e3d

sequential_4/dense_15/MatMul f4 [32, 32]
-0.2642965 0.015134376 -0.07608532 -0.29181007 -0.178424 -0.18230633 -0.08497419 -0.1267664
-0.26321852 -0.06276263 0.13260339 -0.029188339 0.075931095 -0.08899693 0.22178152 -0.19122401
-0.12593222 -0.018274806 0.26102537 0.15318762 -0.28667498 0.16598599 0.22097488 0.09084322
-0.31323662 -0.30490214 0.010298889 0.030978449 0.073993295 0.22661069 -0.15134086 0.11721866
0.19618294 -0.029282775 0.2197356 -0.1928449 -0.047427185 -0.06282623 -0.19343519 -0.13734217
0.21066916 -0.28479868 0.15258627 0.4013355 -0.3133579 -0.19109914 0.1047179 0.20219365
0.2569061 0.1067745 -0.08709954 0.106220566 -0.1061404 0.19760267 0.05673923 -0.29667488
0.06512173 0.06203048 0.2738793 -0.053017445 -0.37453604 -0.42533743 0.058739 0.021366792
-0.20967814 0.26482594 -0.26258022 -0.14962584 -0.35615844 -0.3772847 -0.23437014 0.25340116
-0.30086306 -0.112135895 0.21479857 0.40095645 -0.15646437 0.020111995 -0.020795777 0.05879449
-0.2652546 -0.2161853 -0.13950059 0.2628641 0.10479556 -0.18189213 0.28080824 -0.079848886
0.15252315 -0.1746023 0.36643082 -0.23442264 -0.38328528 -0.14414224 -0.0594673 -0.2822757
-0.30803606 0.19113956 0.18487446 -0.24665944 0.38415113 -0.20083503 0.36698756 0.12533255
-0.4110183 0.114104174 0.18894053 0.17495511 0.3456709 -0.21848312 0.034078516 -0.19124043
-0.1271906 0.2647225 -0.079058476 -0.50398314 -0.28794798 0.011441625 -0.23020072 0.3330404
-0.16223183 -0.21170595 -0.011975319 -0.09355976 0.093943246 0.33277598 -0.2209225 0.029907454
0.1303104 -0.3573735 0.30908087 -0.033668626 0.3300155 0.121136226 -0.101230435 -0.14504956
0.28446728 0.11170047 0.41069266 0.11845871 -0.3529193 -0.34883186 -0.12625286 0.20164683
-0.20532607 0.050960463 0.16537198 0.17835367 -0.28004262 -0.15813531 0.15780833 -0.10852641
-0.022947138 0.28808233 0.062461436 0.16099465 -0.43100512 -0.19523141 -0.15564272 0.05280299
0.21798195 0.4205648 -0.25572845 -0.27131718 -0.2711496 -0.014432103 -0.24287622 -0.07853025
-0.15352671 0.12129786 0.37930316 0.1064214 0.049197044 -0.14085941 0.17166342 0.13508672
0.0887297 0.2965148 -0.0747604 0.37065953 -0.12424475 -0.3382289 -0.28762716 -0.19125506
0.0493637 -0.20079662 0.33981863 0.23761009 -0.3588006 -0.017968962 -0.30341503 0.12131594
-0.2824153 0.19326663 0.07222288 -0.18143855 -0.108670406 0.091988705 -0.14897874 -0.18719555
-0.28761852 0.19860159 0.14968522 0.2410194 0.16136317 0.14637452 0.20463602 -0.075181924
-0.28020436 -0.15594755 0.20899017 -0.08507228 -0.17669797 -0.24822548 -0.045201924 -0.14986919
0.1403415 -0.2570386 0.26147944 -0.10145471 -0.12620074 -0.16284634 -0.12182475 0.19014418
0.25105926 -0.09730235 -0.2863616 -0.28867948 -0.28515044 -0.053824473 0.22153652 -0.19585767
0.2513432 0.14191408 0.07819528 0.081714064 0.09163189 -0.065635 -0.29193342 0.12256694
-0.05851673 -0.22978632 -0.10392836 -0.10688893 -0.06346022 -0.12035356 0.20431262 -0.023320436
-0.2504093 0.14983346 -0.037340656 -0.29419255 -0.022026902 0.24456781 0.08966654 0.1704124
00000000: df51 87be 2cf6 773c 9fd2 9bbd 2168 95be
00000010: c8b4 36be 83ae 3abe f306 aebd 0dcf 01be
00000020: 94c4 86be b289 80bd 2fc9 073e 621c efbc
00000030: c381 9b3d 0644 b6bd b21a 633e 3ad0 43be
00000040: 60f4 00be 0cb5 95bc 1ea5 853e 37dd 1c3e
00000050: 10c7 92be 3bf8 293e 3d47 623e 030c ba3d
00000060: 8d60 a0be 221c 9cbe acbc 283c 84c6 fd3c
00000070: cc89 973d a20c 683e 19f9 1abe 5610 f03d
00000080: 2ee4 483e 6ee2 efbc 5e02 613e 2279 45be
00000090: 0243 42bd 0aab 80bd e013 46be 6da3 0cbe
000000a0: a8b9 573e 22d1 91be 933f 1c3e d97b cd3e
000000b0: 7270 a0be 7eaf 43be 5776 d63d da0b 4f3e
000000c0: 3289 833e 97ac da3d 3e61 b2bd 2b8a d93d
000000d0: 2360 d9bd 5b58 4a3e 6567 683d c5e5 97be
000000e0: 8b5e 853d ac13 7e3d e839 8c3e d228 59bd
000000f0: 30c3 bfbe d4c5 d9be 4e98 703d 6909 af3c
00000100: deb5 56be 4497 873e ea70 86be 8437 19be
00000110: 665a b6be 762b c1be bafe 6fbe ccbd 813e
00000120: b90a 9abe 81a7 e5bd 28f4 5b3e 2a4a cd3e
00000130: 3238 20be e9c1 a43c e85b aabc 7ed2 703d
00000140: 73cf 87be ae5f 5dbe 3ed9 0ebe 2096 863e
00000150: 0e9f d63d ee41 3abe 19c6 8f3e d087 a3bd
00000160: 072f 1c3e f2ca 32be d29c bb3e 7d0c 70be
00000170: f83d c4be 069a 13be fc93 73bd 7186 90be
00000180: e7b6 9dbe 17ba 433e bb4f 3d3e 4b94 7cbe
00000190: 75af c43e b3a7 4dbe cbe5 bb3e 2d57 003e
000001a0: fe70 d2be 73af e93d a079 413e 6f27 333e
000001b0: c7fb b03e 0aba 5fbe ea95 0b3d 88d4 43be
000001c0: 413e 02be b589 873e 69e9 a1bd 0a05 01bf
000001d0: eb6d 93be a775 3b3c bdb9 6bbe 4584 aa3e
000001e0: 1a20 26be 72c9 58be 2134 44bc 429c bfbd
000001f0: 5165 c03d 9d61 aa3e 8239 62be 7a00 f53c
00000200: 1770 053e a9f9 b6be d93f 9e3e 1de8 09bd
00000210: cbf7 a83e 4516 f83d e751 cfbd df87 14be
00000220: b2a5 913e 37c3 e43d 4f46 d23e 7b9a f23d
00000230: d7b1 b4be 179a b2be 6e48 01be 827c 4e3e
00000240: ff40 52be ebbb 503d 4657 293e 58a2 363e
00000250: bf61 8fbe 39ee 21be 8298 213e 1843 debd
00000260: a3fb bbbc 877f 933e 90d7 7f3d c8db 243e
00000270: b4ac dcbe beea 47be ce60 1fbe f347 583d
00000280: a936 5f3e 4554 d73e d7ee 82be 16ea 8abe
00000290: 1fd4 8abe a174 6cbc 8bb4 78be 78d4 a0bd
000002a0: 1b36 1dbe 036b f83d 0634 c23e 77f3 d93d
000002b0: d782 493d 733d 10be 89c8 2f3e 2c54 0a3e
000002c0: ebb7 b53d cad0 973e fb1b 99bd 16c7 bd3e
000002d0: 0874 febd 572c adbe de43 93be 5ed8 43be
000002e0: 9731 4a3d a19d 4dbe b5fc ad3e 0f50 733e
000002f0: b6b4 b7be a533 93bc 3759 9bbe 7e74 f83d
00000300: bd98 90be b0e7 453e 97e9 933d 07cb 39be
00000310: 978e debd 9364 bc3d e28d 18be 31b0 3fbe
00000320: bc42 93be 375e 4b3e 1547 193e cacd 763e
00000330: 633c 253e 34e3 153e 1b8c 513e fbf8 99bd
00000340: f276 8fbe b7b0 1fbe 8501 563e 603a aebd
00000350: 50f0 34be d22e 7ebe a725 39bd 4f77 19be
00000360: afb5 0f3e 909a 83be a2e0 853e 7dc7 cfbd
00000370: c43a 01be 31c1 26be 417f f9bd 28b5 423e
00000380: d78a 803e 7446 c7bd fd9d 92be cccd 93be
00000390: 3dff 91be 0d77 5cbd 78da 623e ea8e 48be
000003a0: 0eb0 803e ed51 113e d924 a03d b459 a73d
000003b0: 80a9 bb3d a56b 86bd 4c78 95be 6004 fb3d
000003c0: 3daf 6fbd 1b4d 6bbe 64d8 d4bd 95e8 dabd
000003d0: 6ff7 81bd ed7b f6bd 5437 513e 800a bfbc
000003e0: a635 80be f16d 193e 84f2 18bd 68a0 96be
000003f0: c371 b4bc fc6f 7a3e 17a3 b73d 9780 2e3e

sequential_4/dense_16/MatMul f4 [5, 32]
-0.33321968 -0.5387561 -0.14678735 -0.3826298 -0.25076374 -0.17282125 -0.43566474 -0.33775675
-0.06796373 -0.13879675 0.09343656 0.15768693 -0.21174103 -0.41485107 -0.44713268 0.20849584
-0.40518883 -0.39954612 0.20197777 -0.4929219 0.28454074 0.005428466 0.312289 0.26741832
-0.0981083 0.016547082 -0.50439113 -0.03202191 -0.45676723 -0.6736054 -0.19311842 -0.1127099
-0.3721756 0.3934838 0.52460134 -0.49904105 0.704955 0.5456124 0.2681088 -0.2619203
0.47192702 0.30768865 -0.38193414 -0.057218183 0.23265545 0.74426126 -0.075910285 -0.13823797
0.55647135 0.09094763 0.3813682 0.45066252 -0.102603644 0.4905227 -0.05304414 -0.34937438
-0.4034552 0.5311073 0.27141514 0.39436325 0.34023237 0.6710863 0.36950648 -0.22082558
0.34352833 0.10451143 -0.2229625 0.20321444 -0.5189614 -0.4715331 -0.44700584 -0.16646914
-0.049226865 -0.15115516 -0.21030374 0.054126836 -0.30860868 -0.24733555 -0.039017502 0.3347499
-0.35335955 0.10544041 -0.37692425 -0.73943865 0.16525212 -0.39283118 -0.18816258 -0.072577216
-0.32832706 -0.3644898 -0.45497993 0.0015384579 0.021291658 -0.3838051 0.17077275 0.33187613
0.031036915 -0.15295355 -0.79066724 0.19438812 0.08550574 -0.67709076 -0.34246507 0.04857503
0.33799353 0.20165844 0.16458088 -0.3204136 0.03501178 1.1500955 -0.36474326 -0.17879535
-0.14303896 0.585352 -0.033798203 0.39992493 -0.34983677 -0.48978305 0.158839 -0.11665398
-0.17150779 0.5190186 -0.21407147 0.18685557 -0.2861812 -0.4284812 0.031855814 0.28752872
0.032591812 -0.09277878 0.7074491 0.21291466 0.09220082 0.6654298 0.38981846 0.16214654
-0.59337527 -0.35062987 0.096471064 0.3181423 0.46860033 -0.99414754 0.120608635 0.3787804
0.22778437 -0.58881116 0.48603457 -0.21005394 -0.14591922 0.58516747 -0.15455696 -0.116078414
0.35386696 -0.74621654 0.15382232 -0.24313746 0.017402928 0.8704911 -0.21941562 0.51666963
00000000: c59b aabe ebeb 09bf 6c4f 16be 0ee8 c3be
00000010: 1b64 80be 0ef8 30be 730f dfbe 74ee acbe
00000020: 9130 8bbd bc20 0ebe ab5b bf3d af78 213e
00000030: a4d2 58be 5c67 d4be 93ee e4be ef7f 553e
00000040: e974 cfbe 4f91 ccbe 43d3 4e3e 4260 fcbe
00000050: 53af 913e 46e1 b13b 58e4 9f3e 0eeb 883e
00000060: 01ed c8bd bf8d 873c c71f 01bf 6829 03bd
00000070: 65dd e9be 6771 2cbf d6c0 45be 73d4 e6bd
00000080: cd8d bebe b576 c93e 464c 063f 4f82 ffbe
00000090: ee77 343f 41ad 0b3f 8e45 893e 6b1a 86be
000000a0: 6ba0 f13e 5e89 9d3e df8c c3be 9d5d 6abd
000000b0: 3b3d 6e3e e887 3e3f da76 9bbd 418e 0dbe
000000c0: e874 0e3f c042 ba3d b142 c33e 3dbd e63e
000000d0: dc21 d2bd cb25 fb3e d044 59bd 33e1 b2be
000000e0: ae91 cebe a6f6 073f edf6 8a3e fbe9 c93e
000000f0: f032 ae3e 50cc 2b3f f42f bd3e 1a20 62be
00000100: f2e2 af3e 170a d63d 4850 64be 7217 503e
00000110: a8da 04bf c96c f1be f3dd e4be e376 2abe
00000120: 1ca2 49bd 6bc8 1abe dd59 57be 1ab4 5d3d
00000130: f501 9ebe 8845 7dbe d1d0 1fbd 5764 ab3e
00000140: 8beb b4be 24f1 d73d 37fc c0be da4b 3dbf
00000150: da37 293e 2b21 c9be b1ad 40be 5da3 94bd
00000160: 7c1a a8be 689e babe 21f3 e8be 15a6 c93a
00000170: d86b ae3c 1a82 c4be 0ddf 2e3e abeb a93e
00000180: 2141 fe3c db9f 1cbe 2b69 4abf ae0d 473e
00000190: a21d af3d d255 2dbf 9557 afbe 9cf6 463d
000001a0: 7d0d ad3e 8d7f 4e3e e487 283e 400d a4be
000001b0: 8368 0f3d 5436 933f a1bf babe 2116 37be
000001c0: ce78 12be a1d9 153f fc6f 0abd f6c2 cc3e
000001d0: ce1d b3be d8c4 fabe b1a6 223e 48e8 eebd
000001e0: bd9f 2fbe 67de 043f 8d35 5bbe 1157 3f3e
000001f0: 5886 92be e361 dbbe 3e7b 023d f736 933e
00000200: fe7e 053d cd02 bebd 621b 353f 4d06 5a3e
00000210: c9d3 bc3d 9b59 2a3f 4996 c73e be09 263e
00000220: 71e7 17bf c285 b3be 9f92 c53d 8ce3 a23e
00000230: 62ec ef3e 7480 7ebf a901 f73d 81ef c13e
00000240: 4e40 693e 54bc 16bf 86d9 f83e 6118 57be
00000250: d96b 15be 89cd 153f 2e44 1ebe 85ba edbd
00000260: 0d2e b53e 0c08 3fbf 9983 1d3e 07f9 78be
00000270: 9690 8e3c 81d8 5e3f 7dae 60be 7644 043f

sequential_4/dense_14/MatMul;sequential_4/dense_14/Relu;sequential_4/dense_14/BiasAdd f4 [32]
0.18475154 0.9218672 -0.09729704 -0.49916303 -0.0069693513 0.19376287 -0.0986748 0.4511886
-0.21360463 0.37598214 0.30706173 0.50083846 0.33989146 0.2688952 0.6814668 -0.41028732
0.011243124 0.071854904 0.106843926 -0.2420129 0.029156888 -0.14825025 -0.13679922 0.78539735
-0.056176506 -0.09880395 0.40871993 -0.20778571 0.24223666 0.31069535 -0.5744743 -0.103167444
00000000: 822f 3d3e 7dff 6b3f ac43 c7bd 4c92 ffbe
00000010: 285f e4bb c669 463e 0316 cabd 3102 e73e
00000020: 2cbb 5abe bb80 c03e 3237 9d3e f336 003f
00000030: 4106 ae3e a2ac 893e 9c74 2e3f 2e11 d2be
00000040: 1435 383c aa28 933d fdd0 da3d 3bd2 77be
00000050: 6dda ee3c eace 17be 1815 0cbe cd0f 493f
00000060: 5619 66bd ba59 cabd bd43 d13e c7c5 54be
00000070: e30c 783e 7613 9f3e bf10 13bf 7449 d3bd
