scripts/models/simulation_capture_6s_20x_1,5x1m_simulation_6s_32x32x32_model_no_quant.tflite (tflite, 12740 bytes, 9 tensors)

dense_30/bias f4 [5]
00000000: fcfa 4fbf 02b3 153f 33a2 53bf 8d4d ca3e
00000010: 91c3 283f
-0.81242347 0.5847627 -0.8266937 0.39512292 0.6592341

dense_29/bias f4 [32]
00000000: 682f eebd 4989 dfbc 5a0d f9bd 092c 2e3e
00000010: c539 c23e 380f de3e 3af4 c13e f72e 63bd
00000020: b14b 253e f8c3 a7bd 4963 f23e ebe2 183f
00000030: fb7f b8be 02a6 a93d 9659 09be 9e9c 01be
00000040: fc53 973d 2c6e 45be df17 953e 7dfd 033d
00000050: 5f66 85be 21ff 033f 5f4a 9b3d 4bdb c13d
00000060: 3957 de3c e30a 883d 211b ad3d 28e0 67bd
00000070: 0000 0000 8d17 5fbe 215f f1bd a2c2 89bd
-0.11630136 -0.027287142 -0.1216075 0.17008986 0.379347 0.43370986 0.37881643 -0.05546471
0.16142155 -0.08191675 0.47341374 0.5972125 -0.3603514 0.082836166 -0.1341308 -0.12657401
0.073890656 -0.19280308 0.29119775 0.032224167 -0.26054665 0.5156117 0.075825445 0.09465655
0.0271412 0.066427015 0.0845244 -0.056610256 0.0 -0.21786328 -0.117857225 -0.067265764

dense_28/bias f4 [32]
00000000: 97ff 9a3e 8ba9 4d3c bef3 49bd cb13 0bbe
00000010: e0ac 503d fe30 63bb 0661 5dbd be26 81be
00000020: 0000 0000 1b31 9aba d061 b7ba 77e9 0f3e
00000030: 3e60 1bbe 8a1b 47bd 09cb aa3c 895c 383e
00000040: 1220 a63d 41cc a43e dd17 cbbd cd20 033f
00000050: da9c bbbd e11f 593e bc7e 233d fbd6 0a3e
00000060: b709 04be 076c f93c 0000 0000 49f0 ef3d
00000070: 5a6d ce3c 2d80 8cbd aabe 773e 2d96 543d
0.30273125 0.012552629 -0.049304716 -0.13581769 0.050946116 -0.0034666653 -0.054047607 -0.2522487
0.0 -0.0011763902 -0.0013990942 0.14053904 -0.15173432 -0.048610248 0.020848768 0.1800405
0.08111586 0.32187083 -0.09916661 0.51221925 -0.091607764 0.21203567 0.039915785 0.13558571
-0.12894331 0.03044702 0.0 0.11715753 0.025198627 -0.06860385 0.24193826 0.05190103

sequential_7/dense_26/MatMul f4 [6, 6]
00000000: 10ac 943f 6f2f a63f e18b 933e 3959 a2bf
00000010: 3ebe 86bf 9194 0fbf a40d 49bf a9aa 363f
00000020: f4ed 353e 979b 3cbc b839 dcbe d0c4 5ebf
00000030: 9d2b d33e e056 91bf e997 9cbf 2f14 93bf
00000040: 83c7 23bd 079c 243d 225e 9ebf 5526 1b3f
00000050: 60fe 97bf 22b9 873d ce9d cd3d a72d 75bf
00000060: 8784 833f 1e62 bd3f 9177 62bf b424 55be
00000070: 5eb9 0f3f c932 0abf 7bf9 283f 9fc0 a63c
00000080: f063 b1b9 746b 94be 1219 52bf 9fcc 753f
1.1615009 1.2983226 0.28817657 -1.2683479 -1.0526807 -0.5608607 -0.7853644 0.71354157
0.17766553 -0.011511705 -0.43012786 -0.8701906 0.41244212 -1.1354637 -1.2233859 -1.1490535
-0.03998519 0.04018786 -1.2372477 0.60605365 -1.1874504 0.06627108 0.100398645 -0.95772785
1.0274819 1.4795568 -0.88463694 -0.20814782 0.5614222 -0.5398374 0.66005677 0.02035552
-0.0003383453 -0.2898823 -0.82069504 0.9601535

sequential_7/dense_27/MatMul f4 [32, 6]
00000000: a6e9 0ebe 7d2d 31be ce01 883d 1f99 eebe
00000010: 0065 c7be 4d6d 803e 8163 9f3d 5b57 323f
00000020: 11c8 91be dba5 4e3f 5bbb 2abe 7bc5 eabe
00000030: 40a5 f93e a55e 20be e9ab d43e 136b 023f
00000040: 8dd1 b7be 8376 49be d5ec 9e3e 9dac 27bd
00000050: fa89 813e b378 3bbd 3cfd ccbe 366a dd3e
00000060: 06e2 1b3f 609a 413e 7c98 713e 4f8c 2a3f
00000070: e512 5f3f 5e08 41bc 9a7d 443e 8df9 0f3d
00000080: b578 e23e c63c fcbc 6667 013e 235b 133e
00000090: 9691 3ebf af44 96be 9626 09bd 5be4 0bbd
000000a0: cfee cebe 02b9 91be ce92 703e 788d 753d
000000b0: 5fb1 b6bc 2bb6 9a3d 658c 413e d3cf c53e
000000c0: b03a 8bbc cb34 b13e d392 c83e 7718 9bbe
000000d0: 0bad e23b 7465 6abc 7c9c 1b3e 7760 37bd
000000e0: b063 7bbe 1aad 133e 0fb1 e2bc 5a72 1a3e
000000f0: ca3f 043f 94d6 21be 0b6a 003f 6ab1 35be
00000100: 8106 0a3e 5d37 c9be 2883 03bd 689d 4b3c
00000110: 947c 3f3d ab92 083e e028 bcbe 4de8 d63c
00000120: 1349 f43e 498d 57be 28d3 9fbe 6a6f 103e
00000130: 3a94 9b3e aa7a 4bbd 7f5f 873e a352 923e
00000140: 9894 64bf b6de 11bd dda7 893e 1e2f 86bc
00000150: c7cf 1fbe cb62 863e 82e1 023f 2ef3 8a3e
00000160: 6ad3 f53e 223d debc 0b60 c53d 65a3 c3be
00000170: 0dd7 00bf 3913 07bf 31e7 7dbe d01c 563e
00000180: f01e 5bbc 40bb 863d 5cdf ad3e 27e6 313e
00000190: 8d9e 813d 76ce aa3d dae2 aebd b1f1 66be
000001a0: 35eb abbe f329 85be 1b34 8fbe aefe 1e3e
000001b0: a635 dcbe d6f9 973e 5ddf 1a3e f7ff 1b3e
000001c0: d070 c8bd e84c a2be 0207 fe3e f3db 793d
000001d0: bb07 07bf 61f6 b0be 2f79 8cbd 4f46 f53e
000001e0: c13c e13d 7b0c 33bb 5db7 64be df29 8dbe
000001f0: 9e88 2dbe 050a 0abe e6b5 56be 91f4 473e
00000200: a1d2 a03e 5c5c a8be c190 8d3e 8048 e83d
00000210: bb8d e8bd 1f99 eb3e b0a5 d5be 6bf6 923e
00000220: 0325 a9be 9ee7 553e 8085 aa3e ec7a dfbe
00000230: 44e1 053f 3eb6 87be ae99 b0be b1df 87be
00000240: deb6 e73d f6bc 7bbe 8c6f 153e f419 e43d
00000250: 45e6 a4be b305 aa3e 368d a33e 3cfd 553c
00000260: 6211 d7be 1cc4 c9be baec df3e 80a8 69be
00000270: e266 a9be ba8b f93e 1f99 a0be 5780 c93e
00000280: 1343 22be 879c 133d fcbe 2a3f 9004 ce3d
00000290: 2282 573f 111b d0bd 714f aebe e2c5 873e
000002a0: 0804 ebbd 02f3 2fbf 3284 c83e e607 f8be
000002b0: 2ac9 13be dfa4 ce3e e2e9 453c 55f9 ad3e
000002c0: 821d 8a3e 7a02 803e 2cef 42be 51c6 333e
000002d0: b03b a63d 6ff1 983e 70fd 3cbe 18ea ae3e
000002e0: 16db e73e dcc6 c03e 694c 7dbd 2b1c 8bbd
000002f0: b90c 4c3e 32af c33e f5d8 a1be 9d83 e73d
-0.13956317 -0.17302509 0.06640969 -0.46601197 -0.38944244 0.2508339 0.07782651 0.69664544
-0.2847295 0.80721825 -0.16673033 -0.4585379 0.48758888 -0.15661104 0.41537407 0.5094463
-0.35902062 -0.19674115 0.31040064 -0.0409361 0.2530058 -0.045769405 -0.40036952 0.43245095
0.6089176 0.18906546 0.23593324 0.66620344 0.87138206 -0.01178178 0.19188538 0.0351501
0.44232717 -0.030790698 0.126371 0.14390235 -0.74440897 -0.29349276 -0.033484064 -0.034153324
-0.40416571 -0.28461462 0.23493502 0.05994937 -0.022301374 0.07554277 0.18901213 0.3863512
-0.016995758 0.3461059 0.39174518 -0.30292103 0.006917601 -0.014306415 0.15196413 -0.04476973
-0.24549747 0.14421502 -0.027672319 0.15082684 0.51659834 -0.15804511 0.5016181 -0.1774346
0.13479044 -0.3930005 -0.032107502 0.012427665 0.046749666 0.133372 -0.36749935 0.026233817
0.47712 -0.2104999 -0.31215787 0.14105001 0.30386525 -0.04967753 0.26440045 0.28578672
-0.89289236 -0.035612784 0.26885882 -0.01637989 -0.15606605 0.26247248 0.5112535 0.27138656
0.4801286 -0.02712876 0.09637459 -0.38210598 -0.5032814 -0.52763706 -0.24795224 0.20909429
-0.013374075 0.06578684 0.33959472 0.17372952 0.06329069 0.083401605 -0.08539362 -0.22553135
-0.33577886 -0.26008567 -0.2796944 0.1552684 -0.4300968 0.29682797 0.15124269 0.15234362
-0.09787142 -0.316993 0.49614722 0.061000776 -0.5274617 -0.34562972 -0.068590514 0.47905204
0.10997916 -0.0027320671 -0.22335573 -0.27571008 -0.16946647 -0.13480385 -0.20967826 0.19526888
0.31410697 -0.32882965 0.276495 0.11341953 -0.11355158 0.4601526 -0.41727972 0.28703627
-0.3303605 0.20889136 0.33304977 -0.4364847 0.52296853 -0.26506227 -0.34492248 -0.2653785
0.11314176 -0.24583802 0.14593333 0.11137763 -0.32206932 0.33207473 0.31943673 0.013060864
-0.4200545 -0.39407432 0.43735296 -0.22818184 -0.33086306 0.48739415 -0.31366822 0.39355728
-0.158459 0.036037948 0.6669767 0.10059464 0.8418294 -0.101614125 -0.34044984 0.2651816
-0.11475378 -0.68730175 0.39163357 -0.48443526 -0.14432207 0.40360162 0.012079688 0.33979288
0.26975638 0.2500189 -0.1903655 0.1755612 0.08116853 0.298717 -0.18456054 0.34162974
0.45284337 0.37651718 -0.06184045 -0.06792482 0.19926728 0.382196 -0.31610838 0.113044

sequential_7/dense_28/MatMul f4 [32, 32]
00000000: a416 68bc 7dd6 043f 47ad 173f 2b1c abbe
00000010: 0710 8ebe 25a5 9c3c 1e05 9e3e 2561 99be
00000020: 15c4 91be 9997 95be 3e98 3e3d 6f8b 693d
00000030: 2e63 63be 67f0 83be 812a cb3e ff90 70be
00000040: 8df1 59bd 779b 85be 15a2 803e d08d 8dbe
00000050: 854d 1dbe c200 78be b9ff bcbc 3d40 123e
00000060: b5d9 ba3d a60b 3cbe 88a0 1dbd 6c56 06bf
00000070: aeb5 bc3e 91e6 f7bd 8f92 b53c c257 853e
00000080: 421b 473e 295c 763d 10c3 16be 67ba 54bd
00000090: 5593 8dbe 3b60 68be ae08 0d3e 31ea 6d3e
000000a0: 0531 263e fb99 82be a4a0 8bbe cf0a 013e
000000b0: 28ce 03bd a89c cfbe 4e4c 0a3d af3b 813e
000000c0: de0c 7ebd ee1f a33e dbd0 c63d daba 4cbd
000000d0: daf1 0dbe 3d8b 413e bd71 a43d 0fd3 923e
000000e0: cf85 973c dabb 073e 76eb babe 1635 823e
000000f0: 4127 1c3e 624d 383e 13a9 353d 646f a7be
00000100: a697 d93d ea3e 8e3e d084 7f3e 72b0 873e
00000110: 8cec 3ebe f14d 5c3c 52b7 49be 8c34 c1bd
00000120: c8ad 3e3e 4898 48be 120b 9ebd 33f6 d43d
00000130: 5d86 003e c3a4 b4bd 54af 45be 1f95 02be
00000140: 6f6b 3ebd d4b5 9cbe 2a69 3bbe ea45 863d
00000150: 3bab 26be b09a 923e c453 8ebe a003 0e3e
00000160: 9755 cdbd 546b 673d 1042 a63c 33e1 99be
00000170: b487 c4bd 3400 b6bd 1879 bfbd 939b cfbd
00000180: fccf 893c 2d86 8fbe d811 f53d 3c84 14be
00000190: b284 623e 1c30 97be 1396 0b3e bad0 83be
000001a0: be68 563e 09c6 383e f4fc bfbd 7812 4cbe
000001b0: 5e02 a4be 7872 943d 98ce 223e a13f 91be
000001c0: 76b2 203d 7add 1bbd 99b1 953c d10c c3bd
000001d0: 2315 e2bd bbca 30be a078 6e3c 9176 aabd
000001e0: 916c 0ebe 5413 983d 34bc 38be 7144 6b3e
000001f0: 0e12 87be fb93 4bbe 598f 083c 2f66 bb3d
00000200: 09dc 823e 873b 843e eeaf 8bbe bb31 8f3e
00000210: 4d5f a8be 178f 88be 729b 2fbe a1b4 4abe
00000220: 12c1 773e c78c 873e a6ad 51be 8e95 8a3d
00000230: cd5b 843e 1f18 e8bd d8ba 2fbc 1cb5 5b3e
00000240: ca4b 193e 27c7 05bd ab27 833e 0c87 823d
00000250: b4a2 aa3d 95c7 e3bd 2097 22be 9127 ae3e
00000260: 85e2 7b3c 7822 a13d 82e3 4d3e d71f a83d
00000270: 18af ccbd 3be2 283d 04a8 65bd e86b 813d
00000280: 9cfb c53d debc eabd 077f c4bd 5e8a 6b3e
00000290: 9c45 b4bd 624f d0bd 156b 62ba 18e7 8ebd
000002a0: 426e 75be 5826 5ebe 8a3a 833d aa67 f0bd
000002b0: 83b7 a6bd 3d91 9c3d cbf3 60bd 683e 60be
000002c0: c20b 93be aa10 29be a39c 893e c39f 28be
000002d0: 0f83 383e 07c9 43bd 78dd 4cbe 1f34 86be
000002e0: 6ecc 493e f63a 79bd 5d15 793d 701a 4f3d
000002f0: 5be4 173c ac8a 2a3e d13f 77be b0ed 8abe
00000300: d3b7 9abe a683 293d 374b 4c3e af63 9d3d
00000310: 336a 6ebe 156b 81be 335a 753d 3a76 3f3e
00000320: e98f b93c 198f 7cbd 2017 70be 683a 2dbe
00000330: 0848 13be 8fa7 d2bc 390a 76be 5cee 06be
00000340: 3a42 a4bd c662 15be 3fbe 723e ba0b 03bd
00000350: 901a 31be 0da5 2dbe d044 2d3e 708c 463e
00000360: c9c7 8d3e 3327 223e f369 0f3e 09bc da3d
00000370: f7a8 6e3e 2bda 803e 6151 2cbe 0554 973d
00000380: 8d02 833d b09f f5be f681 41bd 62ac 673e
00000390: 16ce aabd 295b 53be 5734 ca3e 8e19 ae3e
000003a0: 838e 4b3e 8614 8a3e 9daf f23d 08b8 1c3e
000003b0: f3cc 71be 3bf8 813e 21e0 abbe 8427 de3e
000003c0: 572a 3a3e dbd1 e33d fb6a 623e d0b3 043f
000003d0: 7874 ab3e a8d6 163e 71fc c5bc 17fb 6d3c
000003e0: 0a70 023d 25f9 a13e 71b9 ef3c a674 c2bd
000003f0: 8c45 0fbd ae90 943e 54db 2d3d 8d6e 5bbe
-0.014165554 0.51889783 0.59248775 -0.33419928 -0.27746603 0.019121716 0.3086328 -0.29956928
-0.2846991 -0.29217222 0.04653191 0.05701774 -0.22205803 -0.2576935 0.39680865 -0.23492812
-0.053208876 -0.26095173 0.2512366 -0.27647257 -0.15361603 -0.24219039 -0.023071157 0.14282317
0.091235556 -0.18363819 -0.038483173 -0.5247562 0.3685736 -0.12104524 0.022164611 0.26043516
0.19443992 0.060146485 -0.14722848 -0.05193558 -0.27651468 -0.22692959 0.13772842 0.23233868
0.16229637 -0.25508103 -0.27270997 0.1260178 -0.032179028 -0.40549207 0.033764176 0.25240847
-0.06202399 0.31860298 0.09707805 -0.049982883 -0.1386179 0.18900771 0.08029506 0.2867665
0.018496422 0.13255253 -0.36507767 0.25431126 0.15249349 0.17998269 0.044350695 -0.32702172
0.10624628 0.27782375 0.24953008 0.26501805 -0.18644923 0.013446317 -0.19698837 -0.09433851
0.1862098 -0.1958934 -0.07716955 0.10398521 0.12551256 -0.08820488 -0.19305164 -0.12752198
-0.046489175 -0.30607474 -0.18301836 0.06556304 -0.16276257 0.28633642 -0.27798283 0.1386857
-0.100260906 0.05649884 0.020295173 -0.30054626 -0.09596196 -0.088867575 -0.09349269 -0.10137095
0.016822807 -0.28032055 0.11966294 -0.14503568 0.22120932 -0.29528892 0.13631468 -0.25745183
0.20938393 0.18044294 -0.09374419 -0.1992892 -0.32033056 0.07248396 0.15899122 -0.28368858
0.039232694 -0.038053013 0.018273162 -0.09523929 -0.11039188 -0.17264836 0.014555126 -0.08323396
-0.13908602 0.074255615 -0.18040544 0.22975327 -0.26380962 -0.19880669 0.008334958 0.09150349
0.25558499 0.25826666 -0.2728266 0.2796763 -0.3288521 -0.2667167 -0.17149141 -0.19795467
0.24194744 0.26474592 -0.20476398 0.067668065 0.25851288 -0.11332726 -0.010725699 0.21455806
0.14970317 -0.03266063 0.25616202 0.063734144 0.083318144 -0.111220516 -0.15877962 0.34014562
0.015373831 0.078679025 0.20106319 0.08209198 -0.09994334 0.041231375 -0.056068435 0.063194096
0.09667131 -0.11461805 -0.09594541 0.23002002 -0.088023394 -0.10171391 -0.0008637172 -0.069776714
-0.23967841 -0.21694314 0.0640765 -0.11738522 -0.08140471 0.076448895 -0.05492 -0.21898806
-0.28719908 -0.16510263 0.26877317 -0.16467194 0.18018745 -0.047799136 -0.20006359 -0.2621164
0.1970689 -0.060847245 0.06081139 0.050562322 0.009270753 0.16654462 -0.24145438 -0.27134466
-0.30218372 0.041385315 0.19950567 0.07685029 -0.232827 -0.2527701 0.059900474 0.18697444
0.02265163 -0.061659906 -0.23446321 -0.16916811 -0.14382946 -0.025714664 -0.24027337 -0.13176864
-0.08020444 -0.1458846 0.23705386 -0.031993605 -0.17295289 -0.16957493 0.16920781 0.1938951
0.27691486 0.15835266 0.1400526 0.10680396 0.23306642 0.2516645 -0.16827919 0.07389072
0.06396971 -0.47973394 -0.04724308 0.22624353 -0.08340089 -0.20640244 0.39493057 0.34003872
0.19878583 0.26968783 0.11849902 0.15304577 -0.23613338 0.25384697 -0.33569434 0.43389523
0.18180214 0.11124011 0.22111122 0.5183687 0.33487296 0.14730322 -0.024168225 0.0145251965
0.03184513 0.31635395 0.02926323 -0.09494905 -0.034978434 0.29016632 0.042445496 -0.2142889

sequential_7/dense_29/MatMul f4 [32, 32]
00000000: a29b 493e 8055 123d 3c55 38be b873 083e
00000010: 1007 4e3d 2010 93bd 1579 06bc d770 6a3e
00000020: bbc6 8f3e 7eca 643e 80ad 8b3c c4eb 863e
00000030: 9b5c d8bd 0d5b 2f3e d8d3 1ebe 37d8 5cbe
00000040: 00aa 963e aa6b 68be d574 e43c cf65 313c
00000050: 3970 b0be 2923 d63d b48f 93be 36e5 30bd
00000060: a1a7 603d ce47 3dbe dc92 d73d 4ad0 4ebe
00000070: e654 3c3e 2130 5fbd d66b dfbd 7131 9f3c
00000080: 90ac 52be ca84 4dbe b7d1 d1bd c04f aabb
00000090: 2f3b 15be a6ec 593e 36f1 693e 42bf 5e3e
000000a0: 0222 b3bd 5aec 21be bdb5 923e df52 e43d
000000b0: cbde 9a3e cd0b 62be eccb 803c 321d 88be
000000c0: 824b 063c 8fe2 7fbe 970f ca3d 59b2 29bd
000000d0: 0bbc 743e 604c b4bd 6206 603e 781c 83be
000000e0: 221c 1bbe 1e73 11be 0012 66bc 0135 4abd
000000f0: 9e73 903e a63e 173e 62a8 8bbe 1fd2 50be
00000100: 9594 3f3e 1630 193e f527 9abe 0375 98be
00000110: fae2 e7bd 607a 45bc 2e7f 9dbd 6eb6 033b
00000120: 7d5d 6bbe 1d5c 07be ed37 403e 5dc2 2c3e
00000130: 69c5 2cbe c702 fbbd fc2a 1fbe 6f4e 283d
00000140: 8dd7 8a3e b74e 97bc ee4d 3bbe 10f5 24be
00000150: 7b1f b9bd f1fc 1fbe 066c 433e b390 98be
00000160: 764f 75be a13b 96be e8b2 323d f870 9cbe
00000170: 3409 86be 8f51 a23d 5702 81be c081 fc3d
00000180: 019e 2ebe f70f 823c 1d62 2abe b96f 863e
00000190: 65c9 b2bd d237 823e b607 8b3e a1b5 1e3d
000001a0: f9fc 8abe c432 c0bd 5635 3e3e 85e5 ae3d
000001b0: f18b f8bc 10a6 f4bd f4b7 8bbe 4942 853e
000001c0: e545 b03e 064f 0d3e 20e8 76be ba9c bfba
000001d0: b6c7 993c 589b b33e 2ec7 67be 6109 2c3e
000001e0: 5ef4 363e 1ed6 2f3e 2c05 e33d e9ac a13e
000001f0: ff5a d8bd 6be7 11be c01f 51bd ed0a a43e
00000200: 8e55 b0be 2d35 c7be c8a4 8abd 3558 fa3b
00000210: 07f9 a1bd 48c3 3abd 7278 343e 171a 64be
00000220: cdf2 1bbe f841 90bc 4f65 853e a9a1 5b3c
00000230: 27b2 a33d 6447 f53a 981d 92be f686 c63e
00000240: e24d a63d ccc3 96be f503 7c3e 95e5 1b3e
00000250: 8510 0cbe 5d4f 0b3d 8abd 143e 47ab b03e
00000260: 2ce3 80be 0400 e2bd 6700 12be 700c 6f3e
00000270: dc38 403e 9638 1cbd e768 cdbe 4f3a 8bbd
00000280: ceb8 8bbe 1567 02bd 8c35 eb3d f5f9 003e
00000290: 3ff5 623e bbf3 1dbc 26e9 b3bc dc94 7ebe
000002a0: d493 0cbe 4d62 223e 4203 5e3e a574 633e
000002b0: 664a 86be ab10 543c 43fa 28be 232a 183e
000002c0: 7e1c 973e 446c 26be 68a8 1aba b2c5 083e
000002d0: e9a1 e73d 71f7 34bd 0c9d 95be f063 ec3e
000002e0: acd8 82be 7499 9b3e 0002 933a 23ab 253e
000002f0: df83 78be be46 803e 01d7 c6be 0bb2 403e
00000300: 1261 b33e 6362 943d 0cbc e9bd ed03 8d3e
00000310: 195e cfbe 71d9 833e d59e 743e bdb1 29bf
00000320: 2e2f 5f3e b9d6 6a3d eccd 173d a456 173d
00000330: 3f54 853d ae5d 5a3d 7710 563e 4c03 8abc
00000340: 25ff 303c e7b2 6abe fbbb f83d 3624 a03e
00000350: f4b4 60be 94f0 163e cc7c d9be 37ab bc3e
00000360: 33e2 80be e120 803e e4de 3fbe a940 873e
00000370: f131 043d 5902 c1bc b24a 9ebe a309 013d
00000380: 2754 b3bd 07a3 2f3e 6cfb 803e a187 923e
00000390: 9f46 56be 8668 57be fb2f 1c3e 7a29 2ebe
000003a0: 37f9 8b3e 50c6 e13c 3e3c 96be 5876 91bd
000003b0: f981 dfbc 3de3 023e 9e89 5bbe 4b6b 42bd
000003c0: 618a 1fbe e871 313e 5360 983e 2b10 9cbd
000003d0: 0953 8d3e dc2b 4c3e 008b 67bd c521 843e
000003e0: ef1c cd3c 9bc7 0abe 6457 1bbe fcf4 95be
000003f0: bd89 dfbc 0e58 58be 3b45 c5bd 125f 0dbe
0.19688275 0.03572607 -0.18001264 0.13325393 0.050299704 -0.0718081 -0.008207579 0.22894607
0.28081307 0.2234287 0.017050505 0.2635175 -0.10564538 0.17124577 -0.155105 -0.21566854
0.29426575 -0.2269732 0.027887741 0.010827496 -0.3446062 0.10455925 -0.28820574 -0.043187343
0.054847363 -0.18484423 0.10526058 -0.20196643 0.18391761 -0.05448926 -0.1090924 0.019432755
-0.2057364 -0.20070186 -0.10245078 -0.005197495 -0.14573358 0.2128168 0.22845921 0.21752647
-0.08746721 -0.15812817 0.2865428 0.11148619 0.30248103 -0.22074814 0.015722238 -0.26584774
0.008196713 -0.24988769 0.09866255 -0.04142985 0.23899858 -0.0880363 0.21877435 -0.25607657
-0.1514745 -0.1420407 -0.0140423775 -0.049366955 0.2821321 0.14769992 -0.27276903 -0.20392655
0.18709023 0.1495975 -0.3010861 -0.29776773 -0.11322589 -0.012053102 -0.07690273 0.002009775
-0.22984882 -0.13218732 0.18771334 0.16871019 -0.16872181 -0.12256389 -0.15543741 0.041090425
0.27117577 -0.018470151 -0.18291447 -0.16109109 -0.090392075 -0.15623833 0.19084176 -0.29797897
-0.23956093 -0.29342368 0.04362765 -0.30554938 -0.26178896 0.07925712 -0.25197098 0.12329435
-0.17052461 0.015876753 -0.1663899 0.26257113 -0.08729819 0.25433213 0.2715432 0.038747434
-0.27146128 -0.09384683 0.18575034 0.08539871 -0.030340167 -0.119457364 -0.27288783 0.26027134
0.34428325 0.13799676 -0.24111986 -0.0014618852 0.018771987 0.35079455 -0.22634575 0.16800453
0.17866656 0.17171523 0.11084971 0.31577232 -0.10564231 -0.14248435 -0.05105567 0.32039586
-0.34440273 -0.38907757 -0.06769711 0.0076399096 -0.07908826 -0.04559639 0.17624071 -0.22275577
-0.1522934 -0.017609581 0.26053855 0.013405242 0.07992964 0.0018713293 -0.28538203 0.38774842
0.08120324 -0.29446256 0.24610884 0.15224297 -0.13678177 0.034011234 0.14525428 0.34505674
-0.25173318 -0.11035159 -0.14257966 0.23344588 0.1877169 -0.038139902 -0.40119097 -0.06798231
-0.27289432 -0.031836588 0.11484823 0.12595351 0.22163866 -0.009640629 -0.02196176 -0.24861473
-0.13728267 0.15857811 0.2168093 0.22212465 -0.26228637 0.012943427 -0.16501717 0.14859824
0.29513925 -0.16252238 -0.0005899728 0.13356665 0.11310179 -0.04418129 -0.2922138 0.46169996
-0.25555933 0.30390513 0.0011215806 0.16178565 -0.24269055 0.25053972 -0.3883591 0.18817918
0.35034996 0.07245328 -0.1141282 0.27542058 -0.40501478 0.25751832 0.23888715 -0.6628683
0.21795341 0.05733368 0.037061617 0.03694786 0.06510209 0.053311996 0.20904718 -0.016847275
0.010803019 -0.22919808 0.121452294 0.31277627 -0.21944028 0.14740211 -0.42478025 0.36849377
-0.25172576 0.25025085 -0.1873737 0.2641652 0.03227419 -0.02356069 -0.30916363 0.03150333
-0.08756285 0.17152034 0.2519182 0.28619102 -0.20925377 -0.21035966 0.15252678 -0.1700801
0.27338573 0.027560383 -0.29342836 -0.071026504 -0.027283655 0.12781997 -0.21439216 -0.047465604
-0.15580131 0.17328608 0.2976099 -0.07620271 0.27602413 0.19938606 -0.056529045 0.25807014
0.02503821 -0.13552706 -0.15170056 -0.2928847 -0.027287358 -0.2112734 -0.09632345 -0.13805798

sequential_7/dense_30/MatMul f4 [5, 32]
00000000: a58a 203d d06c a7be 4e01 8a3d a0b5 983e
00000010: fef1 c6bd 6313 0fbf 41ae 713e 32b9 043e
00000020: 1adf ecbe e719 713e a326 4bbf b3ca f4be
00000030: 603b 313e bf74 a03e 8ee4 863e 9a37 74be
00000040: c0b4 db3d 465b dfbc f6bb 483e 31fa 3f3e
00000050: cd55 a23e 92cd 1bbf 2031 cbbe b84f 02be
00000060: c25e 0abf 7e87 873e 7cf7 823e d03d ac3e
00000070: 007f 943b 0ff2 9a3e a083 62be 56dd b2be
00000080: f31e 28bd 55ce babc d567 0fbe 51bd 183e
00000090: fb83 b53e 752b 063f 8db1 02bf 285b 413e
000000a0: 62ec c83e 20db 5abe fd12 323f 30a0 8d3f
000000b0: ae88 cc3d 6afe f9be a668 d8be 2ada 6c3e
000000c0: fe24 ba3e 02ec 0fbf 9392 213f 3722 e93c
000000d0: ced6 653d 88bd 1e3f 436f f93c b280 123e
000000e0: ff1d 0b3d 19bf b9be 8a8f 2f3e a16b d3be
000000f0: 465c b0be 069d 23bf 51ec 3cbe b3c7 d43e
00000100: 0c3e 953e a350 733e 88e2 673e 3f46 a3be
00000110: 7fae 08bf 97c1 c33c e2d7 123d f084 423d
00000120: 9a8f efbe 31e6 f53d 5442 0dbf 0e50 94be
00000130: d629 9fbe 7115 8ebe 5730 463e 9355 9f3e
00000140: 6ee8 b7be 3710 02bc ac2e 3e3e 23b3 8bbd
00000150: 3ea9 823d 7351 35bf 02bd 4dbe 0488 bbbe
00000160: d08c 18bf 892e 9d3e 9982 0c3e 05b1 573d
00000170: 3403 7b3e faca b1be aa9b 153e b85a 82bb
00000180: f3e9 023f 7d95 dc3c 4f7c a03e fb16 293e
00000190: 65b0 343f c009 2e3f 09a1 123f 2e87 8fbe
000001a0: 71fc 17be 04d3 49bd fa4b 383f 93ce 39bf
000001b0: 4658 c8be 5e17 533d 3af5 24bc 1cc0 3abe
000001c0: 45b1 da3d 20af ef3d f73c 1f3f 8c54 a63d
000001d0: 52e3 873e 534f 1c3e 97bb c5be 6c96 353d
000001e0: 7599 bdbe 9394 ae3e 7a44 1abf 5536 c73e
000001f0: 70e0 fe3c c3d4 cc3e c176 9abe 792b fa3e
00000200: 15b3 5fbd f0f9 90be d4df aabe 09c6 54bf
00000210: 35a0 90be 52cd d7be 9e37 ca3d d189 743e
00000220: 1b1e cf3e b97a 1dbe e5ec 92be 900d 923f
00000230: 3c7a debe da66 8e3e 0ef2 b73d c2d1 83be
00000240: ff3f 183f ba89 15be 3f08 6abf 5432 123e
00000250: e917 44be 5c61 1e3f e991 8dbe c88f a1bd
00000260: 7aee 9f3e c28e 6e3e a8b7 a63e b6fa 08be
00000270: 48e6 043e 0bd6 603c 9ef8 ccbe c94d 62be
0.03919472 -0.32700205 0.0673853 0.2982607 -0.09714125 -0.55888957 0.23601629 0.12961271
-0.46263963 0.23545037 -0.7935583 -0.47810897 0.17307806 0.3133907 0.26346248 -0.23849335
0.10727835 -0.027265202 0.19602951 0.18747784 0.31706086 -0.6086055 -0.39685917 -0.12725723
-0.5405084 0.2647056 0.2557944 0.3364091 0.004531741 0.302628 -0.22120523 -0.3493449
-0.04104514 -0.022803465 -0.14004453 0.14915968 0.35452256 0.5241006 -0.5105217 0.1888243
0.39242846 -0.21372652 0.69560224 1.106451 0.09987007 -0.48826915 -0.4226734 0.23130098
0.36356348 -0.56219494 0.6311428 0.028458698 0.056113057 0.6200795 0.030448562 0.14306906
0.033964153 -0.36278608 0.171446 -0.41293052 -0.344454 -0.63911474 -0.18449523 0.41558608
0.291489 0.23761229 0.22645009 -0.3188953 -0.5339126 0.023896022 0.035850413 0.04749006
-0.46789247 0.12006796 -0.55179334 -0.28967327 -0.31086606 -0.27750733 0.19354378 0.31119975
-0.35919517 -0.007938436 0.18572491 -0.06821277 0.06379937 -0.70827407 -0.20091632 -0.3662721
-0.5958986 0.30699566 0.13721694 0.052659053 0.2451294 -0.3472517 0.14610162 -0.0039780997
0.5113823 0.02692675 0.3134484 0.16512673 0.70581657 0.6798363 0.5727697 -0.2803282
-0.14842393 -0.049273506 0.7199093 -0.7258083 -0.39129847 0.051535957 -0.010068232 -0.18237346
0.10678343 0.11703324 0.622024 0.08121595 0.2654062 0.15264635 -0.38619682 0.044332907
-0.3703114 0.34097728 -0.60260737 0.3890864 0.03111288 0.40006074 -0.30168727 0.48861292
-0.054614145 -0.28315687 -0.33373892 -0.8311468 -0.28247228 -0.42148834 0.098738894 0.23880698
0.40452656 -0.15378846 -0.2869636 1.1410389 -0.43452632 0.27812845 0.08981715 -0.2574597
0.5947265 -0.1460332 -0.9141883 0.14277011 -0.19149746 0.6186731 -0.27650383 -0.07888752
0.3123663 0.23296645 0.32561994 -0.13376889 0.1297847 0.013722907 -0.4003343 -0.22099985

sequential_7/dense_27/MatMul;sequential_7/dense_27/Relu;sequential_7/dense_27/BiasAdd f4 [32]
00000000: d72c 7ebe bd00 6e3f 58c8 973f e303 8b3e
00000010: 9ed6 3e3f b4ed d43e bdee 8a3d 0df4 13be
00000020: 6efc 483e e5cf 40be 50fb f03e 67ac c43d
00000030: 7ac1 133d 8f34 83bf 0d79 173f 7a64 34bf
00000040: 2551 813e 813f d9be 2430 973e d295 56bf
00000050: 54d0 36be 7e4c 40be 95c0 e2bd 9832 aa3e
00000060: ead2 04bd 2e5e f7be 4379 cf3d 3cfb 6c3f
00000070: dfc7 10bf a4b2 b63e 2213 f53d 93be 113f
-0.24821793 0.92969877 1.1858015 0.27151403 0.7454623 0.41587603 0.06783817 -0.14448567
0.19627544 -0.18829305 0.47066736 0.09603196 0.036073186 -1.0250415 0.59169084 -0.70465815
0.2525722 -0.42431262 0.29528916 -0.8382236 -0.17852908 -0.1877918 -0.11071888 0.33241725
-0.032427706 -0.4831404 0.10130551 0.92570853 -0.5655498 0.35683167 0.1196654 0.5693142
