scripts/models/simulation_capture_6s_20x_1,5x1m_simulation_6s_16x16_model_no_quant.tflite (tflite, 4228 bytes, 7 tensors)

dense_12/bias f4 [5]
0	0xbf592265	-0.84818107
1	0x3f535fdd	0.8256815
2	0xbf3484fb	-0.7051541
3	0xbe1bf658	-0.15230691
4	0x3f614505	0.8799594

dense_11/bias f4 [16]
0	0x3e8d79e8	0.2763207
1	0xbeb0103b	-0.34387383
2	0xbd816a20	-0.0631907
3	0x3eb08662	0.34477526
4	0xbe209bd3	-0.15684442
5	0xbebca154	-0.36841834
6	0xbe46847f	-0.19386481
7	0xbe4db804	-0.20089728
8	0x3f68ca2a	0.9093348
9	0xbde079a0	-0.10960698
10	0x3e87891c	0.26471794
11	0xbc890eec	-0.016730748
12	0xbd2b3207	-0.041795757
13	0x3f1a3530	0.6023741
14	0x3e79bd9f	0.24388741
15	0xbe3c3624	-0.18380028

sequential_3/dense_9/MatMul f4 [6, 6]
0	0x3f34ff6b	0.70702237
1	0x3fb9f44d	1.452768
2	0xbf8f19a1	-1.1179696
3	0xbf4a8a68	-0.7911744
4	0xbf1ffe7d	-0.62497693
5	0xbec949f5	-0.39314237
6	0x3f7851e4	0.96999955
7	0xbf5389a5	-0.82631904
8	0x3f355dea	0.70846426
9	0xbf973c7d	-1.1815335
10	0xbe3e7e53	-0.18602876
11	0x3f0f360e	0.55941856
12	0xbf87204c	-1.0556731
13	0x3f0a1d5c	0.5395105
14	0xbeeb7bde	-0.4599294
15	0x3ee2d03c	0.44299495
16	0x3f7a336f	0.9773473
17	0x3ed0f389	0.40810803
18	0xbef385ec	-0.47563112
19	0xbebdbc5d	-0.37057772
20	0xbf05f195	-0.5232175
21	0xbfc8f498	-1.5699644
22	0x3c52a8ac	0.012857597
23	0xbf72fc83	-0.9491655
24	0xbd83576a	-0.06413157
25	0xbe5d6669	-0.21621098
26	0x3edb92b7	0.42885372
27	0x3f783a2d	0.9696377
28	0xbf44c595	-0.76863986
29	0x3f275ad9	0.65373
30	0xbfa576bd	-1.2926861
31	0xbfd9a186	-1.7002418
32	0xbf355a15	-0.7084058
33	0x3ed50bc6	0.41610545
34	0x3d351b7b	0.04421566
35	0x3e87228f	0.26393554

sequential_3/dense_10/MatMul f4 [16, 6]
0	0xbf8395dd	-1.028011
1	0x3f7a28a4	0.9771826
2	0xbdc3c5bc	-0.09559199
3	0x3e2b6019	0.16735877
4	0xbd38933d	-0.045062292
5	0x3f2e5a87	0.68106884
6	0x3eceaf53	0.40368137
7	0x3e77fb33	0.24216919
8	0xbee3ef81	-0.44518664
9	0xbd8c7418	-0.068580806
10	0x3bfed670	0.007777028
11	0x3ddbb5a9	0.10728008
12	0x3f25495f	0.6456508
13	0x3f45ed79	0.7731548
14	0xbf0e63e4	-0.5562117
15	0x3f472357	0.777883
16	0xbeebf269	-0.46083382
17	0x3e164870	0.1467607
18	0x3d110dc5	0.035413522
19	0xbeff77e7	-0.49896166
20	0xbdff356f	-0.124613635
21	0x3e747f6a	0.2387673
22	0xbe9c0ce7	-0.30478594
23	0x3e4e0601	0.20119478
24	0x3e1ca55f	0.15297459
25	0x3f21861e	0.6309527
26	0xbf362eb1	-0.71164995
27	0x3f2c0379	0.671928
28	0x3ee85ced	0.45383397
29	0x3f2e6501	0.6812287
30	0x3dd3fbfb	0.10350796
31	0xbec96fd1	-0.39343122
32	0x3e8ea92c	0.27863443
33	0x3df61aba	0.120168164
34	0xbe064bcc	-0.13114852
35	0x3f82c8a4	1.0217481
36	0xbe1cbde5	-0.15306814
37	0xbe8491df	-0.2589254
38	0xbe55da8e	-0.20884153
39	0x3de88771	0.113539584
40	0x3d4e7299	0.050402258
41	0x3e245ff6	0.16052231
42	0xbe903926	-0.281686
43	0xbe9d9463	-0.30777273
44	0xbe20ea4e	-0.1571438
45	0xbe5e74a8	-0.21724188
46	0xbebe4423	-0.3716136
47	0xbe57cc08	-0.21073925
48	0xbd32a058	-0.043609947
49	0xbec513e0	-0.38491726
50	0xbe423492	-0.18965366
51	0x3dd07bcf	0.101798646
52	0xbe7c2eeb	-0.24627273
53	0x3d9505e6	0.07276516
54	0xbf0d3686	-0.5516132
55	0xbe58121c	-0.21100658
56	0x3ed74c91	0.42050603
57	0x3edffd79	0.43748072
58	0xbbc3a58e	-0.0059706634
59	0x3eb7e388	0.3591578
60	0x3c44d42b	0.012013475
61	0x3e1d5f7d	0.15368457
62	0x3ed64cc1	0.41855434
63	0xbf286dea	-0.65792716
64	0x3d8ee3d1	0.06977046
65	0xbf29918e	-0.66237724
66	0x3f0f6ba2	0.5602361
67	0x3da30fd4	0.07962003
68	0x3e2e3138	0.17010963
69	0x3f11186a	0.5667788
70	0xbf03809d	-0.51368123
71	0x3f137927	0.5760674
72	0xbe705ee6	-0.23473701
73	0x3e10de33	0.14147262
74	0xbf230282	-0.636757
75	0x3eec3699	0.46135405
76	0x3ddf04d8	0.10889596
77	0x3e239d99	0.15978087
78	0xbea461ba	-0.3210581
79	0xbe2708f4	-0.16312009
80	0xbee9b557	-0.45646164
81	0xbeba9d1e	-0.36447996
82	0xbec3d0ef	-0.3824534
83	0x3ecda866	0.4016754
84	0xbef62c9c	-0.4808091
85	0xbea52801	-0.32257083
86	0x3f2540ee	0.645522
87	0x3e517ce5	0.204578
88	0x3eb303af	0.34963748
89	0x3f4448e5	0.7667373
90	0xbe47172a	-0.1944243
91	0x3df92084	0.12164405
92	0x3e88c35b	0.26711544
93	0x3f97d54d	1.1861969
94	0xbf38db29	-0.7220941
95	0xbe89b057	-0.2689235

sequential_3/dense_11/MatMul f4 [16, 16]
0	0xbe5f600f	-0.21813987
1	0x3efdf717	0.49602577
2	0x3f363cfe	0.71186817
3	0xbe99dd5a	-0.3005169
4	0x3f654c13	0.89569205
5	0xbef2a578	-0.47391868
6	0x3eb5c22b	0.354997
7	0xbdb9d1fe	-0.09073256
8	0x3da4002a	0.08007844
9	0x3e5e5ecf	0.21715854
10	0x3cab4f30	0.020911783
11	0x3f13218c	0.57473063
12	0x3e7a76a0	0.24459314
13	0x3ea200b7	0.3164117
14	0xbf2a4198	-0.6650634
15	0x3ee25c72	0.44211155
16	0x3ea2296c	0.31672227
17	0x3dbb223c	0.09137389
18	0xbe7d11eb	-0.24713866
19	0x3e0f5294	0.13996345
20	0x3ea535c4	0.32267582
21	0xbe197ae2	-0.14988282
22	0x3e5d48b1	0.21609761
23	0xbdaf2718	-0.085523784
24	0xbebd025f	-0.36915872
25	0x3e52db93	0.20591573
26	0x3e60d45a	0.21956006
27	0xbe3c1077	-0.18365656
28	0x3d92653e	0.07148217
29	0x3e6ac5c1	0.22927
30	0x3e97f9f6	0.29682893
31	0xbf01b7cc	-0.50671077
32	0x3edeb945	0.43500724
33	0x3d7ba308	0.061434776
34	0xbe962248	-0.2932303
35	0x3e45fe58	0.19335306
36	0x3d535e63	0.051603686
37	0xbeafa2db	-0.34303936
38	0x3ea9a9a7	0.33137247
39	0xbed37ae3	-0.41304693
40	0xbbefea80	-0.0073216558
41	0x3de71457	0.112831764
42	0x3de10d54	0.1098887
43	0x3d4ab1f5	0.04948612
44	0xbdbab7cf	-0.0911709
45	0x3d19a0fc	0.037507042
46	0xbe921c75	-0.28537336
47	0xbed4ee17	-0.41587898
48	0x3f478db0	0.7795057
49	0x3e0599e5	0.13046987
50	0xbc3819ce	-0.011236621
51	0x3db49d96	0.0881912
52	0x3f2ba42e	0.67047393
53	0xbdeacd06	-0.11464886
54	0x3ecade85	0.39622894
55	0xbe1a05b8	-0.15041244
56	0x3e9ad250	0.3023858
57	0x3dda2924	0.10652378
58	0x3f06d68a	0.5267111
59	0xbf060b17	-0.5236067
60	0x3ee31259	0.44349936
61	0xbe7b7f46	-0.2456027
62	0x3e94222a	0.28932315
63	0xbf20f547	-0.62874264
64	0xbe8bee6f	-0.27330348
65	0xbee5920d	-0.4483799
66	0x3ec418da	0.3830021
67	0xbe6396c3	-0.2222548
68	0xbe20b81d	-0.15695234
69	0x3e8b0cb5	0.27158132
70	0xbe0de13e	-0.13855454
71	0x3df300cf	0.118653886
72	0xbdb301c8	-0.08740574
73	0xbdf76734	-0.12080231
74	0x3e1c531f	0.15266083
75	0xbe87102e	-0.26379532
76	0xbe6d514f	-0.23175548
77	0xbeb58292	-0.3545118
78	0xbecf4b90	-0.40487337
79	0xbead9c2e	-0.33908218
80	0x3ed83ea3	0.42235288
81	0xbef98ba4	-0.4873935
82	0xbe8b4339	-0.27199724
83	0xbe3a6158	-0.18201196
84	0xbcc4f225	-0.024041245
85	0x3e2b9fb8	0.16760147
86	0x3e8947a1	0.2681246
87	0x3c50601d	0.012718228
88	0xbe6eb9af	-0.2331302
89	0x3d77bae0	0.060480952
90	0xbe8e0fb0	-0.27746344
91	0xbdddc204	-0.10828021
92	0x3daf5738	0.085615575
93	0x3e1c02e0	0.15235472
94	0x3d7c0638	0.06152937
95	0xbe2f307e	-0.17108342
96	0x3ed3327d	0.41249457
97	0xbef7ec5c	-0.48422515
98	0xbee98200	-0.45606995
99	0xbe7db6a3	-0.24776702
100	0x3e273841	0.16330053
101	0x3deaa33f	0.11456918
102	0x3ea771bf	0.3270397
103	0xbe96491c	-0.29352653
104	0x3e59d95c	0.21274322
105	0x3ea03b3c	0.31295192
106	0xbeb07e62	-0.34471422
107	0x3dc32309	0.09528167
108	0xbc2c0ba4	-0.010500822
109	0x3d291d74	0.041287854
110	0xbd9eeeac	-0.07760367
111	0xbdefb74b	-0.11704882
112	0xbe0499ec	-0.12949342
113	0xbd380906	-0.04493048
114	0x3d644853	0.055733036
115	0x3ebf99e8	0.3742211
116	0xbed83fd0	-0.42236185
117	0xbd4bd301	-0.049761776
118	0x3e523d00	0.20531082
119	0x3dacde57	0.084408455
120	0xbe80fb35	-0.25191656
121	0xbec4569d	-0.3834733
122	0xbd5f15c1	-0.054464106
123	0xbc9710bf	-0.018440602
124	0x3ea72c0b	0.3265079
125	0x3ec2b348	0.38027406
126	0xbe4359e1	-0.19077255
127	0x3e884b7e	0.26620096
128	0x3dfd3e8f	0.12365448
129	0x3ec2b659	0.38029745
130	0xbf19553f	-0.598957
131	0x3edf41a5	0.4360477
132	0xbe88b7e8	-0.2670281
133	0x3f66df79	0.9018474
134	0xbece6fa9	-0.40319565
135	0xbe212763	-0.15737681
136	0xbe7938b2	-0.24338034
137	0xbe441b2a	-0.19150987
138	0xbf21ffd0	-0.63280964
139	0xbc8014c1	-0.015634896
140	0x3ee8615b	0.45386776
141	0x3e5cfb52	0.21580246
142	0x3f2de415	0.6792615
143	0x3de33e98	0.11095923
144	0xbe9492cf	-0.29018256
145	0x3ef0b58c	0.4701351
146	0xbdc15eb4	-0.09441891
147	0x3e296c30	0.16545177
148	0x3ea1e68b	0.31621203
149	0xbe5f8b8a	-0.21830574
150	0xbe960971	-0.29304078
151	0xbe198a9c	-0.14994282
152	0xbea527d5	-0.32256952
153	0xbd173e2f	-0.036924537
154	0x3e93b6b8	0.2885034
155	0xbe5a950f	-0.21345924
156	0xbd86275d	-0.06550477
157	0xbde771e6	-0.11301021
158	0x3dfd147a	0.12357421
159	0xbe286b1e	-0.16447112
160	0xbf75bd40	-0.959919
161	0x3ea8f9a6	0.33002967
162	0x3f2380e8	0.6386857
163	0x3e82c2ea	0.25539333
164	0xbe4f86a0	-0.20266199
165	0xbe167d81	-0.14696313
166	0xbbef0345	-0.007294091
167	0xbec4c6b1	-0.3843284
168	0x3ebc1b72	0.3673969
169	0x3dca7cae	0.09887062
170	0x3e45b457	0.19307075
171	0x3f070750	0.52745533
172	0xbe8dde13	-0.27708492
173	0xbe4fba0d	-0.20285816
174	0xbe7e5fa9	-0.24841179
175	0x3f287911	0.6580973
176	0xbe93440f	-0.28762862
177	0xbe171b31	-0.14756466
178	0xbea3ecd2	-0.32016617
179	0xbe367282	-0.17817119
180	0xbe6a1e27	-0.22863065
181	0xbd4a1c70	-0.049343526
182	0xbbd9541d	-0.0066323415
183	0xbeb3e02b	-0.35131964
184	0xbda31a2c	-0.07963976
185	0xbe70049c	-0.23439258
186	0x3d8343e7	0.06409436
187	0xbedb727f	-0.4286079
188	0x3ec707e8	0.3887322
189	0x3e86bcc4	0.26315892
190	0xbdc5f5d9	-0.09666032
191	0xbe142c06	-0.14469919
192	0xbd7faef5	-0.06242271
193	0x3d80539f	0.062659495
194	0xbe124665	-0.14284666
195	0x3d2501fe	0.040285103
196	0x3ec9bb2d	0.39400616
197	0x3e7447a9	0.23855461
198	0x3e46fd96	0.19432673
199	0xbec36a1b	-0.3816689
200	0x3d87bab8	0.06627411
201	0xbecb9423	-0.39761457
202	0xbedfa060	-0.43677044
203	0x3dd4ded5	0.10394064
204	0x3deedb7f	0.11662959
205	0x3e4269fe	0.18985745
206	0xbeb125ac	-0.34599054
207	0xbda6620e	-0.08124171
208	0xbf350f67	-0.7072663
209	0x3ec5fb95	0.38668504
210	0x3ed92f22	0.42418772
211	0xbe8338a9	-0.25629166
212	0x3e25a0f2	0.16174677
213	0xbdb2e35a	-0.0873477
214	0x3ec0bbf9	0.37643412
215	0xbecc9274	-0.39955485
216	0xbe42c9e9	-0.19022335
217	0x3cd350ab	0.025795301
218	0x3eacd82b	0.33758673
219	0x3e3bf1fd	0.1835403
220	0xbee13329	-0.43984345
221	0x3e5dd932	0.21664885
222	0xbee5edba	-0.44907933
223	0x3e5a3dc2	0.21312621
224	0x3ec781dd	0.38966265
225	0x3e48bd93	0.19603567
226	0x3d1b6961	0.037942294
227	0xbebdc182	-0.37061697
228	0xbe80a76d	-0.25127736
229	0x3e62d5a1	0.22151805
230	0x3ed57db8	0.41697478
231	0x3e6ef8d0	0.23337102
232	0x3e8e894b	0.2783912
233	0xbee4b145	-0.44666496
234	0x3f2bcfdc	0.67114043
235	0x3e3dff8e	0.18554518
236	0xbe140591	-0.14455248
237	0xbe00cb6c	-0.125776
238	0xbe8af7a4	-0.2714206
239	0x3dc59f17	0.096494846
240	0x3e10bcfa	0.14134589
241	0xbe58ee91	-0.21184756
242	0x3daef4f4	0.08542815
243	0xbdd2b7e6	-0.10288982
244	0xbe9f189a	-0.31073457
245	0x3ed7f9d1	0.42182782
246	0x3ec13dbe	0.37742418
247	0xbe104629	-0.14089264
248	0x3eb1ea2c	0.3474897
249	0xbce51e2d	-0.02796849
250	0xbd690a25	-0.05689444
251	0x3daeadeb	0.08529266
252	0xbda6393d	-0.08116386
253	0x3da970d8	0.08273476
254	0x3e85d848	0.26141572
255	0x3c74157c	0.0148977

sequential_3/dense_12/MatMul f4 [5, 16]
0	0x3db8c296	0.09021489
1	0x3eed4a65	0.4634582
2	0xbeb55a88	-0.35420632
3	0xbf52da72	-0.8236457
4	0x3ea5b10a	0.32361633
5	0xbf0d423b	-0.55179185
6	0xbe4f69af	-0.20255159
7	0x3eba9595	0.36442247
8	0xbf49990b	-0.7874915
9	0xbe535014	-0.20636016
10	0xbf122c70	-0.57099056
11	0xbe8c5a25	-0.27412525
12	0xbdba40dc	-0.09094402
13	0x3e966bb4	0.29379046
14	0xbf6dec1e	-0.9293841
15	0x3edb3eda	0.4282139
16	0x3f5f4365	0.8721221
17	0xbe4d547d	-0.20051761
18	0xbf1a90aa	-0.6037699
19	0x3f92d318	1.1470671
20	0x3f02e66f	0.51132864
21	0x3f0f168b	0.5589377
22	0x3f241dfe	0.64108264
23	0xbef025f2	-0.4690395
24	0x3f1cb9d1	0.61221033
25	0x3d9273cb	0.07150992
26	0x3e79b686	0.24386033
27	0xbe101be0	-0.14073133
28	0xbe9fa5b6	-0.31181115
29	0x3ee22fa9	0.44176987
30	0x3e8464e9	0.25858238
31	0xbe605784	-0.21908385
32	0x3d9b419f	0.075808756
33	0x3e407663	0.18795161
34	0xbda6964d	-0.08134136
35	0xbf84c755	-1.0373331
36	0x3ebf8035	0.37402502
37	0x3ea98b4e	0.33114094
38	0x3dd97bcc	0.106193155
39	0x3d9d5460	0.07682109
40	0xbf481f19	-0.7817245
41	0x3eeddf29	0.4645932
42	0xbef2de59	-0.47435263
43	0x3e99ff3e	0.30077547
44	0x3e22b776	0.15890297
45	0x3e49d8ac	0.1971156
46	0xbf6913b4	-0.9104569
47	0x3eb70ff4	0.3575436
48	0x3f66e501	0.9019318
49	0x3f18768a	0.59555876
50	0x3c710c6e	0.014712436
51	0xbdea564a	-0.114422396
52	0xbe6ef154	-0.23334247
53	0x3ed771b8	0.42078948
54	0x3e55636a	0.20838705
55	0xbe9b8c51	-0.3038049
56	0xbf34fb03	-0.70695513
57	0xbee2fb98	-0.44332576
58	0x3fa5f1f7	1.2964467
59	0x3eb8dac6	0.3610441
60	0xbd2b7bfd	-0.04186629
61	0x3f5b6b07	0.85710186
62	0x3f03578d	0.51305467
63	0xbecdb8b7	-0.4017999
64	0xbf9bc45a	-1.2169297
65	0xbe5c1313	-0.21491651
66	0xbcb9a2b2	-0.022660587
67	0x3e87ccee	0.26523536
68	0x3ed00579	0.40629175
69	0xbe3c401b	-0.1838383
70	0xbe948c83	-0.29013452
71	0x3e5b8456	0.21437201
72	0x3faea8a0	1.364521
73	0x3db5bd8a	0.08874042
74	0xbe3b3cf8	-0.18284976
75	0x3e552a1e	0.20816848
76	0x3ef3d425	0.4762279
77	0xbf7c2546	-0.98494375
78	0x3ddc33f6	0.10752098
79	0x3dda6b4f	0.10664999

sequential_3/dense_10/MatMul;sequential_3/dense_10/Relu;sequential_3/dense_10/BiasAdd f4 [16]
0	0x3f749645	0.95541793
1	0x3f318e56	0.6935781
2	0x3fe3e05c	1.7802844
3	0x3f09fc43	0.53900546
4	0x3fa127df	1.2590293
5	0x3f82f519	1.0231048
6	0xbde9092c	-0.113787025
7	0xbf1e1233	-0.6174652
8	0x3d95365d	0.072857596
9	0x3dedf41c	0.11618826
10	0xbf8024e2	-1.0011256
11	0x3fca3636	1.5797794
12	0x3eb14794	0.34624922
13	0xbe6e676f	-0.23281644
14	0x3f294ce2	0.6613294
15	0x3fb4c02f	1.412115
