scripts/models/simulation_capture_18s_20x_1,5x1m_simulation_18s_48_model_no_quant.tflite (tflite, 7736 bytes, 5 tensors)

dense_8/bias f4 [5]
000000 9f c8 06 bf eb 40 e9 3e 41 f6 fd be ed d9 12 3e
       -0.52649873 0.4555734 -0.4960194 0.14340945
000010 7c d9 d8 3e
       0.42353427

sequential_2/dense_6/MatMul f4 [18, 18]
000000 e8 c2 c1 3d cf 9a cc 3b b1 74 ed be 1b 7b 0d 3f
       0.094610035 0.0062440406 -0.4637809 0.5526597
000010 53 9d c1 3e e6 de d7 bd 2c 2e f4 be 72 d1 0d 3e
       0.3781534 -0.105405614 -0.47691476 0.13849428
000020 21 87 1e bf f3 75 c8 3e 1d 2f 41 be 1d c9 ff 3e
       -0.6192494 0.39152488 -0.18865629 0.49958125
000030 97 3e d9 be a1 11 f9 3e e1 36 05 bd fd 67 57 3d
       -0.42430565 0.48646262 -0.03252304 0.052589405
000040 ce 75 44 bf c8 66 81 3e d9 8e 1a 3f 64 0c d3 be
       -0.76742256 0.25273728 0.6037422 -0.4122039
000050 dd 23 be 3d 47 a4 50 3d f0 8c 0f 3e 67 37 59 3e
       0.09284184 0.050937917 0.14018607 0.2121254
000060 d5 d3 c7 bd 7e e0 36 be 2f 16 1e be 8b 2f 88 be
       -0.09757201 -0.17859074 -0.1543815 -0.26598772
000070 b3 ff 36 be c9 bd 63 be 8f 6e f8 3d 83 50 be be
       -0.17870979 -0.22240366 0.121304624 -0.371708
000080 95 fd 78 3e 76 41 98 be d9 c0 0c bf 6a 0c b4 be
       0.24315484 -0.29737443 -0.5498176 -0.3516572
000090 24 42 d4 bd d7 7b f9 bd 2e ca 07 3f 19 22 32 3d
       -0.10364178 -0.12181824 0.53042877 0.04348955
0000a0 b0 80 64 3d e3 1c d6 3e 36 1a 76 3d 83 bc 94 bd
       0.05578679 0.41818914 0.06008359 -0.07262518
0000b0 7a b6 cf 3e c1 a1 d0 3e 49 47 c9 be e4 53 ba bd
       0.40568906 0.40748408 -0.393122 -0.09098032
0000c0 10 5b c0 3e ee 39 1e bf b1 a0 ef 3e 19 db 17 3e
       0.37569475 -0.61807144 0.46802285 0.14829673
0000d0 70 e1 ae 3e ed 17 81 3e dc 59 e2 3e 04 34 35 3e
       0.3415637 0.25213566 0.44209182 0.17695624
0000e0 69 53 14 3e 23 b8 15 be 19 21 1b 3d 7d 37 8f be
       0.14484943 -0.14621024 0.03787336 -0.27972022
0000f0 e3 d4 b3 3e 3e c1 8c be fb 74 cd 3e b5 25 f2 be
       0.35123357 -0.27491182 0.40128312 -0.47294393
000100 93 17 a8 3e ee 1e c0 be 97 68 12 bf 6a ef 50 3e
       0.32830486 -0.37523597 -0.5719084 0.20403829
000110 81 7c 35 be 6f 48 09 be 66 88 02 3e 42 55 50 3e
       -0.17723276 -0.13406537 0.12747344 0.20345023
000120 bb 91 3a bd 85 a4 54 3e ff f9 70 3e 88 b5 c8 bd
       -0.045549136 0.20765884 0.23532866 -0.09800249
000130 db ba 75 be b1 bc 85 3e 68 f4 b2 3e db c1 c0 bd
       -0.23997061 0.26120523 0.34952092 -0.09411975
000140 07 6d 2f be 74 c2 f2 be 29 73 4d 3e 7f 24 d6 3d
       -0.17131434 -0.4741398 0.20063461 0.1045618
000150 34 9e b4 3e 65 26 0d bf 0a ba ca 3e 06 dc a4 be
       0.3527695 -0.5513671 0.39595062 -0.32199115
000160 e3 36 ca be c7 d0 03 be eb 9f 4e 3e d8 13 91 be
       -0.39495 -0.12872611 0.20178191 -0.28335452
000170 71 35 01 3f ac 63 93 be 37 87 3d be c2 dc d0 3e
       0.5047217 -0.2878698 -0.18508612 0.40793425
000180 ca 35 d2 3d 39 72 18 3e 96 3e f0 3e 1e b3 49 be
       0.10264166 0.14887322 0.4692275 -0.19697234
000190 d2 05 5c be e1 12 db be 79 df c0 3e f8 e1 1f 3d
       -0.21486595 -0.4278784 0.37670496 0.03903386
0001a0 48 43 bd 3e 18 6a f3 3d 7c 1e f4 3e ea 56 25 be
       0.36965394 0.1188547 0.47679508 -0.16146436
0001b0 e8 83 c4 bd f2 29 22 3e 49 65 d3 bc 6d f6 7e 3e
       -0.095954716 0.15836313 -0.025805132 0.24898691
0001c0 82 92 ea be 24 15 c2 ba e1 20 85 be 0e 33 6f 3e
       -0.45814902 -0.0014807326 -0.26001647 0.2335932
0001d0 cd 78 d1 3e 71 a2 a6 3e 3e 9d 1b 3e 75 0a 1c 3e
       0.40912476 0.32545808 0.15196702 0.15238364
0001e0 51 c0 7e 3e 75 af df 3e 54 8a 21 3e 36 95 d8 3e
       0.2487805 0.4368855 0.15775424 0.4230134
0001f0 6f 1e 97 3e 26 a3 ef 3e 30 44 27 3d 55 7d 4b bf
       0.29515406 0.4680416 0.040836513 -0.79488117
000200 91 11 72 3e 5a c9 9b 3e c1 c8 e8 3e 0d 54 14 bf
       0.23639514 0.30427057 0.45465663 -0.5794075
000210 30 78 71 be cf 0b e8 3e 5e 2a 1d 3e 5d 69 4b bd
       -0.23581004 0.4532151 0.15348193 -0.04966103
000220 f1 20 15 bf e3 10 c1 3e e3 53 06 bf 7d 45 43 3d
       -0.5825339 0.37708196 -0.5247175 0.04767369
000230 4a 20 a2 be 11 24 a0 3e 6f 1f 13 bf 5f 0b ba 3d
       -0.3166526 0.31277516 -0.5746984 0.090842
000240 ac 25 3e 3e 20 71 4d 3f 03 f7 3b be ad 54 cf be
       0.18569058 0.8025074 -0.18355946 -0.4049429
000250 04 ac eb be 6e c3 3c be e5 24 41 3e 2c 84 f9 be
       -0.46029675 -0.18433926 0.1886173 -0.48733652
000260 93 49 81 3e 04 f4 25 3b 06 6b a6 3e f0 05 92 3d
       0.25251445 0.0025322447 0.32503527 0.07130039
000270 60 05 07 3f 08 b0 27 bf 49 2f ae 3e eb 2c 82 3e
       0.52742577 -0.6550298 0.3402045 0.25424895
000280 47 3f 0c 3c 3b 69 f8 be c9 d3 2f 3e 18 8c 5f be
       0.008560008 -0.48517784 0.17170633 -0.21830785
000290 f2 74 79 3e a8 a4 00 3f 86 6d 03 3e 38 f5 68 3b
       0.24361017 0.50251245 0.12834749 0.0035546552
0002a0 69 0f a8 3d 3f d5 c1 bd bf ec 70 be 94 99 04 3e
       0.08206064 -0.094645016 -0.23527811 0.1294921
0002b0 bb 29 88 3e c4 ca c2 bd f8 17 d2 3d 96 a6 00 3e
       0.26594338 -0.09511331 0.10258478 0.12563547
0002c0 42 9f b3 be cf 13 b6 be d6 9b 55 be 2a 17 04 3f
       -0.35082442 -0.35561988 -0.20860228 0.51597846
0002d0 cd 08 3f be 13 9e b0 3d 45 b2 56 be 4a db 86 3e
       -0.18655701 0.086239 -0.20966442 0.2633918
0002e0 21 51 6e 3e d7 45 aa be 7e f2 5d be 5b a1 98 be
       0.23273136 -0.3325641 -0.21674535 -0.29810604
0002f0 c4 31 b6 3e 9a c5 93 3e d3 30 de bc ed 1d c1 3e
       0.35584843 0.28861696 -0.02712289 0.37718144
000300 b5 5d cf be c2 e6 4d 3e 65 ae 64 be 3d f3 46 3c
       -0.4050118 0.20107558 -0.22332151 0.012142953
000310 f3 bb ea 3e c1 70 17 3e a7 26 9d 3e 29 c1 36 3d
       0.4584652 0.14789106 0.30693552 0.044617806
000320 13 c4 9d 3e 20 fc 0c be 22 f0 20 bd 9c 5e 5c bd
       0.30813655 -0.13768053 -0.03929151 -0.053801164
000330 fe 9b 24 be 51 2c 22 be aa 5f c2 3d df 09 20 bf
       -0.16075131 -0.15837218 0.09490903 -0.6251506
000340 0b bf 2a 3e 8e c5 8d 3e fd 82 89 be 37 6a a2 3e
       0.1667444 0.27689785 -0.2685775 0.3172166
000350 75 53 be 3e 75 b5 d0 be a9 d7 03 3f 2c e2 b1 be
       0.37173048 -0.4076344 0.51500946 -0.34742868
000360 4f be 91 be a7 69 2e 3f 89 a7 5b be 9a 35 b0 3e
       -0.28465506 0.6812996 -0.21450628 0.34415895
000370 fa 94 a6 3e e0 ef 83 be 14 a8 af 3e 04 fd 6d 3b
       0.32535535 -0.25768948 0.3430792 0.003631414
000380 28 7e ad 3e 72 2b bd 3d 99 1b 9e 3e 28 f4 d6 3e
       0.33885312 0.09236802 0.3088043 0.4198315
000390 8f 4c a6 be de 21 bb 3c 11 91 2d 3e 53 90 0d 3f
       -0.32480285 0.022843298 0.1694987 0.55298346
0003a0 d7 6d f0 3e db 4c 8c be d4 17 7e bd 18 f3 de be
       0.469588 -0.27402386 -0.062034443 -0.4354484
0003b0 c4 1b b6 3e cb 03 9d bd 27 00 94 bc 69 49 67 be
       0.35568058 -0.07666739 -0.018066479 -0.22586598
0003c0 44 f7 af be a7 4e 92 3e 8a 6a 4c 3d 21 da 03 3f
       -0.34368336 0.28575632 0.04990629 0.51504713
0003d0 e3 5b fe be ba 35 07 bf c9 d2 a0 bd d3 dd 13 3e
       -0.4967948 -0.52816355 -0.07852704 0.14440088
0003e0 cc bc 0f 3e 69 3a d1 be 60 5b 04 3f 0b 84 46 3e
       0.14036864 -0.40864876 0.5170193 0.19386308
0003f0 43 c5 c0 be 2b ab 23 3d 54 dd 8e be 0f 37 cf 3e
       -0.376505 0.03995816 -0.27903235 0.40471694

sequential_2/dense_7/MatMul f4 [48, 18]
000000 31 0b 3a be a6 e8 02 be 01 05 00 be 92 f3 54 be
       -0.18168332 -0.12784061 -0.12501909 -0.2079604
000010 05 2b 9e 3d 85 18 06 bd 59 92 21 be 7a 75 67 bc
       0.07723049 -0.032738227 -0.15778483 -0.01412713
000020 3a 0c 5c be a7 dd a2 3e 71 1b 77 3e ab e9 16 be
       -0.21489039 0.31809732 0.24131562 -0.14737575
000030 3a f9 9b be 3d 69 a8 3e 0c 11 24 3e 35 de 42 be
       -0.30463582 0.3289279 0.16022128 -0.19030078
000040 78 5f c0 3e 8b c3 d1 3d 9c 78 d0 3e e1 a5 c4 3d
       0.37572837 0.10242375 0.40717018 0.096019514
000050 02 0a 7b 3e 58 53 82 3d 14 51 e8 bd f0 58 8d 3e
       0.24515536 0.06363553 -0.113435894 0.27606916
000060 86 2f 1e be 29 5a 86 3e 6a e0 e4 be ac 55 51 be
       -0.15447816 0.26240662 -0.44702464 -0.20442837
000070 57 bc 1f be 76 3d e3 3d 7a 39 f8 be d4 6c ba 3e
       -0.1559919 0.11095707 -0.4848135 0.36411154
000080 26 11 7e 3e 0d 3c 33 be d6 4c 64 3e 58 d6 6f 3e
       0.24811229 -0.17503376 0.22294936 0.2342161
000090 3a 3b 87 3e 36 a6 89 3e 9c 94 85 be 7a e6 d7 be
       0.26412374 0.2688462 -0.26089942 -0.42168027
0000a0 2a 3c 03 3e a5 41 af bd b2 51 e0 be 16 ef 04 be
       0.1281592 -0.085574426 -0.4381233 -0.12981829
0000b0 33 26 ce be 30 30 4c be 82 9e 53 be ce 26 d9 bc
       -0.4026352 -0.19940257 -0.20665935 -0.026507761
0000c0 0c 2e e4 bd 74 ae ad be 47 0b dc be d2 56 74 be
       -0.11141595 -0.3392216 -0.42977354 -0.23861244
0000d0 eb c1 6d be 42 26 66 bc 33 90 60 bd a5 63 6e 3c
       -0.23218505 -0.014047207 -0.05482502 0.014550124
0000e0 b2 9f 9a 3e 95 2a 31 bd ea e0 1a 3d b1 40 8e 3e
       0.30199963 -0.0432535 0.03781215 0.2778373
0000f0 28 92 ba 3d 03 86 79 3c ab 72 96 bc e7 1f 89 be
       0.09109908 0.015229705 -0.018365225 -0.26782152
000100 88 4c 49 3e 73 18 a9 3e 96 a1 cd bc 1b 4f 7e be
       0.196581 0.33026466 -0.025101464 -0.24834864
000110 e5 f8 1e be 18 0e 53 3e ac 64 16 3e 03 bd 3f be
       -0.15524633 0.20610845 0.14686841 -0.18724446
000120 9f 9f 01 be ea fc e9 3a 0c 8f 7a be 0b 0c 4a be
       -0.12658547 0.0017851864 -0.2446863 -0.19731157
000130 84 03 85 be 8c e6 5d be 66 60 a7 bd d3 66 0a bd
       -0.25979245 -0.21669978 -0.081726834 -0.033789467
000140 c6 cc 90 be 44 5a 56 3e f0 67 f0 3b 6e 09 d0 bb
       -0.2828123 0.20932871 0.007336609 -0.0063487804
000150 c6 60 bf be 42 76 05 3e 8c 18 93 3e 84 fb 36 3e
       -0.3737852 0.13033393 0.28729665 0.17869383
000160 d3 6a 09 be f8 9f 83 be c6 b9 09 3d d9 de 75 bd
       -0.13419656 -0.25707984 0.033624433 -0.060026977
000170 41 ef 83 be c1 67 a9 bd 0e 2c 86 3e bb d7 e4 bd
       -0.25768474 -0.082717426 0.26205486 -0.1117396
000180 40 8c ac bd 81 a1 95 3d fd 44 b8 bd 63 95 a1 3e
       -0.08425188 0.07306195 -0.089975335 0.31559286
000190 2c a6 75 3e c3 0e 55 3e 21 e1 12 3e 54 17 4c 3d
       0.23989171 0.20806412 0.14343692 0.049826935
0001a0 18 de a9 3b a9 ee 24 3e bf 75 93 3d 80 d3 d1 3d
       0.0051839463 0.16106667 0.07200193 0.102454185
0001b0 56 64 5b be a3 44 d8 bc 34 fe 74 3e 75 84 d9 be
       -0.21424994 -0.026399916 0.23925096 -0.4248387
0001c0 75 e3 dc 3e d6 d6 34 3e a5 a3 aa 3d a3 f4 2d bd
       0.43142286 0.17660078 0.08331994 -0.042469632
0001d0 d1 e0 b0 3e 0f f6 dc 3c 6c b9 1d be 4b e2 9f be
       0.3454652 0.026972799 -0.15402764 -0.31227335
0001e0 7c 8d c0 be 7a ef 70 3e 96 57 63 3e 45 25 bb 3e
       -0.37607944 0.23528853 0.2220138 0.36551872
0001f0 32 80 cc 3e 2e 9a 2e 3d 02 db 39 be 9e ff 63 3e
       0.39941555 0.042627506 -0.18149951 0.22265479
000200 c5 4e 9f be e6 2f f9 bd 8d e7 b4 bd ac 9c a5 3d
       -0.31114784 -0.12167339 -0.08833227 0.080865234
000210 4e 06 ce bb 52 94 89 3e d1 1e 04 3e c9 cd 38 be
       -0.0062873727 0.26870972 0.1290238 -0.18047251
000220 c0 8e 5d 3e e4 2c 6f bd a1 66 86 be 2f 8d 48 be
       0.21636486 -0.05839242 -0.26250175 -0.19585107
000230 e5 ff 4b 3e a8 b1 6d be 72 80 53 be e7 1f 9d 3d
       0.19921835 -0.23212302 -0.20654467 0.076721005
000240 6f 24 3c 3e 96 63 20 3e a7 ec bd bd 23 d5 d8 bd
       0.18373273 0.15662989 -0.092736535 -0.105875276
000250 d0 ae 01 3e 33 9f 2c 3d 6a 03 56 3e 3a fd b7 be
       0.12664342 0.04214401 0.2089974 -0.35935384
000260 a8 75 31 be f8 32 ff bd 0f 9b a4 be ed 52 bc 3e
       -0.17330039 -0.124608934 -0.3214955 0.36782017
000270 b9 23 87 be 1d 11 c0 3d 33 53 97 be 0d 44 28 3d
       -0.26394442 0.09378264 -0.29555663 0.041080523
000280 9d a3 0f 3e b3 8a 96 bc e8 9a bc be e7 76 ea 3d
       0.14027257 -0.018376684 -0.36836934 0.1144846
000290 2e 02 98 3e ff 27 80 bd 93 1d 2e 3d 8f 03 f5 3e
       0.29689163 -0.06257629 0.042508673 0.47854277
0002a0 00 d8 fb bd d0 6e 77 be 1f 30 00 be dd 87 18 be
       -0.12297058 -0.24163365 -0.12518357 -0.14895578
0002b0 56 d0 4f 3e 96 c5 4c 3e 37 c4 44 3e 94 11 30 be
       0.20294318 0.19997248 0.19215475 -0.17194206
0002c0 86 0e 10 bf 65 4c 46 3e 1e b6 07 bf 7c 78 b0 be
       -0.5627216 0.1936508 -0.53012264 -0.34466922
0002d0 7a 50 4e 3e d5 af 4c 3d da 37 a2 be 42 74 29 3d
       0.20147887 0.049972374 -0.31683236 0.041370638
0002e0 42 43 bf 3d 7a ee 70 be 62 5a 33 3d 77 2f 38 3e
       0.09339 -0.23528472 0.043787368 0.17986856
0002f0 c3 a1 b0 3e cd 8b 75 3e 15 32 62 3e 62 fa b4 3d
       0.34498414 0.23979111 0.22089417 0.08836819
000300 86 f1 4b 3e 64 27 89 3e b7 c5 3e be c4 0d 30 be
       0.19916353 0.26787865 -0.1863011 -0.17192751
000310 a7 b9 35 3e f3 08 51 3d 38 9e 91 3e bc 6b 5c 3e
       0.17746602 0.051033925 0.28441024 0.21525472
000320 d0 6a 51 3e f7 4a 8f 3e d1 af 0f be b4 34 98 be
       0.20450902 0.2798688 -0.14031912 -0.2972771
000330 91 84 38 be 21 22 1d 3e 5e 6c 72 be 63 d8 0d be
       -0.1801932 0.1534505 -0.23674151 -0.13852076
000340 54 3d 94 3e 08 d7 68 3d db 40 bf be 9b 63 a1 3d
       0.2895304 0.056845695 -0.37354168 0.07880326
000350 94 bf 80 bd 55 1c e5 3d 67 71 b0 3e 6c e0 8a 3e
       -0.06286541 0.111870445 0.3446152 0.27124345
000360 56 1c 8a be 18 f7 e8 3e 29 8a 39 3e 41 ec b7 3e
       -0.26974744 0.45501018 0.1811911 0.35922435
000370 99 fb 0f 3f 7b de 2a 3e c7 74 af be 14 82 d8 be
       0.5624328 0.16686432 -0.34268782 -0.42286742
000380 c0 1a 30 3f cd 29 f9 3d 78 03 af bc df e6 61 be
       0.6879082 0.12166176 -0.021363959 -0.22060727
000390 19 f4 9b 3d 28 56 82 be b0 28 7b bb 27 27 23 bb
       0.07614917 -0.25456357 -0.0038323812 -0.0024895163
0003a0 cf d6 4e 3d 76 9e a9 be 7d f6 ae bc 85 c8 a9 bc
       0.050497826 -0.3312871 -0.02135777 -0.020725498
0003b0 cf 9b 67 3d 9d 82 8f be 8c 10 58 be 98 89 55 3e
       0.056545075 -0.28029338 -0.21100062 0.20853269
0003c0 e6 48 86 3d d1 9d 02 bd 4b 46 0b 3d c7 65 11 be
       0.06556873 -0.031888787 0.034002583 -0.14198981
0003d0 c1 f0 49 bc 8f b9 87 be 39 67 53 be 63 68 b7 bd
       -0.012325467 -0.26508757 -0.20644845 -0.08955457
0003e0 4f de 80 bc a6 51 38 be 9f 8d 87 3e 71 de 86 3d
       -0.015731005 -0.17999896 0.26475236 0.06585396
0003f0 f2 da 90 bc b5 14 c8 3c 3c 8f 3f be 07 f5 9f bd
       -0.017682526 0.024423936 -0.18706983 -0.07810407

sequential_2/dense_8/MatMul f4 [5, 48]
000000 f3 4a 72 3c 5d f6 c1 be 3e 50 81 bd bb 07 14 bb
       0.014788377 -0.37883273 -0.06314133 -0.0022587616
000010 e8 5b d3 bd 80 2c 44 3e 89 bc 42 be df d2 58 3e
       -0.10320264 0.191576 -0.19017233 0.21174191
000020 2f ce 47 be 06 a9 b8 be db c8 42 3e f3 2d 90 3b
       -0.19512247 -0.36066455 0.19021933 0.004400009
000030 46 37 9b be c0 1e 23 3e fd c0 90 3e a2 9b 08 3e
       -0.30315608 0.15929699 0.28272238 0.13340619
000040 13 56 fd 3d 63 72 7e bd b7 dd e2 be 34 68 26 be
       0.12369933 -0.062120806 -0.4430978 -0.16250688
000050 17 11 e2 3d c1 21 42 3e 09 4d 77 3e 37 dd e0 be
       0.11038416 0.18958189 0.2415048 -0.43918774
000060 43 ec cb 3d 50 6a 31 3e 89 b6 20 bf 52 96 62 3e
       0.09957173 0.17325711 -0.62778527 0.22127655
000070 6f c0 40 be d8 28 4f 3e 97 4e 7b be f7 8a 6e 3d
       -0.18823408 0.20230424 -0.24541698 0.058237996
000080 ac 19 91 3d 6b ac d1 3c 32 d4 ac be 2e c9 04 be
       0.07084975 0.02559491 -0.33755642 -0.12967369
000090 1e fa 88 3a da eb 68 be 67 97 16 3e 0b 2a 88 bc
       0.0010450517 -0.2274622 0.14706193 -0.01662161
0000a0 0d 3a 87 bd a1 1b 24 3e 99 7f 92 3e 31 a9 42 bf
       -0.06602869 0.16026165 0.28612974 -0.76039416
0000b0 52 92 ac be 12 2c a5 be 7f ef 15 3c a3 e4 4e be
       -0.33705384 -0.32260185 0.009151339 -0.20204405
0000c0 31 53 a6 be a7 7b 20 3f 8b 3f 16 bf 18 3c 9c 3e
       -0.32485345 0.6268868 -0.5869071 0.30514598
0000d0 68 8e ac be 29 2e 1d be 83 5c 21 3f 69 ca 21 be
       -0.33702397 -0.1534964 0.63031787 -0.1579987
0000e0 83 0d 3a 3e 59 be be 3e bc 56 e2 bd cb c7 4d 3e
       0.18169217 0.372546 -0.110516995 0.20095746
0000f0 90 63 49 3f fe 2e 99 bd 23 f6 15 be b9 ee a4 be
       0.78667545 -0.07479666 -0.14644675 -0.3221338
000100 bc 1e 0b 3f 25 c7 f8 3e 1e 4e f4 3e e3 7c 34 be
       0.5434377 0.48589435 0.4771585 -0.17625766
000110 66 47 27 3f 31 06 1f 3e f9 84 27 be 6d 4e 8c 3e
       0.6534332 0.15529706 -0.16359319 0.27403584
000120 19 28 ae 3e bd 39 b4 3e a7 7f 08 3f 0f b0 c1 be
       0.34014967 0.352003 0.5331978 -0.37829635
000130 a5 6b 43 3e 1b f3 4e be 2c 94 c6 3e 2b 5c fb be
       0.19084032 -0.20209925 0.3878492 -0.49093756
000140 58 91 cb 3e dc a4 18 3e be a8 a5 3e ea a5 b6 3e
       0.39759326 0.14906639 0.32355303 0.35673457
000150 76 45 b5 3e 80 64 b7 3e 8a f3 8f be 40 9c 57 be
       0.35404557 0.35818863 -0.28115493 -0.21055698
000160 2f 13 af 3e ad 4a a2 bd a7 bc b7 3e 37 b2 21 3f
       0.34194323 -0.079243995 0.35886118 0.6316256
000170 16 67 a2 3e d3 b3 b3 3e 24 fc 93 be 63 16 84 3e
       0.31719273 0.35098132 -0.28903306 0.2579833
000180 2e 32 04 3e 16 be 81 bd 5e 74 71 be 05 e2 78 bd
       0.12909767 -0.06335084 -0.23579547 -0.060762424
000190 06 9e 63 3e 2b 56 0b 3a 31 cc a8 3d 4e ed 73 be
       0.2222825 0.0005315269 0.082420714 -0.23820993
0001a0 86 60 d7 be ae 1a 29 be 80 71 fe 3d 32 04 35 be
       -0.4206583 -0.16514084 0.12423992 -0.17677382
0001b0 5d 17 58 3d 48 08 32 3e 6f 65 08 bd 06 bc 82 bd
       0.052756656 0.17385972 -0.03329986 -0.06383519
0001c0 8e fc 89 be ed 99 19 3e 0e d6 ac be 30 f6 5a 3e
       -0.26950496 0.15000124 -0.3375706 0.21382976
0001d0 87 17 d1 be 2a 6f 4d be 6b 56 31 bd 81 95 b4 be
       -0.40838262 -0.20061937 -0.043295305 -0.35270312
0001e0 0b 4f 48 3e 76 1f 81 3e e9 be 37 bf 7e f3 18 be
       0.19561402 0.25219315 -0.7177568 -0.14936635
0001f0 f0 64 56 3e b2 1c 90 3e cb e3 e2 be 49 01 ea bd
       0.20936942 0.28146893 -0.44314417 -0.114260264
000200 f8 9c b3 3c 5c ae 07 3d 63 0b 7a 3d f2 91 02 bf
       0.021925434 0.033125266 0.061046015 -0.51003945
000210 90 88 c9 bd c8 dd 8e be bc 5b 93 3e 93 90 23 3e
       -0.098405 -0.2790358 0.28780925 0.1597312
000220 25 f5 b4 bc d6 81 72 3e 42 fb a6 3e 72 6a 20 bf
       -0.02208955 0.23682341 0.3261357 -0.6266242
000230 44 07 16 be ab 13 a6 be c8 1e a9 3e 4b 05 98 be
       -0.14651209 -0.3243688 0.33031297 -0.29691538
000240 12 bf a0 be c2 ab 25 bf 9f 76 91 3e 03 eb c8 3e
       -0.31395775 -0.64715207 0.28410813 0.392418
000250 2f 16 cb 3c f2 1e 85 bd 89 b1 e4 be eb 1b cd bd
       0.024790851 -0.06500043 -0.446667 -0.100150906
000260 51 4a 50 3e eb 04 31 3f bd 18 ce 3a d8 67 1c bf
       0.2034085 0.6914813 0.0015723925 -0.61095953
000270 e4 da 4d 3f 67 70 32 3d 17 94 8c be 18 6d a6 3e
       0.80412126 0.043564226 -0.27456734 0.32505107
000280 99 bf 38 3e e3 13 ab bd ec 42 10 bf b2 a4 52 be
       0.18041839 -0.083534025 -0.56352115 -0.20570639
000290 03 e4 48 bf ff d7 c9 be cc 2e bd bd 2a c7 8f 3e
       -0.7847292 -0.39422604 -0.092374414 0.28081638
0002a0 d5 02 bd be 46 66 1b bf b3 9b ad bd 33 ad e4 3e
       -0.36916223 -0.6070293 -0.08476963 0.4466339
0002b0 9c 33 88 3e b0 fe d1 3e 62 40 98 3d b0 2d 1b 3f
       0.26601875 0.41014624 0.07434155 0.6061659
0002c0 27 3d 9b 3e f2 8b a4 bd ca c4 39 be 10 b8 df 3e
       0.30320093 -0.08034505 -0.18141475 0.43695116
0002d0 3d 48 31 3f a3 d6 2c 3f 2b 0d 6f be b9 ee 78 bd
       0.6925085 0.6751501 -0.23344867 -0.06077454
0002e0 31 f8 e5 be b9 cd 10 be 34 3a e5 3c 4f 29 02 3e
       -0.44915918 -0.14140977 0.027981855 0.1271107
0002f0 ce aa e8 be 50 20 85 3e e4 7a 92 3e 93 43 95 be
       -0.45442814 0.26001215 0.28609383 -0.29153118
000300 77 e5 2d 3e 2b 8a 39 3f c7 cc c8 3c e0 73 b4 3d
       0.16982065 0.7247645 0.024511708 0.08811164
000310 18 24 56 3e 2d d0 aa 3e 49 ba 80 be 75 fd 8b be
       0.20912206 0.3336195 -0.25142124 -0.2734181
000320 01 77 be bd 1d 2f 02 bf 77 f5 fa bb 40 b6 ef 3e
       -0.09300042 -0.5085314 -0.007658656 0.46818733
000330 55 e9 74 bf ba 12 88 bd 41 ec e8 3a 1c fb 9d 3e
       -0.95668536 -0.06644197 0.0017770604 0.30855644
000340 bb ae 92 be 3e 8c 6c bd c3 0b 10 3f b5 62 b5 be
       -0.28648934 -0.057750933 0.56267947 -0.3542687
000350 8c 24 2b 3f 67 32 67 3e f4 40 a8 be 18 33 c9 bd
       0.6685264 0.2257782 -0.32862055 -0.098241985
000360 eb bc c0 3e dc 44 aa 3e 01 f8 c2 3e ef 86 9c 3e
       0.37644133 0.3325566 0.38079837 0.30571696
000370 9a a4 91 be 2f 44 21 be b6 32 7a 3e f9 d4 c7 3e
       -0.28445894 -0.15748666 0.24433407 0.39029673
000380 85 8d 1a bf bf 3c b9 be 18 0f 11 3f 9b 21 eb 3b
       -0.6037219 -0.36179158 0.56663656 0.007175637
000390 99 4f e9 be 5c 6e 18 bf 1a fe 9c bd fe 97 9c bd
       -0.4556854 -0.59543395 -0.076656535 -0.07646178
0003a0 1b 70 ff 3e 5c 4d 41 3d a1 bc c8 be 3d ec f7 3e
       0.49890217 0.047192916 -0.39206412 0.48422423
0003b0 57 ec f1 3e 11 de e1 be 60 37 a9 3e a8 96 80 3e
       0.47250625 -0.44114736 0.3305006 0.25114942

sequential_2/dense_7/MatMul;sequential_2/dense_7/Relu;sequential_2/dense_7/BiasAdd f4 [48]
000000 45 0f 79 3e 6a ec 92 3f 7d 3b ed 3e 88 04 9e 3d
       0.24322231 1.1478398 0.46334448 0.07715708
000010 f1 f5 01 3e 1f 20 49 bd 69 eb 35 3e 8f ce db 3d
       0.12691475 -0.0491029 0.17765583 0.10732757
000020 87 40 88 3e 56 bb e4 bd ae 1e ed bd bb 75 83 3f
       0.2661173 -0.11168544 -0.11578117 1.0270303
000030 ea d0 d1 3e b9 77 62 bd 5a 8f 7c bc f5 8c 96 3e
       0.409797 -0.055289958 -0.015415037 0.29404417
000040 28 55 eb be 6f ac d6 be 8f 68 61 3f 33 70 c4 3d
       -0.45963407 -0.4192843 0.8805017 0.09591713
000050 cc e9 80 3f b2 60 07 3f bb 9b ab 3d 73 69 30 bd
       1.0071349 0.5288192 0.083793126 -0.043069314
000060 d7 5c 02 3f 85 44 f1 3e 4d 26 ce be 8b a2 8a 3d
       0.5092291 0.4712259 -0.40263596 0.06769284
000070 6e 5a f3 be e0 3f f1 3e ac 3c 09 bf 21 f0 50 3f
       -0.4752993 0.47119045 -0.536082 0.8161641
000080 06 2e 15 3f c0 97 5b bd 57 51 e9 3e 8b 5c e1 3d
       0.5827335 -0.053611517 0.4556987 0.11003979
000090 a3 8e 04 3f 12 66 86 3e bb 00 a7 3e d7 46 05 be
       0.51780146 0.26249748 0.32617745 -0.13015305
0000a0 0b 8a ca 3e b4 b2 c6 bd 84 25 cd be 36 8d 16 3e
       0.39558443 -0.09702054 -0.40067685 0.14702305
0000b0 09 3d 2f 3f fa a3 ea 3e eb 97 22 3e 69 66 2b 3e
       0.6845251 0.4582823 0.15878265 0.16738285
