scripts/models/simulation_capture_18s_20x_1,5x1m_simulation_18s_48x48_model_no_quant.tflite (tflite, 17548 bytes, 7 tensors)

dense_20/bias f4 [5]
-0.44373655 0.555152 -0.55705476 0.060908254 0.38473085
00000000: 7031 e3be 711e 0e3f 249b 0ebf ef7a 793d
00000010: 71fb c43e

dense_19/bias f4 [48]
-0.010147885 -0.050735444 0.08461273 -0.15905961 0.15801555 0.16218282 0.14923404 -0.03655155
0.050141547 -0.027215453 0.0009683022 0.102356814 -0.08229711 -0.05664165 0.2595507 0.008057194
-0.024429671 0.039751016 -0.05191715 0.13158245 0.1313871 0.26553643 -0.066935234 -0.05427206
0.19720532 -0.016959772 0.31511432 0.24219543 -0.10868193 0.016323969 -0.038439948 0.21015535
-0.018045222 0.193969 0.0034032573 0.007323772 0.0 0.0005054715 0.0022519396 0.2488272
-0.11313553 0.029326553 -0.047601074 0.0019147169 -0.01731401 0.16719022 0.2762927 0.15318918
00000000: 5143 26bc f8cf 4fbd 7049 ad3d 86e0 22be
00000010: d4ce 213e 4113 263e cfd0 183e 14b7 15bd
00000020: 3961 4d3d f1f2 debc a9d5 7d3a 73a0 d13d
00000030: 638b a8bd 1301 68bd d4e3 843e 5202 043c
00000040: bc20 c8bc f6d1 223d 14a7 54bd 8dbd 063e
00000050: 578a 063e 64f4 873e 5715 89bd 614c 5ebd
00000060: 31f0 493e 38ef 8abc aa56 a13e 1402 783e
00000070: a294 debd d8b9 853c 3573 1dbd f732 573e
00000080: 93d3 93bc cf9f 463e 2f09 5f3b 41fc ef3b
00000090: 0000 0000 9e81 043a 4795 133b 8fcc 7e3e
000000a0: 9ab3 e7bd 3d3e f03c 58f9 42bd 3df7 fa3a
000000b0: 1cd6 8dbc ea33 2b3e 3d76 8d3e a0dd 1c3e

sequential_5/dense_17/MatMul f4 [18, 18]
-0.014809779 -0.09336724 0.15079357 -0.030600136 0.39701313 0.010274982 0.4135815 0.118145294
0.2544329 0.36529198 -0.52408874 -0.00041961682 -0.14426234 -0.34498984 0.35901052 -0.1107635
0.6430055 0.21069603 -0.20863125 -0.6699718 -0.061105683 -0.01618773 -0.3616225 0.34791148
-0.22453448 0.42431402 -0.16325524 -0.22109842 -0.6564889 0.20759188 -0.13394368 0.08349222
0.015703952 -0.39241555 0.16670856 0.26476875 -0.22678503 -0.08406463 -0.08448935 -0.10050076
0.16741957 0.42169663 -0.16617723 0.09839722 0.030981176 0.22254424 0.18449087 0.33489206
0.48353764 0.056114137 0.16430318 -0.15775764 -0.4936156 0.25241324 0.13517103 -0.5362378
0.2433598 -0.28286707 0.1712518 0.37538844 0.12033986 -0.20332044 0.38087693 -0.3956747
-0.50808907 -0.5259484 -0.023660839 -0.056897115 0.40864792 -0.47220406 0.14417067 0.3207303
-0.4206872 0.34946883 -0.06359679 -0.036694825 -0.34083667 0.07363252 -0.10726252 0.11210906
-0.055040907 0.44618344 -0.24706338 -0.10565678 -0.21961458 0.29751873 -0.032184657 0.023684556
0.35788944 0.4422448 -0.27475446 -0.049131375 0.323966 -0.21963619 0.085337065 -0.1334012
-0.31559816 0.31020415 0.17024787 0.40446648 -0.3315226 0.39060304 -0.029318571 -0.19444223
-0.20513062 0.22324038 0.33564332 -0.23191991 0.17962681 -0.42026362 0.04123559 0.64211315
0.62458444 -0.17772186 0.25187135 0.164339 -0.31368056 -0.3715755 -0.428072 -0.024196474
-0.42525163 0.33870834 -0.3608387 -0.38135803 -0.20575304 -0.37462243 0.06600821 -0.22017543
0.38513073 0.14941497 -0.32911617 0.22618012 -0.28463116 -0.31617635 0.30873287 -0.28516868
-0.58345425 -0.4526671 0.29181674 0.0170624 0.27393833 0.21241003 0.44404367 -0.024549635
-0.6152888 -0.1545812 0.12220212 0.15624402 -0.32302314 -0.08511925 -0.053335983 0.38900495
0.13793033 0.6171871 0.25958726 0.10077715 0.29099393 0.46936306 0.020729689 0.37690622
0.26903477 0.10286733 -0.59928256 -0.68840444 0.19866483 0.6898536 0.3327056 -0.25272825
-0.114602774 -0.30252475 -0.60688716 0.2488963 0.20957178 0.22736838 -0.018568644 0.23493613
-0.15783125 0.06933189 -0.4334793 0.21943761 -0.29755303 -0.13110481 0.30402198 0.054826375
0.17608288 0.28045893 -0.06995696 -0.047565006 0.3585733 0.6757129 -0.5167396 0.40165251
0.0896737 0.083087504 0.29469454 0.3250948 0.4229208 -0.12593722 -0.12085141 0.1490326
-0.16504353 0.25208366 -0.1978975 0.23258102 0.26863113 -0.3176657 0.3892244 -0.07414046
0.6011896 0.09810922 0.24039397 -0.33584487 -0.08698877 0.2582429 0.2173953 0.067788325
0.16850543 0.21940547 -0.14685796 0.27497512 -0.0089717135 0.24082811 -0.12314909 0.20680116
0.08620867 0.063482694 -0.36685228 -0.19468978 -0.46031687 0.18444586 -0.17572989 -0.03629744
-0.124270275 0.028909396 -0.016692357 0.43332466 0.25784037 -0.39010563 -0.38537264 0.20299593
-0.03190351 -0.31438377 0.4847306 -0.5622409 0.5925104 0.021561235 -0.123468 0.10791635
0.42634606 -0.018836623 0.9228879 -0.34800893 -0.31752306 0.35627913 -0.22668588 0.21122906
00000000: b7a4 72bc 5337 bfbd a169 1a3e 23ad fabc
00000010: 4e45 cb3e 6658 283c f4c0 d33e 29f6 f13d
00000020: 0745 823e 8d07 bb3e ae2a 06bf 0400 dcb9
00000030: 82b9 13be 82a2 b0be 3ad0 b73e f9d7 e2bd
00000040: 029c 243f b3c0 573e 6ea3 55be 4683 2bbf
00000050: f449 7abd 219c 84bc 9626 b9be 7421 b23e
00000060: 5eec 65be b03f d93e 622c 27be a067 62be
00000070: a80f 28bf f792 543e 8828 09be f8fd aa3d
00000080: 93a5 803c b1ea c8be a6b5 2a3e c58f 873e
00000090: 563a 68be 142a acbd c108 adbd 58d3 cdbd
000000a0: 0970 2b3e 9fe8 d73e 5d2a 2abe 7b84 c93d
000000b0: 3ccc fd3c a3e2 633e 2deb 3c3e f976 ab3e
000000c0: 3f92 f73e f0d7 653d 183f 283e 388b 21be
000000d0: 2fbb fcbe 4f3c 813e 466a 0a3e e146 09bf
000000e0: 5033 793e f4d3 90be a25c 2f3e ea32 c03e
000000f0: bf74 f63d 3c33 50be 4d02 c33e e095 cabe
00000100: 2012 02bf 8ea4 06bf 60d4 c1bc f30c 69bd
00000110: 4d3a d13e bbc4 f1be 7aa1 133e c336 a43e
00000120: 5064 d7be 94ed b23e 093f 82bd 504d 16bd
00000130: 2582 aebe a6cc 963d 74ac dbbd 6f99 e53d
00000140: 9372 61bd 2872 e43e 2ffe 7cbe 9562 d8bd
00000150: a5e2 60be 6054 983e 0fd4 03bd 1d06 c23c
00000160: 493d b73e e96d e23e 9eac 8cbe fb3d 49bd
00000170: dfde a53e 4fe8 60be 33c5 ae3d 539a 08be
00000180: 1596 a1be 14d3 9e3e 7555 2e3e 3b16 cf3e
00000190: 55bd a9be 1ffd c73e 802d f0bc dd1b 47be
000001a0: c30d 52be 2099 643e 71d9 ab3e 6a7c 6dbe
000001b0: 17f0 373e cb2c d7be a6e6 283d 8761 243f
000001c0: c4e4 1f3f b8fc 35be 48f5 803e 7c48 283e
000001d0: bd9a a0be 253f bebe 412c dbbe af37 c6bc
000001e0: 95ba d9be 2e6b ad3e dabf b8be 5c41 c3be
000001f0: edb0 52be 83ce bfbe 502f 873d ab75 61be
00000200: db2f c53e 3d00 193e ea81 a8be c39b 673e
00000210: 2dbb 91be dee1 a1be 3c12 9e3e a101 92be
00000220: 425d 15bf fbc3 e7be 0169 953e 72c6 8b3c
00000230: a541 8c3e 0482 593e b159 e33e 511c c9bc
00000240: 9183 1dbf 894a 1ebe 1b45 fa3d 6ffe 1f3e
00000250: 4a63 a5be 0053 aebd d576 5abd a82b c73e
00000260: 9c3d 0d3e f9ff 1d3f 9fe8 843e 4064 ce3d
00000270: 28fd 943e 5b50 f03e 4fd1 a93c daf9 c03e
00000280: edbe 893e 1bac d23d 956a 19bf 463b 30bf
00000290: cb6e 4b3e 3f9a 303f 6358 aa3e 9965 81be
000002a0: dcb4 eabd 86e4 9abe f55c 1bbf acde 7e3e
000002b0: fc99 563e 42d3 683e 451d 98bc 1993 703e
000002c0: 849e 21be e1fd 8d3d 00f1 ddbe 41b4 603e
000002d0: df58 98be 5740 06be c5a8 9b3e 9f91 603d
000002e0: 124f 343e 5098 8f3e 9845 8fbd 86d3 42bd
000002f0: eb96 b73e 85fb 2c3f 0c49 04bf 66a5 cd3e
00000300: d8a6 b73d c829 aa3d 34e2 963e d372 a63e
00000310: 1389 d83e b0f5 00be f280 f7bd 009c 183e
00000320: 2c01 29be 1c11 813e a4a5 4abe b829 6e3e
00000330: 058a 893e 14a5 a2be 6c48 c73e f4d6 97bd
00000340: 90e7 193f 7ded c83d d629 763e dcf3 abbe
00000350: 2b27 b2bd 6a38 843e e09c 5e3e 9bd4 8a3d
00000360: b08c 2c3e d4ab 603e ef61 16be 8ac9 8c3e
00000370: 18fe 12bc a59b 763e 9735 fcbd afc3 533e
00000380: 2c8e b03d 3703 823d 10d4 bbbe c25c 47be
00000390: a7ae ebbe 60df 3c3e 89f2 33be a0ac 14bd
000003a0: 6a81 febd 66d3 ec3c 69be 88bc bbdc dd3e
000003b0: a703 843e edbb c7be 904f c5be 2ade 4f3e
000003c0: 41ad 02bd e9f6 a0be 9c2e f83e 05ef 0fbf
000003d0: c3ae 173f 30a1 b03c cadc fcbd 3f03 dd3d
000003e0: 084a da3e 434f 9abc 6242 6c3f 3a2e b2be
000003f0: 6292 a2be 386a b63e 5820 68be 6e4c 583e

sequential_5/dense_18/MatMul f4 [48, 18]
-0.04490111 0.3148369 0.049655296 0.23771489 -0.14545459 0.03209447 0.1812166 0.07924728
0.0096643735 0.2031869 0.23506346 -0.2786354 0.27618772 -0.27952844 -0.2954105 -0.10581444
-0.40262488 -0.10855301 0.13823205 -0.020182637 -0.25030687 0.2765878 -0.17534146 -0.074953824
0.26956815 -0.074953124 0.21027789 -0.17670137 -0.04651839 0.2645294 -0.069504395 -0.12759207
0.119866505 0.1336724 0.19068027 0.07807425 0.3677501 0.08812736 0.37692338 0.36463073
-0.3170847 -0.08727806 -0.2750493 -0.007722055 0.06603137 -0.14497091 0.09205621 0.07771001
-0.060975663 0.0186005 0.36457154 0.046423458 -0.07072731 -0.2783899 -0.15562975 0.039533246
0.2755649 -0.05390718 -3.1529227e-05 -0.22071828 0.14852837 0.053601433 0.0734551 0.023572968
5.071648e-06 -0.27645895 0.23833247 -0.17754659 0.03050317 -0.10755758 -0.28079048 0.42288384
0.06804068 0.17672288 -0.003907973 0.3738118 0.317921 0.2329412 -0.19395164 0.317133
-0.18927963 -0.28272483 0.22932401 -0.32954967 0.049579397 0.10806046 -0.3301454 -0.17153977
0.18900627 0.32304853 0.2637246 -0.19613199 -0.22234969 0.050969437 0.21570261 0.043182578
-0.032369703 0.17443179 -0.07445384 0.031551294 0.21115705 0.10474234 -0.098440245 0.2547642
-0.07045994 0.31853357 -0.110112995 -0.07290997 0.23410954 -0.10421879 0.25778928 0.2608651
-0.0091574425 0.3483176 -0.20284086 0.1697727 -0.023601828 -0.18676277 0.17558174 0.19454782
0.123316504 0.2160308 -0.1769908 -0.05998075 0.08016638 -0.374728 -0.19785418 0.09243034
-0.096173376 0.049341407 0.25847402 -0.11976699 0.20588979 -0.007868055 -0.27853432 -0.10651605
0.088425584 -0.12431557 -0.2480332 0.26593876 0.22800618 0.3017147 0.2032034 0.09333214
0.41390014 0.23905922 -0.100981474 0.32519576 0.084622666 0.29743293 0.26884785 0.31555524
-0.11938837 -0.11907129 0.280428 -0.16339308 -0.24719323 0.024047254 0.12210276 -0.14606935
-0.28880525 -0.43730363 0.07250273 0.08248859 0.26852578 0.38014385 -0.057157468 -0.08122415
-0.38483116 0.15821058 0.19267018 0.1900677 0.11207861 -0.21094169 -0.083968855 -0.4647941
-0.55377275 -0.061427377 -0.20063354 -0.039336246 0.017622106 0.048337836 -0.18741627 -0.3369488
0.27108243 -0.14930461 0.25691524 0.105873495 -0.018804658 0.18426256 -0.033729654 0.31184492
0.06660964 -0.0020961182 -0.22669762 -0.26119894 -0.28315118 0.25014743 0.10539417 0.09798231
-0.11359444 0.4424159 -0.2142041 0.1879347 -0.27338114 -0.033774033 -0.3895239 -0.3781895
-0.24923939 -0.026172303 -0.105717905 0.23725735 -0.19988361 -0.33920658 -0.11209366 -0.016703073
0.26223183 0.24047898 -0.14750695 -0.1182981 -0.18989359 -0.28957725 0.03630741 0.31564122
0.09018008 -0.11831682 0.099686176 0.32683134 -0.0394183 -0.07650347 0.037903573 -0.09928139
-0.0068960832 0.3539951 -0.069285095 0.26270872 -0.09029876 -0.21790342 -0.13042012 -0.02992318
-0.073888585 -0.22459376 0.11797609 -0.18766315 -0.06401101 -0.01765912 0.18720986 -0.056690082
-0.17319171 0.21645243 -0.0041464437 0.27510327 -0.12675968 -0.11712466 -0.16259849 -0.33890316
00000000: 3aea 37bd 4d32 a13e 5a63 4b3d 886b 733e
00000010: 0cf2 14be 7e75 033d d890 393e 664c a23d
00000020: 5257 1e3c 3a10 503e 7ab4 703e 4da9 8ebe
00000030: 7a68 8d3e 5a1e 8fbe 0c40 97be 3eb5 d8bd
00000040: d924 cebe 0a51 debd b48c 0d3e 0f56 a5bc
00000050: 3928 80be eb9c 8d3e b68c 33be 6481 99bd
00000060: d604 8a3e 0681 99bd 1653 573e 34f1 34be
00000070: 118a 3ebd 6670 873e 5258 8ebd 7fa7 02be
00000080: 927c f53d 6be1 083e b041 433e 64e5 9f3d
00000090: be49 bc3e 1e7c b43d 1afc c03e e1b0 ba3e
000000a0: ed58 a2be d7be b2bd 43d3 8cbe 4b09 fdbb
000000b0: 743b 873d 4173 14be f787 bc3d 6d26 9f3d
000000c0: 9ec1 79bd 1360 983c 1fa9 ba3e 8626 3e3d
000000d0: 7bd9 90bd 1f89 8ebe 685d 1fbe 9ded 213d
000000e0: d816 8d3e c6cd 5cbd 403e 04b8 f903 62be
000000f0: d217 183e 2d8d 5b3d a16f 963d 191c c13c
00000100: 202d aa36 078c 8dbe 6d0d 743e c6ce 35be
00000110: c9e1 f93c 2647 dcbd c5c3 8fbe 3b84 d83e
00000120: e958 8b3d d8f6 343e 740e 80bb 4364 bf3e
00000130: 8bc6 a23e 2388 6e3e 429b 46be 425f a23e
00000140: 85d2 41be 4fc1 90be ead3 6a3e bcba a8be
00000150: c413 4b3d cd4e dd3d d108 a9be 1fa8 2fbe
00000160: dc8a 413e 9e66 a53e e906 873e d3d6 48be
00000170: a3af 63be 54c5 503d 25e1 5c3e 37e0 303d
00000180: 1896 04bd 3f9e 323e 417b 98bd ee3b 013d
00000190: 8e39 583e 2783 d63d 0a9b c9bd 7470 823e
000001a0: 4d4d 90bd d516 a33e ec82 e1bd d351 95bd
000001b0: 69ba 6f3e a970 d5bd f5fc 833e 1c90 853e
000001c0: 1909 16bc af56 b23e 84b5 4fbe e5d8 2d3e
000001d0: 9f58 c1bc bd3e 3fbe b3cb 333e 8b37 473e
000001e0: 5d8d fc3d 2e37 5d3e 143d 35be 60ae 75bd
000001f0: 452e a43d 59dc bfbe 499a 4abe 1e4c bd3d
00000200: 8cf6 c4bd 371a 4a3d b556 843e 6548 f5bd
00000210: c6d4 523e 04e9 00bc 0d9c 8ebe 1625 dabd
00000220: 7918 b53d 2999 febd 6afc 7dbe 2029 883e
00000230: 747a 693e 597a 9a3e 8d14 503e ec24 bf3d
00000240: b8ea d33e f1cb 743e 60cf cebd 0f80 a63e
00000250: a64e ad3d 2149 983e 6da6 893e 7590 a13e
00000260: e481 f4bd a6db f3bd 4294 8f3e 8450 27be
00000270: 3920 7dbe bffe c43c 0311 fa3d 3493 15be
00000280: 48de 93be 43e6 dfbe 507c 943d c7ef a83d
00000290: 367c 893e 37a2 c23e f31d 6abd d958 a6bd
000002a0: 9708 c5be f401 223e 554b 453e 1ba1 423e
000002b0: 7889 e53d 1901 58be ddf7 abbd 7ef9 edbe
000002c0: 0dc4 0dbf 469b 7bbd e172 4dbe 0b1f 21bd
000002d0: 3c5c 903c e5fd 453d 0dea 3fbe 8e84 acbe
000002e0: 51cb 8a3e 4fe3 18be 658a 833e 34d4 d83d
000002f0: 3a0c 9abc 53af 3c3e 1b28 0abd 23aa 9f3e
00000300: a36a 883d 075f 09bb 6c23 68be debb 85be
00000310: 31f9 90be 5313 803e e6d8 d73d f3aa c83d
00000320: 34a4 e8bd 5684 e23e 5258 5bbe f471 403e
00000330: 9df8 8bbe a456 0abd ad6f c7be 0ea2 c1be
00000340: 9c38 7fbe 4c67 d6bc a182 d8bd 97f3 723e
00000350: 4aae 4cbe 7cac adbe 5c91 e5bd e2d4 88bc
00000360: 4043 863e 1f40 763e 100c 17be 4646 f2bd
00000370: 7773 42be 7843 94be 14b7 143d ba9b a13e
00000380: 55b0 b83d 1750 f2bd 4428 cc3d 7056 a73e
00000390: 1575 21bd daad 9cbd c740 1b3d 0b54 cbbd
000003a0: 8af8 e1bb d93e b53e 58e5 8dbd c281 863e
000003b0: 8eee b8bd 1322 5fbe da8c 05be 7521 f5bc
000003c0: e652 97bd e8fb 65be 739d f13d c52a 40be
000003d0: 3418 83bd dca9 90bc f1b3 3f3e dc33 68bd
000003e0: 2b59 31be b5a5 5d3e e4de 87bb 56da 8c3e
000003f0: 4acd 01be 0edf efbd 3880 26be b784 adbe

sequential_5/dense_19/MatMul f4 [48, 48]
-0.085072115 -0.027939858 -0.06819571 -0.096284576 0.042889923 0.039721962 0.02806854 0.022588849
-0.075074956 -0.24036765 -0.13078047 0.08966205 -0.1288597 0.2339152 0.13172442 0.0771326
0.074919365 0.17344937 -0.0365973 -0.023421397 0.1878771 -0.11808663 0.04449931 -0.23741108
-0.15438041 0.08141821 -0.250213 0.19002238 -0.11476445 0.1674777 -0.13247988 0.20066464
-0.1348103 -0.021893825 -0.15418124 0.010424601 0.0035629782 -0.084366545 -0.06536853 0.04508081
0.004711453 0.19922963 -0.0029107712 0.12582907 0.05744183 0.18241924 -0.08569996 -0.003181716
0.02016024 0.21745639 0.09747152 0.053993583 0.16376618 0.19488655 0.116525866 0.22437353
0.23656599 -0.0825541 0.028900826 0.04150128 -0.13878034 -0.04270929 -0.23270595 0.06889421
0.09170341 -0.10309274 0.08816158 -0.09622573 0.1357553 -0.0140832495 -0.02339458 0.1017571
-0.19880694 -0.18353498 -0.06395437 0.16336983 0.13303505 -0.13647804 -0.24213806 0.13848263
-0.018245865 -0.01539433 -0.16235137 -0.12799625 -0.012322624 -0.02928831 -0.11279073 -0.2652604
0.09109529 0.21465416 -0.21852206 -0.033669103 0.0062040687 -0.22878706 -0.31397134 -0.02244869
-0.18189809 -0.10991617 -0.002667903 -0.19060238 -0.20399517 0.11517172 0.06351116 -0.024551684
-0.19239658 0.15860577 0.1984308 -0.014765951 0.030679245 0.18223374 0.22443148 0.050626483
-0.15652056 0.21009426 -0.22460201 -0.10411599 -0.084938474 0.0437187 -0.031647183 0.10621128
0.06414688 0.28970358 0.13033561 0.009042786 0.16534442 -0.006594305 0.09622984 0.055249706
-0.16751722 -0.15549037 -0.22679001 -0.18250835 0.14981343 -0.21917845 -0.16334835 -0.045733735
0.055135846 -0.2612009 -0.065543495 -0.23384541 0.2477921 0.16218634 -0.122401245 -0.23743574
-0.23073645 -0.22107582 -0.07757954 0.17513166 -0.06763662 -0.1343933 -0.28403407 -0.0011380037
0.0741661 0.100871444 -0.019390857 0.121757515 0.1996409 0.15828419 0.11305277 0.1056724
0.19347447 0.0022340764 0.044939287 -0.018882526 -0.014763884 0.15449853 0.19633418 -0.25463894
0.15661485 -0.19284202 -0.06428322 0.15547684 0.15248215 0.08893397 0.16616638 -0.086089484
-0.23569429 -0.114795186 0.055357434 0.14087623 -0.27829513 0.19932012 0.1708847 -0.14385985
-0.129704 0.061695475 0.18612346 -0.04574278 0.15133016 -0.26380292 0.115008846 0.16984178
-0.20249876 -0.17909396 -0.008019554 -0.07247117 -0.20698485 0.080700606 -0.2342304 0.015246039
0.12948033 -0.3553984 -0.17345096 -0.07311059 -0.118174225 -0.22549538 -0.17214875 0.049567968
0.12803808 -0.21305607 -0.023900306 0.11819512 -0.17786862 -0.089325376 0.21221448 0.11561453
-0.026315376 -0.18496872 0.12958522 0.14920199 -0.12102744 -0.28924775 0.050387677 -0.08624976
-0.0040006246 0.12417091 0.075153336 -0.3014222 0.2698516 -0.1126426 0.08454384 0.05055876
-0.090320565 0.10531318 0.16022217 0.078694455 0.22209592 -0.11544476 0.3299307 -0.225739
0.10295652 -0.1657976 0.124876656 0.102456845 0.14864802 -0.043497853 -0.2783985 0.10669203
-0.036676805 0.00076317246 -0.04727607 -0.14670908 0.21201715 0.19378251 -0.2358398 0.15500695
00000000: 4a3a aebd 21e2 e4bc 31aa 8bbd d930 c5bd
00000010: 58ad 2f3d 7fb3 223d ffef e53c 400c b93c
00000020: e6c0 99bd f022 76be 51eb 05be bda0 b73d
00000030: ccf3 03be 7787 6f3e c4e2 063e b2f7 9d3d
00000040: 536f 993d b69c 313e 0de7 15bd 3bde bfbc
00000050: db62 403e 67d7 f1bd e944 363d e41b 73be
00000060: e615 1ebe 97be a63d eb1b 80be 3a95 423e
00000070: a009 ebbd 467f 2b3e cea8 07be 087b 4d3e
00000080: b60b 0abe ae5a b3bc b0e1 1dbe f2cb 2a3c
00000090: db80 693b 5ec8 acbd f0df 85bd a8a6 383d
000000a0: 8862 9a3b da02 4c3e a3c2 3ebb 56d9 003e
000000b0: 2048 6b3d 1ccc 3a3e 7683 afbd 5684 50bb
000000c0: 1627 a53c e3ac 5e3e 269f c73d 6028 5d3d
000000d0: 52b2 273e 5790 473e 1da5 ee3d 2dc2 653e
000000e0: 5b3e 723e 2012 a9bd 6dc1 ec3c 3ffd 293d
000000f0: 6f1c 0ebe f0ef 2ebd 784a 6ebe 6818 8d3d
00000100: ffce bb3d 4922 d3bd 0f8e b43d ff11 c5bd
00000110: 7003 0b3e 6ebd 66bc fea5 bfbc 0766 d03d
00000120: 0c94 4bbe 98f0 3bbe 82fa 82bd 6c4a 273e
00000130: 573a 083e e6c0 0bbe 0af3 77be 64ce 0d3e
00000140: 5a78 95bc 8038 7cbc 703f 26be 7311 03be
00000150: d5e4 49bc 0aee efbc d4fe e6bd 36d0 87be
00000160: 2b90 ba3d 4dce 5b3e 3fc4 5fbe 9de8 09bd
00000170: 804b cb3b 2847 6abe dac0 a0be 51e6 b7bc
00000180: 7e43 3abe bb1b e1bd fcd7 2ebb 452d 43be
00000190: 1ce4 50be 27df eb3d 2412 823d 9d20 c9bc
000001a0: 9c03 45be 8d69 223e 7231 4b3e e3ec 71bc
000001b0: 0a53 fb3c 7b9b 3a3e 5ed1 653e b75d 4f3d
000001c0: ed46 20be f322 573e 12fe 65be c43a d5bd
000001d0: 39f4 adbd 6112 333d 7aa0 01bd 4d85 d93d
000001e0: 705f 833d 0754 943e b376 053e 3228 143c
000001f0: 0c50 293e 0a15 d8bb 2614 c53d 844d 623d
00000200: a289 2bbe de38 1fbe a43b 68be 78e3 3abe
00000210: b168 193e 5170 60be ca44 27be 4c53 3bbd
00000220: 20d6 613d 20bc 85be ab3b 86bd 2c75 6fbe
00000230: 36bd 7d3e 2d14 263e 81ad fabd 5b22 73be
00000240: 2d46 6cbe b361 62be 06e2 9ebd b755 333e
00000250: 1185 8abd 669e 09be ea6c 91be 1129 95ba
00000260: 65e4 973d b095 ce3d 93d9 9ebc 015c f93d
00000270: aa6e 4c3e 4015 223e 3688 e73d c56a d83d
00000280: 2c1e 463e 9569 123b 4212 383d 87af 9abc
00000290: 38e4 71bc dd34 1e3e d40b 493e 0960 82be
000002a0: a55f 203e 6178 45be eca6 83bd 5235 1f3e
000002b0: 4824 1c3e 0323 b63d 8527 2a3e af4f b0bd
000002c0: d859 71be bd19 ebbd 7abe 623d dc41 103e
000002d0: b37c 8ebe 931a 4c3e 66fc 2e3e ff4f 13be
000002e0: 20d1 04be 65b4 7c3d 2697 3e3e c85c 3bbd
000002f0: 4bf6 1a3e 2d11 87be c289 eb3d 01eb 2d3e
00000300: d65b 4fbe 6864 37be 7364 03bc c46b 94bd
00000310: d6f3 53be 5c46 a53d 18da 6fbe 86ca 793c
00000320: 7e96 043e c7f6 b5be 219d 31be 01bb 95bd
00000330: 5405 f2bd 43e8 66be c347 30be c807 4b3d
00000340: 6a1c 033e 5f2b 5abe 93ca c3bc 4810 f23d
00000350: 3123 36be 39f0 b6bd c14e 593e 50c7 ec3d
00000360: 5893 d7bc 7168 3dbe fdb1 043e 68c8 183e
00000370: 3cdd f7bd 4818 94be 4f63 4e3d b7a3 b0bd
00000380: ac17 83bb 514d fe3d fee9 993d 0354 9abe
00000390: fd29 8a3e 2ab1 e6bd 5225 ad3d b416 4f3d
000003a0: fdf9 b8bd 70ae d73d 4811 243e 8f2a a13d
000003b0: 1d6d 633e 4d6e ecbd adec a83e 2028 67be
000003c0: deda d23d d9c6 29be 55bf ff3d e5d4 d13d
000003d0: 3037 183e ce2a 32bd 408a 8ebe 5a81 da3d
000003e0: 6b3a 16bd a30f 483a 8da4 41bd e83a 16be
000003f0: 061b 593e ec6e 463e fd7f 71be 24ba 1e3e

sequential_5/dense_20/MatMul f4 [5, 48]
-0.17280553 0.016770335 -0.3318138 0.17898436 -0.19272228 -0.3446405 -0.5179378 -0.51483154
0.26070547 -0.1326074 0.22033311 -0.053224783 0.0062533645 -0.13418148 -0.04613915 -0.096408956
0.0677175 -0.3815651 0.28232715 -0.2185634 -0.30074045 -0.38086817 -0.028935071 -0.15274917
0.19295882 0.014691485 -0.20487814 -0.09054732 0.043063987 -0.2727782 -0.40644914 -0.3524315
-0.06245731 0.034448747 -0.21169303 0.18403012 -0.23970479 0.029897721 -0.013321406 -0.43464306
-0.15970804 -0.09542895 -0.02584972 0.28950572 0.1439975 -0.3801211 -0.45592007 -0.3242415
-0.32607818 0.36867335 -0.011115935 -0.111003555 -0.28203046 0.23167127 0.33210963 0.47255814
0.101432495 0.088299766 -0.073406234 -0.22834198 -0.21131009 0.49970645 -0.3670842 0.6127626
0.039534625 0.3580386 0.024592001 0.6000207 0.105130255 0.5067921 0.35098776 0.3323453
0.240466 -0.7164577 0.7486147 0.5246485 0.47158593 0.07674699 0.2140988 0.41210696
-0.3179749 0.45639384 0.07427425 0.17685844 -0.33319452 0.11523163 -0.5262967 0.4332908
0.3231124 0.030825399 0.031930957 0.21495922 0.027950333 0.4244676 0.33998904 0.15904158
0.3003898 -0.027213074 -0.12514746 0.11655254 -0.028834058 -0.08944078 -0.5338635 -0.5569329
-0.15077811 0.0392453 -0.20956475 -0.25754803 -0.016043505 -0.3764602 0.077764794 0.09865552
0.1798259 -0.4164928 0.19853976 -0.057976868 -0.43578234 -0.02255197 -0.09413342 0.21810323
-0.30454218 0.09849949 -0.33364797 -0.14005654 0.21841542 0.317933 0.12511387 -0.09560743
0.03691225 0.1362324 -0.044286005 -0.2235649 -0.08800548 0.025965227 0.11204729 -0.4526064
0.19824529 -0.11857152 -0.18012154 -0.13732992 -0.111351185 -0.41299665 -0.28649408 0.0015507942
-0.17934403 -0.03814305 -0.097211376 0.006431748 0.37133557 -0.4412036 -0.18245262 0.50896204
-0.30782664 -0.008260347 0.31497777 0.21747749 -0.049997218 -0.101753265 0.49067232 0.9011779
0.08289722 0.11218247 -0.19854419 -0.29142743 -0.2063317 0.61649793 0.44592214 0.1785969
0.26403978 0.26334956 -0.8952207 0.67528796 0.24332027 -0.035938878 0.26741427 0.08785549
-0.14275938 -0.7111753 0.109900706 0.2192857 -0.25766295 0.23548637 -0.19927272 -0.16085288
0.2069877 0.31510642 -0.378232 0.08339685 0.016765108 0.53353095 -0.54593736 -0.3164227
-0.04094947 0.003171394 -0.3570072 -0.32316703 0.043955635 0.40429974 0.34311718 -0.12525076
0.1354707 -0.22981393 -0.333999 -0.26844668 0.05242567 0.39810458 0.40480387 -0.89263916
0.2543128 -0.15076084 -0.15967384 0.523071 0.21891935 -0.7293631 -0.14362752 -0.3127153
-0.40130162 -0.028445743 0.66997546 -0.68419015 -0.09877868 0.13312896 -0.1573566 0.58504796
-0.188395 0.61453724 0.32227325 0.06786902 -0.13166377 -0.14788905 0.18867743 0.63463724
-0.21337725 -0.6793636 -0.02946203 0.10118246 -0.035299484 0.24739689 0.47798315 0.32394782
00000000: eff3 30be f161 893c 80e3 a9be ad47 373e
00000010: fd58 45be b874 b0be 9297 04bf 00cc 03bf
00000020: 307b 853e 3cca 07be 019f 613e 3b02 5abd
00000030: 06e9 cc3b df66 09be 68fc 3cbd 0f72 c5bd
00000040: 79af 8a3d 805c c3be 2f8d 903e 15cf 5fbe
00000050: a7fa 99be 2701 c3be 3e09 edbc 476a 1cbe
00000060: ff96 453e 8eb4 703c 93cb 51be e070 b9bd
00000070: dd63 303d 96a9 8bbe 1a1a d0be e771 b4be
00000080: 3cd3 7fbd 211a 0d3d 0fc6 58be 6472 3c3e
00000090: 2c75 75be 11ec f43c 0742 5abc 8989 debe
000000a0: 818a 23be 4170 c3bd cbc2 d3bc 183a 943e
000000b0: 1574 133e 3c9f c2be 5b6e e9be fb02 a6be
000000c0: b8f3 a6be c1c2 bc3e 9c1f 36bc d555 e3bd
000000d0: 4c66 90be 3c3b 6d3e 460a aa3e 24f3 f13e
000000e0: d7bb cf3d 82d6 b43d 0256 96bd 7bd2 69be
000000f0: ac61 58be 86d9 ff3e 76f2 bbbe 02de 1c3f
00000100: 0fef 213d d650 b73e 2a75 c93c f59a 193f
00000110: 884e d73d 21bd 013f abb4 b33e 2a29 aa3e
00000120: b83c 763e c669 37bf 37a5 3f3f 5d4f 063f
00000130: b673 f13e 872d 9d3d b73c 5b3e afff d23e
00000140: 9bcd a2be 74ac e93e 191d 983d 611a 353e
00000150: 7998 aabe 90fe eb3d 61bb 06bf 4bd8 dd3e
00000160: fd6e a53e 8c85 fc3c 09ca 023d 451e 5c3e
00000170: 19f8 e43c d153 d93e 0b13 ae3e ccdb 223e
00000180: b1cc 993e f4ed debc a826 00be 19b3 ee3d
00000190: 6735 ecbc ba2c b7bd 47ab 08bf 2893 0ebf
000001a0: 9465 1abe aebf 203d 2498 56be 56dd 83be
000001b0: ab6d 83bc 64bf c0be 2643 9f3d e80b ca3d
000001c0: 4824 383e 8b3e d5be 024e 4b3e 2779 6dbd
000001d0: dd1e dfbe e9be b8bc 06c9 c0bd 7456 5f3e
000001e0: f4ec 9bbe 1aba c93d e8d3 aabe fb6a 0fbe
000001f0: 4ba8 5f3e 1dc8 a23e da1d 003e d4cd c3bd
00000200: 4d31 173d 8280 0b3e 3e65 35bd 32ee 64be
00000210: 383c b4bd 07b5 d43c 0d79 e53d 07bc e7be
00000220: d000 4b3e a0d5 f2bd c871 38be 37a0 0cbe
00000230: 170c e4bd 4c74 d3be 5aaf 92be 0544 cb3a
00000240: f6a5 37be e33b 1cbd c216 c7bd 6ac1 d23b
00000250: b21f be3e 70e5 e1be dcd4 3abe 564b 023f
00000260: 749b 9dbe 6856 07bc c444 a13e 6bb2 5e3e
00000270: e2c9 4cbd 0464 d0bd 6739 fb3e 98b3 663f
00000280: 05c6 a93d ecbf e53d 2b4f 4bbe fa35 95be
00000290: 9e48 53be cfd2 1d3f e84f e43e 1be2 363e
000002a0: 3930 873e c1d5 863e 2f2d 65bf acdf 2c3f
000002b0: f328 793e a534 13bd 86ea 883e 94ed b33d
000002c0: 842f 12be 960f 36bf 9f13 e13d 6e8c 603e
000002d0: 66ec 83be 5723 713e 260e 4cbe 9eb6 24be
000002e0: 95f4 533e a155 a13e a0a7 c1be f8cb aa3d
000002f0: fb56 893c 7c95 083f 8dc2 0bbf 2802 a2be
00000300: a2ba 27bd 2ad7 4f3b a6c9 b6be 2676 a5be
00000310: d30a 343d 6000 cf3e 0ead af3e bc41 00be
00000320: d5b8 0a3e 5854 6bbe eb01 abbe d871 89be
00000330: 4dbc 563d 5dd4 cb3e 7442 cf3e 0084 64bf
00000340: 4a35 823e 0d61 1abe 8a81 23be fbe7 053f
00000350: 652c 603e 8ab7 3abf 1813 13be 381c a0be
00000360: 6877 cdbe 0c07 e9bc 8383 2b3f 1627 2fbf
00000370: 7a4c cabd f552 083e 1722 21be b4c5 153f
00000380: 9eea 40be 5052 1d3f 0001 a53e eafe 8a3d
00000390: ded2 06be 3a70 17be a834 413e 9677 223f
000003a0: 917f 5abe c6ea 2dbf 5b5a f1bc c038 cf3d
000003b0: 3196 10bd 9c55 7d3e 35ba f43e 7ddc a53e

sequential_5/dense_18/MatMul;sequential_5/dense_18/Relu;sequential_5/dense_18/BiasAdd f4 [48]
0.89640164 -0.31795514 -0.21892162 0.63566804 0.4195369 -0.55786693 -0.21223064 -0.073723055
-0.0011545392 0.52981657 0.023728805 0.40557343 0.059694465 0.04461017 -0.3650665 0.41294783
0.27514586 -0.50763476 -0.6780605 0.17165138 -0.35764986 -0.028617393 0.19213325 0.046838343
-0.12319514 0.19581193 0.14071552 0.009729864 0.1601892 -0.2509067 -0.037739478 0.035779215
-0.21752706 0.074046895 0.12124722 -0.41665003 0.82110685 0.064009234 0.539733 0.099550545
0.052724008 0.11998008 0.3969843 0.98342884 0.53231287 0.28972027 0.11962658 -0.30101743
00000000: 947a 653f 04cb a2be fd2c 60be 24bb 223f
00000010: 8acd d63e 5ed0 0ebf fd52 59be 1dfc 96bd
00000020: e853 97ba 0fa2 073f e962 c23c 52a7 cf3e
00000030: 2f82 743d 27b9 363d ffe9 babe e66d d33e
00000040: ebdf 8c3e 5af4 01bf 5f95 2dbf 61c5 2f3e
00000050: e21d b7be 066f eabc 94be 443e 90d9 3f3d
00000060: bc4d fcbd ec82 483e bb17 103e 026a 1f3c
00000070: a308 243e d876 80be b694 1abd 3a8d 123d
00000080: 6abf 5ebe e6a5 973d 7650 f83d 2753 d5be
00000090: 0f34 523f 4617 833d f12b 0a3f 28e1 cb3d
000000a0: 21f5 573d 1eb8 f53d 8741 cb3e fec1 7b3f
000000b0: a845 083f 3756 943e c8fe f43d f51e 9abe
