scripts/models/simulation_capture_6s_20x_1,5x1m_simulation_6s_48_model_no_quant.tflite (tflite, 4280 bytes, 5 tensors)

dense_8/bias f4 [5]
00000000: d953 52bf 3c72 d03e 87d5 40bf a808 993e
00000010: ef6b 5e3f
-0.8215919 0.40712154 -0.75325817 0.29889417 0.86883444

sequential_2/dense_6/MatMul f4 [6, 6]
00000000: 2b8f df3e 468e c93e df52 32bf 3391 423f
00000010: 0950 f9bd 4ae5 113f 0211 bf3f 6cc1 a43f
00000020: 3ffd 08bf 0fa6 debf d6d3 59bf 4528 dfbe
00000030: f2aa e4bd 2d7c 03c0 3216 b5bc a4a2 1fbf
00000040: c564 0c3f 0605 723e 0740 493f e128 083e
00000050: e0c0 343f 2371 4d3f 4fbf 35bf 3c90 2b3f
00000060: 5937 8bbf 08da 873d 2d9d c3bf 5a6f a83e
00000070: 6bec a4bc 674d c8be 26dd 4b3f dc7f 2f3f
00000080: b644 d7be 884d 09bf adea af3e 8fce 42bf
0.43663916 0.3936636 -0.696577 0.76002806 -0.121734686 0.5699049 1.4927065 1.2871528
-0.5351142 -1.7394427 -0.8508886 -0.4358541 -0.11165418 -2.054454 -0.02210531 -0.62357545
0.5484126 0.23634729 0.7861332 0.13296844 0.70606804 0.8025076 -0.7099504 0.6701696
-1.0876266 0.06633383 -1.5282341 0.32897455 -0.020132264 -0.39121553 0.7963432 0.6855447
-0.4204461 -0.5363393 0.3435873 -0.76096433

sequential_2/dense_7/MatMul f4 [48, 6]
00000000: eec0 03be 4ad0 57be 358c 32be cce5 91be
00000010: 3d05 ad3d 26bc c3bc ef54 083f f083 7fbe
00000020: 348d 6b3e 7ff0 053f 8837 8cbd 81e7 ee3d
00000030: 15e8 71bd 8f54 703d f771 50be d07e 7cbe
00000040: 908c a33d c4fd 1b3d af09 0ebe d74d afbb
00000050: 0739 043f ac80 8dbd 29fd 0cbd d4d7 5c3e
00000060: 8cde 67be bce8 3fbd 4efb afbe d24d 5dbe
00000070: 6d9e d6be f40c 08be 0e58 1dbe 2408 34be
00000080: fa16 37be 60b3 96be 9915 113f 8864 753d
00000090: 3fdd 47be c50d 62be 9efc b83d ff15 8dbe
000000a0: 6438 6d3e 28cb 433e 84e5 00be 55ed 2a3f
000000b0: 4865 0e3d 0c76 5abe 564e 04be 7abd 953e
000000c0: 5cf3 d83d 7873 463f 7dfa 943d e045 f4be
000000d0: 6569 803d 66d3 8a3e 51c6 7cbe 695a a53d
000000e0: a1b1 7a3e 73f4 a4be 7cea e3bc 78a6 763e
000000f0: 6d77 083f 8a8c ae3e 687f 51bf 678e 163e
00000100: 6be1 8e3e 9f3a 65bd 138e f6be 3e8a 91be
00000110: 23d6 a83f 3529 713d cd2a 54be 4885 1fbf
00000120: 003f 49be bb0f 843f 8be9 c33e 61a1 1bbd
00000130: 16a0 123e 2946 ff3e 2cdf 663c d9c9 03bd
00000140: 4782 063e e10b 9bbe 38fe 88be b770 8c3e
00000150: 40d7 1dbd 231a 4ebd 35b1 21be 51ce 09be
00000160: 8426 0fbe 5812 933e cab4 dc3d 7fea 063f
00000170: 2c15 21bd 5f1a adbe a0bc d53a 6e7a 923e
00000180: 2ce6 2d3d 8722 51be 7c61 583e de76 6bbe
00000190: 6234 00be e986 c0be 9c09 ff3d d363 c9bd
000001a0: a0d7 96be ca58 243e 5874 4b3e 51b6 68be
000001b0: 72c3 3bbe 22d1 ebbb 2ee6 c33e 1145 75be
000001c0: d67a 74be a424 173e 5dd6 eb3e a60e 9e3e
000001d0: 2777 a5be 782c 5d3e d690 143d 91a3 18be
000001e0: 4dbc d73c ce1a 343d 5d51 8dbd 3c76 f83e
000001f0: 3be0 27bd a46b ebbd 51a7 c6bc 322f 16be
00000200: df0b 573d 4ccc 04be 5e0e 85be 1a79 cebd
00000210: 8a2c 0ebe 4a2b 153f 60c2 093e c3df a4bd
00000220: 51a9 693e 0cd8 f6bd 2eae 7f3d 015c 543e
00000230: 31a4 443e 7c0e f53e ef5c 34be 9fb2 8fbd
00000240: 4f3f 4dbd fbc8 22bf de80 653e 122a d2bd
00000250: 79bc 3b3f 00ab 523d 3b29 773d 7a5d 8fbd
00000260: 5792 943e 8dec 3cbe 90b8 6bbc b3f9 e9bb
00000270: 96e3 e2bc aa45 9dbe 2756 e23e 1e30 54be
00000280: e6fe c2be 1042 bc3e ba7d 6f3e 83ff a83d
00000290: 1dde 753d 1e95 413e b0b3 4a3f 42fc babc
000002a0: 4fb7 9c3d b1ae 87bd 93be d1bb ecb2 96be
000002b0: cfa8 37be 90d2 09bc 02db 8e3d 1927 203f
000002c0: 93c9 9abe b6bf 243e 1cb7 443e 2b15 2abe
000002d0: 3549 9fbe 4091 9cbd 19b2 90bd 0084 97be
000002e0: dee7 07be 955d 7fbe e290 4bbe 624a b93d
000002f0: c322 a0be 884f 74bd bf19 12bd af94 6ebe
00000300: 9f51 afbd a86d 42be 4e02 aa3e 6fbd fc3c
00000310: 3f2b 0a3d cfe5 61ba d803 62be 629b 213f
00000320: df4e 0b3e a0d4 bcbc da23 50be 8a68 92bd
00000330: 8494 0fbe cfc9 973e 92e9 433e 8922 c9be
00000340: 7d15 983d 448f 313b c78d 083e 79d9 243e
00000350: 6e88 9b3e 8be1 053f 1793 bebe c4ff f53d
00000360: 63f1 31be c18e f73e 6caa a5bd c391 643e
00000370: 7807 4ebe 288a 933e a0d2 ddbe d585 fbbe
00000380: 7859 8e3e 5475 143e 0573 8cbe 8a8d bdbe
00000390: aa99 c93d 61f5 943e 44ca 8cbe e105 8dbe
000003a0: 5bf4 1a3e a114 673d 3e74 4d3e 73cc 0cbe
000003b0: 9eed 093e f9a2 89be 29d7 6f3e 624a 153e
000003c0: a627 9b3e 6da1 303c 9759 9f3e 83ef 00bd
000003d0: b85f a63e 6c66 293e d91f a1be 8988 853d
000003e0: d27c 9c3a fa00 c3bd d473 c5bd 9a1e 90be
000003f0: 95b4 1cbe d572 cc3a b21c 283e 9069 a0be
-0.12866566 -0.2107555 -0.17436297 -0.28495634 0.08448265 -0.023893427 0.532546 -0.24952674
0.23003083 0.5232009 -0.06846529 0.116652496 -0.05905922 0.05867439 -0.20355974 -0.2465775
0.079857945 0.038083807 -0.13870881 -0.0053498554 0.51649517 -0.06909308 -0.03442112 0.21566707
-0.22643489 -0.046852812 -0.34371418 -0.21611717 -0.41917744 -0.13286191 -0.15365621 -0.1758123
-0.17879859 -0.29433727 0.5667358 0.059910327 -0.19517992 -0.22075565 0.09032558 -0.27555844
0.23166043 0.19120467 -0.12587553 0.6676839 0.034764558 -0.21334094 -0.12920508 0.29246122
0.10593292 0.7751994 0.07274339 -0.4770956 0.062701024 0.2711441 -0.24685027 0.08073885
0.24481823 -0.3221775 -0.027821772 0.2408694 0.5330723 0.34091598 -0.8183503 0.1470276
0.27906355 -0.05596411 -0.4815527 -0.28425783 1.3190349 0.05887719 -0.20719452 -0.62312746
-0.19652939 1.03173 0.38264117 -0.0379957 0.1431888 0.49858215 0.014091294 -0.03217492
0.13135634 -0.302825 -0.26756454 0.27429745 -0.038535357 -0.050317895 -0.15790255 -0.1345761
-0.13979536 0.28724933 0.1077667 0.5270156 -0.03932683 -0.33809182 0.0016306825 0.2860903
0.042455837 -0.20423327 0.21130937 -0.22994563 -0.12519982 -0.37602928 0.12453005 -0.09833493
-0.29461384 0.16049495 0.198686 -0.22725798 -0.18336275 -0.0071965614 0.3826155 -0.23952128
-0.23874983 0.14760071 0.46061984 0.3087055 -0.3231747 0.21598995 0.03627094 -0.14906146
0.026334906 0.043970875 -0.069002844 0.48527706 -0.040985327 -0.1149514 -0.024249705 -0.14666441
0.052501556 -0.12968558 -0.25987524 -0.10081692 -0.13884178 0.5826918 0.13453054 -0.08050492
0.22818495 -0.120529264 0.06242197 0.20738222 0.19203259 0.47862613 -0.17613576 -0.07016491
-0.050109204 -0.6358792 0.2241244 -0.102619305 0.7333446 0.05143261 0.060342055 -0.07000251
0.29017898 -0.18449612 -0.014387265 -0.007140362 -0.027696412 -0.30717212 0.44206354 -0.2072148
-0.38085097 0.36769152 0.23387805 0.0825186 0.060026277 0.1890454 0.7918043 -0.022825364
0.07652151 -0.066251166 -0.006400892 -0.29433382 -0.17935489 -0.008412018 0.06975366 0.6255966
-0.30231914 0.16088757 0.19210476 -0.16609637 -0.3111054 -0.07644892 -0.070652194 -0.29592896
-0.13272044 -0.24938042 -0.19879487 0.090473905 -0.3127652 -0.05964616 -0.035669085 -0.23298906
-0.0856049 -0.18987143 0.33204883 0.030852048 0.03373265 -0.0008617313 -0.22071779 0.6312772
0.13604306 -0.023050606 -0.20326176 -0.071488455 -0.14021498 0.29646155 0.19132069 -0.3928416
0.074259736 0.002709345 0.13335334 0.16098584 0.30377525 0.52297276 -0.37221596 0.12011674
-0.17377238 0.483511 -0.08089146 0.22321229 -0.20120037 0.28816342 -0.43324757 -0.49125543
0.27802634 0.14497882 -0.27431503 -0.37022048 0.09843762 0.2909346 -0.27498066 -0.27543548
0.15132277 0.056416158 0.20063874 -0.13749866 0.1346955 -0.2688215 0.23421921 0.14579156
0.30303687 0.010780674 0.3112304 -0.031478416 0.32494903 0.16542977 -0.3146961 0.06520183
0.0011939055 -0.09521671 -0.09641233 -0.28148347 -0.15303262 0.0015598187 0.16417196 -0.31330538

sequential_2/dense_8/MatMul f4 [5, 48]
00000000: b66a 733c 7805 39bf cd56 fb3c 2a1e d43d
00000010: b9dd d8bd 27c7 3d3e 182a 3bbe 3832 193e
00000020: d4a0 cfbd ce07 88bd b882 113e 12f7 aabe
00000030: a9ca a9be 32c3 363e f0fe 853e 0b47 d83c
00000040: 80a1 413e 6389 02be 24eb 7ebe 849f 82be
00000050: 83f1 463d 4a26 863e 4b39 5f3e a15d ecbe
00000060: 0d48 2d3c 2221 6a3e d4b2 27be 3828 893d
00000070: 8654 31be b669 e03d 397f 313c 98a3 3d3d
00000080: 5039 be3d 34bb ccbc cdf4 0dbe 1662 a7be
00000090: 817f d73c 04a6 13be 71b9 153e 1f90 25bc
000000a0: 88ab 973d 888a 233e a644 973e 1bb8 5cbf
000000b0: 8f6f 92be 88da 14bf b353 88bc ea0d b0bd
000000c0: 67be 6fbe 5c90 1c3f ff8d a8be 854f 063f
000000d0: 78f8 dcbe c389 93be 3e6a 103e 230a 2c3d
000000e0: 23bc 623d 4936 fbbc e5c1 263f cda4 7e3f
000000f0: 6500 1b3f 5ea3 01be 27e1 4dbe c9ac f93d
00000100: 11c0 9c3e 4919 743e 7318 853e 669e 953e
00000110: 42fd c43e da04 6bbe bc99 cb3b 67ea a03e
00000120: 3363 ee3e 364c 9a3e 0535 ee3e 69b1 01be
00000130: 109c abbc bb89 da3e b379 803e e77a bd3a
00000140: 92ee 523e 5d0e 653e dfd4 8dbe df16 ff3e
00000150: 0b35 b83e bb74 333e 41e9 e4bd 58e2 7dbe
00000160: 69b1 72be f532 8ebd 50ab 883e bd90 183f
00000170: 5346 b43c 512c 253f 7bd1 93be 5619 4bbf
00000180: 8043 043e 6e23 c3be 560e 18be 9892 5b3d
00000190: 1365 613e df87 a6bb 844a ba3d f366 92be
000001a0: afb2 a6be 91b5 0f3e 1e2a a13d dbb7 f5be
000001b0: 67a4 a33d 55e4 403e bf73 48bd 9633 1ebe
000001c0: 816c 63be 041d b83d 65ed 20be 8e53 033e
000001d0: b866 efbe 54d7 0bbe 4458 7cbd a1c8 afbe
000001e0: 6ac7 ed3d ecbc 9b3e 297e 97be c3c0 93be
000001f0: 67ef 623e a24e 523e 39ae 4cbe c1c4 f4bd
00000200: 7c3d 6d3d b6c7 f0bb 170a 713e 669a 28bf
00000210: b47f 37bd caff 2bbe 8f22 933e 9a68 273e
00000220: 6b33 b93d 5114 723e 97e4 aa3e 9093 31bf
00000230: 0115 d2bd a57b 0cbf 3c25 9c3e ae69 46be
00000240: ffd4 a0be 2e5e 553e 84d8 38be b8bc ae3c
00000250: d5a2 dd3d 5151 0abe 1d60 01be 5ce4 b83e
00000260: 28cc 2c3f fea0 883e c76a 71be 885f 9ebf
00000270: 079e 5a3f 8daa 833d bfc8 31be 7f51 2a3f
00000280: 6585 993e 1ac3 553c cd61 b8be b5ab e0be
00000290: c9e3 3c3e aca2 24be 5253 0d3e ea46 7d3e
000002a0: 15d1 33bf 66af 9dbe cfab abbe 90d6 3d3e
000002b0: 4d9c 8f3e 097c ac3e b252 f93c b05c 653e
000002c0: cbf8 903d c57b 0f3e 1ca1 a83e ac50 013f
000002d0: cba8 e33e a500 c53e e95b b4be c7d5 6dbd
000002e0: 7150 0a3e 466b 0abe 8c61 8a3c 9ac0 bc3e
000002f0: ddcd 143e f17f 463f 8c28 863e 7b58 0a3f
00000300: 040d a23d 69d6 0b3f 9710 4e3d 87b3 9f3c
00000310: 9d83 663e 0edb 0c3f 2f82 c9bd 4427 53bf
00000320: 4587 20bf cc92 8fbe 158d e0be f635 713f
00000330: 6ef2 52bf 8d6e 8dbd 72ac 01bc b760 8ebe
00000340: 5018 90be 20e4 5f3e acc3 4e3e 8ea9 d2be
00000350: ff56 b63d a76d 763e a3de 2fbf b045 bcbd
00000360: b6b3 403f 763a bebc 6718 3fbe cedc 1b3f
00000370: ab61 eabd c559 0bbf 5f44 98bd 4a36 983e
00000380: 476f 73be 7ed9 10bf befa 903e 7ec1 123e
00000390: 9ab8 95be 3807 a2be b2f6 00be d141 55bd
000003a0: 8ecc 763e e48b 033d 6aac 9cbe a6f3 e43e
000003b0: f86f 953d 1c7b 44bf 5b8c cf3e e0ab 803e
0.014856985 -0.7227397 0.030681038 0.10357316 -0.10589165 0.18533002 -0.18277776 0.14960563
-0.101380974 -0.066421136 0.14210021 -0.33391625 -0.3316243 0.17847899 0.26171064 0.026401063
0.18909264 -0.12747721 -0.24894387 -0.25512326 0.048570167 0.26201087 0.217992 -0.46165183
0.01057626 0.22864202 -0.16376811 0.06697124 -0.173174 0.10957663 0.010833555 0.046298593
0.09288275 -0.02499161 -0.13862915 -0.3269202 0.026305916 -0.14418799 0.14621522 -0.010105162
0.07405764 0.15970814 0.29544562 -0.8621842 -0.28600737 -0.5814595 -0.016641473 -0.08596404
-0.23412476 0.61157775 -0.32920834 0.5246509 -0.43158317 -0.2881604 0.14103028 0.042001855
0.055355202 -0.030665534 0.6513961 0.99470216 0.60547477 -0.12659976 -0.2010542 0.12191159
0.30615285 0.2383777 0.25995216 0.2922241 0.3847447 -0.2295107 0.006213395 0.31428835
0.46560058 0.3013627 0.46524826 -0.12665333 -0.02094844 0.42683205 0.2509285 0.0014456183
0.2059882 0.2236876 -0.2770147 0.49822137 0.3597797 0.17524998 -0.11177302 -0.24793375
-0.23700489 -0.06943313 0.266932 0.59595853 0.02200619 0.64520746 -0.28870758 -0.79335535
0.12916374 -0.38112968 -0.14849219 0.0536066 0.22011213 -0.005082115 0.09096244 -0.2859417
-0.325582 0.14034106 0.07869361 -0.47991833 0.07990342 0.18837102 -0.04893851 -0.15449366
-0.2220936 0.08989909 -0.15715559 0.12824842 -0.46758056 -0.1365636 -0.061607614 -0.34332755
0.11610301 0.30417573 -0.2958844 -0.28858003 0.22161637 0.20537809 -0.19988336 -0.1195159
0.057919964 -0.007348026 0.23539005 -0.65860593 -0.04479952 -0.16796795 0.28737304 0.16348496
0.0904301 0.23640563 0.33377525 -0.6936579 -0.102579124 -0.54876167 0.30497158 -0.19376251
-0.31412503 0.20836708 -0.18051344 0.021330222 0.10822073 -0.13507582 -0.1263432 0.36111724
0.6749902 0.26685327 -0.23575889 -1.2372904 0.8539738 0.06429014 -0.17361735 0.66530603
0.29984584 0.013047004 -0.36012116 -0.43881002 0.18446268 -0.1607768 0.13801315 0.24734083
-0.7024091 -0.3079788 -0.33529517 0.1853888 0.28048936 0.3368838 0.03043494 0.22398639
0.070787035 0.14012058 0.32935417 0.5051372 0.44464716 0.38477054 -0.35226372 -0.058065202
0.13507248 -0.13517484 0.016892217 0.36865693 0.14531656 0.77538973 0.2620281 0.5404126
0.07912639 0.5462404 0.05030879 0.019494785 0.22511144 0.5502175 -0.09839284 -0.8248179
-0.62706405 -0.28041685 -0.43857637 0.9422296 -0.8240117 -0.069058515 -0.007914649 -0.27808163
-0.2814355 0.21864367 0.2019183 -0.41144985 0.08903312 0.24065267 -0.6869909 -0.09192979
0.7527422 -0.023221236 -0.18661653 0.60883796 -0.1144441 -0.5443385 -0.07434916 0.2972892
-0.23772918 -0.56581867 0.283163 0.14331624 -0.29242402 -0.31646132 -0.12594107 -0.05206472
0.24101469 0.032115832 -0.30600291 0.4471714 0.07296747 -0.7675035 0.4053677 0.2513113

sequential_2/dense_7/MatMul;sequential_2/dense_7/Relu;sequential_2/dense_7/BiasAdd f4 [48]
00000000: 3337 d8bc 80eb c93d 2ecd 833b c08f cb3e
00000010: aa6a debe 3eaa d03e 001f c33d 4bc8 233f
00000020: 84fe 663f 61ec 893e 9a85 ffbe 34fb bd3f
00000030: f1c8 863f 5405 92bd fa7c 99be 0eea 0e3f
00000040: ddfa 10be e2b3 cabd 67ae 183e 82a8 19bf
00000050: 0107 d5bd 931d 95be 76ee 243f a681 ba3d
00000060: fd19 603f 5e29 5f3e 2fe4 c1bd 4d89 3c3f
00000070: b670 e3bd 8acb 6e3e 70bb 07be 29eb 61be
00000080: e608 55bd 9919 d63e 5047 093f 71c1 db3d
00000090: 0a6f 273e 61d2 e1be 6fa6 36bd 9263 353e
000000a0: 5061 003f cf64 5fbd 5a61 203e 1361 033f
000000b0: ee4e b43c e0d3 713e 2b05 f6be 336a ba3f
-0.026393509 0.09859371 0.004022262 0.3975811 -0.43440753 0.40754884 0.09527397 0.639775
0.9023211 0.26938155 -0.49906617 1.4842286 1.0530072 -0.071299225 -0.29978162 0.5582589
-0.14158197 -0.09897591 0.14910279 -0.6002275 -0.104017265 -0.29124126 0.6442636 0.0910676
0.87539655 0.21793124 -0.09467351 0.73647004 -0.11105482 0.23319831 -0.13255095 -0.22062363
-0.05201044 0.41816404 0.5362444 0.107302554 0.16350952 -0.4410582 -0.044592317 0.17713764
0.5014849 -0.054539498 0.15662137 0.5132 0.022010293 0.2361598 -0.48050818 1.456366
