scripts/models/simulation_capture_6s_20x_1,5x1m_simulation_6s_32x32_model_no_quant.tflite (tflite, 8140 bytes, 7 tensors)

dense_16/bias f4 [5]
-0.64035434 0.22692963 -0.6627793 0.4636688 0.6125358
00000000: 43ee 23bf 3e60 683e e7ab 29bf ff65 ed3e
00000010: 25cf 1c3f

dense_15/bias f4 [32]
0.055997502 0.07360758 -0.023880081 0.12518756 0.1771201 0.031630903 0.03283211 0.31007513
-0.08691343 0.7100213 0.0 -0.023149047 0.12073428 -0.041078243 -0.014838252 0.4548019
0.049066912 -0.09648085 -0.039291818 0.03195822 -0.091951825 0.30361646 -0.010888904 -0.32175136
0.38734686 0.48316836 0.09205195 0.24424462 0.04372385 0.11111942 -0.011893053 0.3385128
00000000: a35d 653d 92bf 963d 29a0 c3bc 2b31 003e
00000010: f95e 353e 688f 013d f67a 063d 2bc2 9e3e
00000020: abff b1bd f5c3 353f 0000 0000 12a3 bdbc
00000030: 8943 f73d a941 28bd 241c 73bc cbdb e83e
00000040: 63fa 483d c097 c5bd 75f0 20bd 9fe6 023d
00000050: 3d51 bcbd 9e73 9b3e 6067 32bc 98bc a4be
00000060: 5452 c63e d861 f73e bc85 bc3d 431b 7a3e
00000070: c817 333d 9492 e33d 14db 42bc 8d51 ad3e

sequential_4/dense_13/MatMul f4 [6, 6]
-0.33890364 -0.902351 0.4200006 -0.084274665 1.1964628 0.021411533 1.0472538 -0.6129713
0.53734934 0.3200829 -0.44290248 -0.40865085 -0.8916071 -0.20873468 -0.980224 0.5217439
-0.2175171 -0.28645396 0.18365481 0.8147796 -1.0432594 0.1785213 -0.14733489 -0.45401323
-1.1262101 -1.2059863 -0.51222795 0.5476613 0.94088525 -0.6692389 -0.7906139 -1.3050194
0.35714257 1.3895075 -0.5529805 1.1094049
00000000: c784 adbe 7a00 67bf 520a d73e 3298 acbd
00000010: b125 993f 3d67 af3c 6a0c 863f b0eb 1cbf
00000020: ba8f 093f e8e1 a33e 1dc4 e2be af3a d1be
00000030: 5d40 64bf 8bbe 55be f6ef 7abf 0291 053f
00000040: cdbc 5ebe 18aa 92be 0210 3c3e 6595 503f
00000050: 8689 85bf 4ace 363e f5de 16be 6c74 e8be
00000060: a727 90bf c25d 9abf 5f21 03bf 8833 0c3f
00000070: dbdd 703f 3e53 2bbf ac65 4abf e00a a7bf
00000080: 64db b63e 62db b13f 2190 0dbf fb00 8e3f

sequential_4/dense_14/MatMul f4 [32, 6]
-0.34551302 -0.11204333 0.050189927 0.1430455 0.42178693 0.12540795 -0.13164939 0.28181863
0.37369642 0.3462683 0.21066628 0.0877115 0.4872586 0.2698691 -0.054807402 -0.36154306
0.72839934 0.072497055 0.185694 0.43325457 -0.016177041 0.3245168 0.100622475 0.56850713
0.1720436 0.36252698 0.13961959 -0.4024613 0.29537633 0.028185554 -0.22956248 0.2135609
-0.037561417 -0.14091776 0.23434533 -0.09470868 -0.0036914959 0.11436511 0.1117888 0.10419917
-0.3458433 -0.50261873 0.15838215 -0.46720555 0.45794636 -0.2530686 0.2780939 0.13851623
0.42400852 0.3209629 -0.061893985 -0.0008676974 0.25973955 0.3658896 -0.30158964 -0.25495636
0.41080108 0.23642774 0.42475802 -0.357708 -0.27952883 -0.20058614 0.3763111 0.28848943
0.24938835 0.08164533 -0.242137 -0.2197264 0.07947089 0.104177095 -0.3849448 -0.06390581
0.32576454 -0.3046849 0.16618581 0.07733411 0.2793712 0.21461324 -0.3105626 0.067334116
0.17195089 0.37963822 -0.2563878 -0.18188788 -0.14721726 -0.13002008 0.46959275 0.23392004
0.40899214 0.15068464 0.4437206 -0.07404783 -0.29582494 -0.3380298 -0.3599403 0.08144925
-0.19798203 -0.19227874 0.021666534 -0.29596382 -0.0753833 -0.0849452 0.04703533 -0.18398568
0.29334873 0.23622918 -0.035769664 0.06961005 0.05409738 -0.55850446 0.36722967 0.025655655
0.055104923 0.33170122 -0.026142502 -0.06969433 -0.33145717 -0.29095775 -0.40926254 0.3374041
-0.2884451 0.19322579 0.45239428 0.30560803 -0.35057703 -0.15952162 0.50470114 -0.2776864
-0.21656066 -0.46193948 -0.36976013 0.31618562 0.6310218 -0.17383693 -0.51558906 -0.017077632
0.24831758 -0.5659484 -0.17020716 -0.34943506 0.3565446 0.26012656 0.43377468 -0.3663829
0.21738121 0.4030854 -0.05636757 -0.44672868 -0.004626662 0.59331614 -0.3178464 0.27585247
0.0020948923 0.23389755 -0.2695671 -0.26892918 -0.08251974 0.17989136 -0.3707148 -0.5693671
0.25423503 0.43727338 -0.22587767 -0.155943 0.04841069 -0.0026148688 -0.11340425 0.25242564
0.29532996 -0.45858163 0.45995077 -0.05787808 0.4497528 0.6827097 0.009599282 -0.12609206
-0.16584128 -0.21091993 -0.18309443 -0.6016433 -0.5960428 -0.040149108 -0.2115515 0.14419205
-0.18913536 0.56965196 0.3680531 -0.241003 -0.28825483 -0.15838097 -0.2535672 -0.3556494
00000000: 15e7 b0be f976 e5bd f493 4d3d 857a 123e
00000010: 75f4 d73e f16a 003e 19cf 06be 884a 903e
00000020: 2355 bf3e 144a b13e e7b8 573e 16a2 b33d
00000030: f679 f93e 482c 8a3e ba7d 60bd 2c1c b9be
00000040: 6178 3a3f 5679 943d 9126 3e3e 8bd3 dd3e
00000050: b785 84bc 1127 a63e 2813 ce3d af89 113f
00000060: 332c 303e 239d b93e 70f8 0e3e 680f cebe
00000070: 913b 973e 64e5 e63c 6d12 6bbe b5af 5a3e
00000080: 00da 19bd bf4c 10be 39f8 6f3e a0f6 c1bd
00000090: 06ed 71bb 4138 ea3d 87f1 e43d 6066 d53d
000000a0: 5f12 b1be 9fab 00bf ee2e 223e 9135 efbe
000000b0: f277 ea3e 3592 81be 5362 8e3e 33d7 0d3e
000000c0: a517 d93e 4055 a43e 8c84 7dbd 3076 63ba
000000d0: 95fc 843e e255 bb3e f569 9abe a489 82be
000000e0: 8554 d23e 1d1a 723e e279 d93e 8125 b7be
000000f0: 671e 8fbe 7466 4dbe d9ab c03e e3b4 933e
00000100: a95f 7f3e ab35 a73d c3f2 77be f5ff 60be
00000110: a2c1 a23d cd5a d53d 7c17 c5be 0de1 82bd
00000120: 9cca a63e a9ff 9bbe 9d2c 2a3e 5961 9e3d
00000130: be09 8f3e 93c3 5b3e 1002 9fbe 78e6 893d
00000140: e513 303e f15f c23e 4345 83be d140 3abe
00000150: 1fc0 16be fc23 05be 766e f03e bc88 6f3e
00000160: 6b67 d13e 134d 1a3e 592f e33e 64a6 97bd
00000170: 5e76 97be 3e12 adbe 184a b8be ddce a63d
00000180: cdbb 4abe b8e4 44be 047e b13c 9288 97be
00000190: 8f62 9abd c0f7 adbd 1ea8 403d be66 3cbe
000001a0: ce31 963e 10e6 713e 3683 12bd b78f 8e3d
000001b0: 3795 5d3d 26fa 0ebf 8705 bc3e cf2b d23c
000001c0: b3b5 613d bed4 a93e cd28 d6bc e7bb 8ebd
000001d0: c1b4 a9be 6af8 94be dc8a d1be 3bc0 ac3e
000001e0: 13af 93be fbdc 453e 39a0 e73e a878 9c3e
000001f0: d57e b3be a359 23be 1834 013f e92c 8ebe
00000200: 14c2 5dbe 5583 ecbe 3351 bdbe 15e3 a13e
00000210: a58a 213f 4f02 32be a5fd 03bf 64e6 8bbc
00000220: f746 7e3e ffe1 10bf c94a 2ebe 27e9 b2be
00000230: 048d b63e 4f2f 853e b717 de3e 8a96 bbbe
00000240: 2e99 5e3e 3661 ce3e aee1 66bd 9fb9 e4be
00000250: 419b 97bb 91e3 173f c3bc a2be 893c 8d3e
00000260: 764a 093b d782 6f3e b304 8abe 16b1 89be
00000270: 1c00 a9bd 7135 383e 55ce bdbe 0bc2 11bf
00000280: 182b 823e 4ce2 df3e 7a4c 67be 86af 1fbe
00000290: 4a4a 463d 385e 2bbb 7d40 e8bd ef3d 813e
000002a0: 7d35 973e 36cb eabe ab7e eb3e 9111 6dbd
000002b0: 0046 e63e 10c6 2e3f 4f46 1d3c 471e 01be
000002c0: 4cd2 29be 65fb 57be 1b7d 3bbe 4c05 1abf
000002d0: 4396 18bf 6473 24bd f5a0 58be 15a7 133e
000002e0: b3ac 41be b6d4 113f 7571 bc3e 7ec9 76be
000002f0: 2396 93be 9f2e 22be 8fd3 81be ae17 b6be

sequential_4/dense_15/MatMul f4 [32, 32]
-0.22895017 -0.06732224 -0.2995834 -0.2899623 -0.24169092 -0.17079066 -0.08531078 -0.053818554
-0.40987676 -0.026680795 0.09394704 -0.097034775 0.12143455 -0.20480627 0.18394065 0.11479867
-0.17619565 -0.014090081 0.44953328 0.37298414 -0.40568995 0.27257904 0.44865304 0.13002402
-0.38422114 -0.2999263 -0.096175306 0.10177808 0.09633827 0.29017892 -0.255535 0.3617111
0.13053703 0.027992109 0.26468918 -0.36746064 -0.2607788 -0.2215031 -0.25257957 -0.04490655
0.217604 -0.26714334 0.093669206 0.2917396 -0.20680097 -0.06098234 0.101222314 0.24423328
0.22814865 0.08887375 -0.11586307 0.17874496 -0.1133047 0.2299253 0.08316436 -0.23778237
0.08822572 0.071273394 0.23833703 -0.07503324 -0.13082302 -0.33967376 0.03883393 0.10047249
-0.1965341 0.050341062 -0.16615683 -0.14432222 -0.25811124 -0.28716955 -0.18869457 0.24504186
-0.2868371 -0.12076244 -0.046245456 0.14211686 -0.15767595 -0.0014903843 -0.066850804 0.03933339
-0.22654194 -0.22063974 -0.13282485 0.23538706 0.10218543 -0.108390965 0.2754055 -0.10749832
0.16876733 -0.2214862 0.25727502 -0.2515221 -0.30006522 -0.08698626 -0.0077696634 -0.30005115
-0.20682402 0.13846073 0.09123063 -0.24551539 0.21772622 -0.15371367 0.261462 0.051196143
-0.27795306 0.13047704 0.20278695 0.21309243 0.26431397 -0.2608152 0.043245368 -0.19238259
-0.25659305 0.26855758 -0.1490993 -0.37448588 -0.30734706 -0.26300237 -0.18571621 0.25370184
-0.0075346758 0.066398166 -0.007281334 -0.113208264 0.14264767 0.29813638 -0.14490841 0.06488814
0.041759025 -0.28854066 0.25714794 0.050965674 0.19071788 0.033140898 -0.05824896 -0.11829817
0.27452832 0.14133048 0.28200382 -0.057455864 -0.3243671 -0.20158401 -0.0982063 0.33401826
-0.23558666 0.028089104 0.090124875 0.249983 -0.28895804 -0.035846595 0.16192381 -0.01232608
-0.0019446567 0.3709756 0.010077676 0.1590008 -0.2507408 0.039788913 -0.15682852 0.15864508
0.2180396 0.3017798 -0.14362961 -0.22459769 -0.164537 0.089134075 -0.042452354 -0.11314449
-0.13068984 0.10031575 0.1569376 -0.073901474 7.836498e-05 -0.019473122 0.10964319 0.12525117
0.12854606 0.2973676 -0.16254966 0.3639598 -0.06814884 -0.29425433 -0.44522718 -0.18693432
0.0708778 -0.11604688 0.27225894 0.21616095 -0.3396797 0.15919735 -0.20373927 0.18354945
-0.25786906 0.13457586 0.072442085 -0.15477793 -0.055235792 0.12818345 -0.11569258 -0.18947391
-0.24671304 0.1920428 0.12182516 0.27251032 0.1852653 0.15748593 0.26769593 -0.08548322
-0.2555236 -0.16065435 0.2529113 -0.12927234 -0.18190224 -0.24703531 -0.04468013 -0.13974252
0.060377426 -0.25209397 0.1902824 -0.06260082 -0.114282824 -0.19965656 -0.0634968 0.17707764
0.26107535 -0.07413991 -0.35185936 -0.21957883 -0.28704178 -0.0502217 0.20850031 -0.23635316
0.21500742 0.19051804 0.14403865 0.061638553 0.03373051 -0.14573787 -0.28592145 0.22115819
-0.080092125 -0.23061304 -0.08331105 -0.098453306 -0.15412839 -0.15729706 0.33024508 0.031110583
-0.17685285 0.21076283 -0.077138476 -0.29195938 -0.11693195 0.2510561 0.05423582 0.2462965
00000000: ea71 6abe 3ee0 89bd ff62 99be f075 94be
00000010: d37d 77be bfe3 2ebe 6bb7 aebd d870 5cbd
00000020: 5edb d1be af91 dabc 4e67 c03d 2bba c6bd
00000030: adb2 f83d bcb8 51be f05a 3c3e 911b eb3d
00000040: a26c 34be 15da 66bc 3a29 e63e c7f7 be3e
00000050: 98b6 cfbe 7b8f 8b3e dab5 e53e 0425 053e
00000060: a2b8 c4be f18f 99be 8ff7 c4bd 0771 d03d
00000070: 004d c53d 5592 943e 7cd5 82be 3332 b93e
00000080: 80ab 053e b54f e53c 5785 873e cd23 bcbe
00000090: cd84 85be b5d1 62be 1c52 81be eeef 37bd
000000a0: 95d3 5e3e 03c7 88be a4d5 bf3d e55e 953e
000000b0: a2c3 53be 9ec8 79bd a54d cf3d 4a18 7a3e
000000c0: cd9f 693e 7103 b63d 9e49 edbd eb08 373e
000000d0: 4b0c e8bd 8a71 6b3e 1352 aa3d 397d 73be
000000e0: b0af b43d c9f7 913d 9f0e 743e 07ab 99bd
000000f0: 78f6 05be b8e9 adbe 5410 1f3d 85c4 cd3d
00000100: 3c40 49be 6e32 4e3d 0425 2abe 34c9 13be
00000110: 2827 84be e307 93be 2639 41be 41ec 7a3e
00000120: 50dc 92be 4c52 f7bd e06b 3dbd 1587 113e
00000130: ce75 21be 0059 c3ba 13e9 88bd 0c1c 213d
00000140: 9cfa 67be 62ef 61be 3d03 08be 4e09 713e
00000150: 9846 d13d 15fc ddbd f301 8d3e 1428 dcbd
00000160: 58d1 2c3e 47cd 62be 8db9 833e 81c7 80be
00000170: 26a2 99be da25 b2bd a998 febb 4ea0 99be
00000180: adc9 53be a6c8 0d3e 20d7 ba3d 6368 7bbe
00000190: 9ff3 5e3e 1e67 1dbe 59de 853e 0cb3 513d
000001a0: dd4f 8ebe c69b 053e 62a7 4f3e e734 5a3e
000001b0: 2954 873e 9289 85be 0e22 313d f1ff 44be
000001c0: 2a60 83be 6180 893e 7dad 18be 9dbc bfbe
000001d0: 985c 9dbe 3fa8 86be 642c 3ebe 35e5 813e
000001e0: 71e5 f6bb c3fb 873d 4298 eebb bcd9 e7bd
000001f0: 3b12 123e 55a5 983e df62 14be 13e4 843d
00000200: 830b 2b3d 9abb 93be e5a8 833e 62c1 503d
00000210: 8c4b 433e c0be 073d 7696 6ebd 5046 f2bd
00000220: fa8e 8c3e f0b8 103e ce62 903e d756 6bbd
00000230: 7213 a6be 0a6c 4ebe 6220 c9bd 7104 ab3e
00000240: a13d 71be 1f1b e63c 6493 b83d 8bfb 7f3e
00000250: 4ff2 93be e1d3 12bd 5bcf 253e 54f3 49bc
00000260: dae3 feba 84f0 bd3e d61c 253c 1bd1 223e
00000270: 1961 80be b3f9 223d a897 20be db73 223e
00000280: c645 5f3e e282 9a3e a413 13be f0fc 65be
00000290: 637c 28be ed8b b63d 85e2 2dbd 4cb8 e7bd
000002a0: 8fd3 05be 5872 cd3d 40b4 203e a859 97bd
000002b0: e157 a438 1986 9fbc 9c8c e03d d841 003e
000002c0: 94a1 033e 9140 983e 6b73 26be f058 ba3e
000002d0: 9e91 8bbd 81a8 96be d1f4 e3be b66b 3fbe
000002e0: 6128 913d fda9 edbd 8665 8b3e 4c59 5d3e
000002f0: 7fea adbe a104 233e 07a1 50be 63f4 3b3e
00000300: 6a07 84be 41ce 093e 845c 943d 1b7e 1ebe
00000310: ed3e 62bd 8642 033e 3bf0 ecbd 7305 42be
00000320: 58a2 7cbe dea6 443e 787f f93d 7986 8b3e
00000330: 30b6 3d3e fe43 213e 710f 893e d411 afbd
00000340: fdd3 82be 9382 24be 977d 813e f85f 04be
00000350: 9544 3abe d3f6 7cbe 8302 37bd aa18 0fbe
00000360: 524e 773d 7612 81be 64d9 423e dc34 80bd
00000370: 1d0d eabd c572 4cbe 9c0a 82bd d753 353e
00000380: abab 853e aad6 97bd e926 b4be 46d9 60be
00000390: 24f7 92be 45b5 4dbd 1b81 553e 9006 72be
000003a0: e82a 5c3e 2917 433e de7e 133e b578 7c3d
000003b0: 0129 0a3d 4f3c 15be 4c64 92be 4b77 623e
000003c0: 5707 a4bd d325 6cbe fc9e aabd e3a1 c9bd
000003d0: d5d3 1dbe 7b12 21be e215 a93e 9fdb fe3c
000003e0: ea18 35be 36d2 573e c7fa 9dbd b37b 95be
000003f0: 057a efbd 6d8a 803e 6126 5e3d 2635 7c3e

sequential_4/dense_16/MatMul f4 [5, 32]
-0.35125795 -0.5676633 0.06365162 -0.36048585 -0.35952246 0.012548295 -0.31834456 -0.5634719
0.056031685 -0.22750117 0.09344494 0.15762289 -0.23313954 -0.16661163 -0.6465519 0.055071227
-0.43793765 -0.29107437 0.12490876 -0.64027077 0.28117895 0.026917003 0.32086366 0.25839624
-0.2988065 -0.045960445 -0.584619 0.01533699 -0.56352407 -0.6261729 -0.18800178 -0.19972853
-0.77837586 0.39501733 0.3079458 -0.43471417 0.4337566 0.33184168 -0.29108593 0.13092545
0.1423979 0.65846825 -0.3827241 -0.05763289 0.41883373 0.082428984 0.058283325 0.33127567
0.47702524 -0.191431 0.5575089 0.6249133 -0.082158074 0.44789696 -0.082149975 -0.029873217
0.1947508 0.50612 0.35119846 0.47703403 0.32158294 0.44706944 0.28353062 -0.45017898
0.3249209 0.0634963 -0.019717239 0.2369426 -0.61473686 -0.28684935 -0.32628682 -0.3806447
0.09148918 -0.20508553 -0.21028896 0.054051667 -0.32920092 0.043234456 -0.24217433 0.17574129
-0.38818774 0.24180907 -0.4685301 -0.88136894 0.16198348 -0.3844235 -0.18049507 -0.07700006
-0.53794 -0.40539348 -0.5486707 0.08102717 -0.084978916 -0.35070223 0.17912035 0.24558538
0.28212616 -0.33918077 -0.2318051 0.09351372 0.48475283 0.04198823 0.20182289 0.512478
0.13889217 0.84477866 0.1646148 -0.3196551 -0.07581214 0.39450556 -0.13587673 -0.55556005
0.041215144 0.3368713 0.056799587 0.170462 -0.34210116 -0.37416428 0.16582404 -0.41194788
-0.6390942 0.49382615 -0.1987291 0.33048698 -0.1471912 0.114914976 0.093556255 0.8515968
0.22434637 0.16183503 -0.048440494 0.193592 0.16868606 -0.20993102 0.16668743 -0.25471812
-0.32945624 -1.2018939 0.09719989 0.31793794 0.43523717 -0.115533136 0.16012646 0.5984593
0.19055359 -0.30279046 0.38797203 0.13443777 -0.16747051 0.4822778 -0.14867617 -0.12684146
0.63355803 -0.59262335 0.23261668 -0.5962885 0.11009064 0.4705764 -0.20860384 0.35526612
00000000: 15d8 b3be 6252 11bf c85b 823d 9a91 b8be
00000010: 5413 b8be 5d97 4d3c 0ffe a2be b23f 10bf
00000020: 7b81 653d 11f6 68be 1060 bf3d e567 213e
00000030: 22bc 6ebe 3d9c 2abe 6d84 25bf 5e92 613d
00000040: 5d39 e0be b307 95be 2ad0 ff3d c9e8 23bf
00000050: b0f6 8f3e 0c81 dc3c 3e48 a43e 834c 843e
00000060: 2afd 98be 0541 3cbd 97a9 15bf 0048 7b3c
00000070: 1d43 10bf de4c 20bf 8a83 40be a385 4cbe
00000080: a443 47bf b63f ca3e 12ab 9d3e db92 debe
00000090: 5815 de3e 27e7 a93e 3709 95be 5211 063e
000000a0: c1d0 113e 6091 283f 6af4 c3be 7710 6cbd
000000b0: 6071 d63e 87d0 a83d 7fba 6e3d f79c a93e
000000c0: a73c f43e 7d06 44be e7b8 0e3f 51fa 1f3f
000000d0: 7e42 a8bd c052 e53e 3f3e a8bd adb8 f4bc
000000e0: c16c 473e 1591 013f 49d0 b33e ce3d f43e
000000f0: 85a6 a43e 49e6 e43e ed2a 913e dc7d e6be
00000100: 085c a63e 590a 823d 0c86 a1bc 15a1 723e
00000110: 655f 1dbf ebdd 92be 110f a7be dde3 c2be
00000120: ae5e bb3d f101 52be fd55 57be 4865 5d3d
00000130: 068d a8be 9d16 313d 8cfc 77be 86f5 333e
00000140: 8bc0 c6be cc9c 773e 2de3 efbe 65a1 61bf
00000150: ffde 253e 28d3 c4be b3d3 38be 35b2 9dbd
00000160: 70b6 09bf bc8f cfbe af75 0cbf 93f1 a53d
00000170: 6d09 aebd 3e8f b3be 536b 373e bc7a 7b3e
00000180: d772 903e 1aa9 adbe 515e 6dbe 1f84 bf3d
00000190: 8631 f83e dafb 2b3d a9aa 4e3e c231 033f
000001a0: c039 0e3e 6a43 583f c890 283e d5a9 a3be
000001b0: 6543 9bbd a2fc c93e 4523 0bbe 2f39 0ebf
000001c0: 36d1 283d 657a ac3e afa6 683d 978d 2e3e
000001d0: e227 afbe 7692 bfbe c7cd 293e d5ea d2be
000001e0: ad9b 23bf c8d6 fc3e a47f 4bbe 9735 a93e
000001f0: 4ab9 16be 8b58 eb3d 6c9a bf3d 3f02 5a3f
00000200: 0ebb 653e 15b8 253e 8a69 46bd fb3c 463e
00000210: 0abc 2c3e 28f8 56be 1cb0 2a3e 6a6a 82be
00000220: 7dae a8be a9d7 99bf bc10 c73d c3c8 a23e
00000230: 68d7 de3e a39c ecbd 31f8 233e a134 193f
00000240: 7b20 433e 5a07 9bbe 45a4 c63e 0eaa 093e
00000250: 647d 2bbe 1eed f63e 913e 18be bae2 01be
00000260: dc30 223f 2ab6 17bf 1133 6e3e 5da6 18bf
00000270: 3477 e13d 64ef f03e 3f9c 55be 71e5 b53e

sequential_4/dense_14/MatMul;sequential_4/dense_14/Relu;sequential_4/dense_14/BiasAdd f4 [32]
0.05164919 0.26580003 0.58427536 -0.24472365 0.12261302 -0.05035597 0.26294708 0.58045834
0.17269632 0.22218251 0.0625165 -0.47984588 0.3188079 -0.3517682 0.642024 -0.114774056
-0.36366907 -0.02945472 0.4103444 -0.15428077 -0.20388636 -0.2359004 0.030316086 0.24887365
0.07824062 0.32961953 -0.00018654484 -0.10500759 0.603537 0.053774662 -0.18349507 0.2869458
00000000: 1a8e 533d f116 883e 1293 153f d698 7abe
00000010: 891c fb3d 1042 4ebd 00a1 863e eb98 143f
00000020: 4ed7 303e d083 633e a708 803d 5cae f5be
00000030: ca3a a33e f61a b4be af5b 243f a90e ebbd
00000040: d532 babe 064b f1bc a918 d23e c7fb 1dbe
00000050: 96c7 50be e08f 71be 7159 f83c bcd8 7e3e
00000060: 9e3c a03d e4c3 a83e 409b 43b9 380e d7bd
00000070: 6781 1a3f d242 5c3d 22e6 3bbe 8fea 923e
