scripts/models/simulation_capture_10s_20x_1,5x1m_simulation_10s_32_model_no_quant.tflite (tflite, 4280 bytes, 5 tensors)

dense_5/bias f4 [5]
000000 77 57 18 bf 52 4f 3c 3e 7c 83 18 bf b8 c1 8d 3e
       -0.5950846 0.18389633 -0.5957563 0.27686858
000010 4d e6 3a 3f
       0.7300766

sequential_1/dense_3/MatMul f4 [10, 10]
000000 5e 4b 88 bf 05 22 f8 be 13 10 55 be f9 8c aa 3e
       -1.0648 -0.48463455 -0.20806913 0.3331068
000010 00 cb 9c 3e 70 65 74 be a6 d3 ca be 0e ec a5 3e
       0.30623627 -0.2386682 -0.396146 0.32406658
000020 90 f6 00 bf 61 ba bb 3e 76 16 bf be 72 24 8f 3d
       -0.50376225 0.36665633 -0.37321824 0.06989373
000030 fa b3 9b be 48 a9 94 be 5f 7e 34 be c3 99 2e be
       -0.3041075 -0.290354 -0.17626332 -0.17050843
000040 a9 b2 a2 3e 5c ee 82 be 5f 75 9f bf 36 7b 3a be
       0.31776932 -0.2557248 -1.2457694 -0.18211064
000050 e6 a4 b0 be c4 3c 78 bf d4 1d 08 3f b5 4d da bc
       -0.34500808 -0.9696772 0.53170514 -0.026648382
000060 27 f5 90 3e aa 5e c8 be bf 26 8b 3d 72 19 07 bf
       0.28312036 -0.39134723 0.067944996 -0.527732
000070 01 3b d4 be 65 3e f4 3e 03 dd 0c bf de 8f ae be
       -0.41451266 0.47703853 -0.5502474 -0.34094137
000080 c4 47 13 3e 20 2e 2d 3f 41 fd 0b bf c5 b2 45 3f
       0.14382845 0.67648506 -0.5468331 0.77225906
000090 3e 5a ca be 32 36 53 3f 1c 36 36 bf 20 cf 76 3f
       -0.39521974 0.8250457 -0.71176314 0.964098
0000a0 67 bf 87 3e 4c a2 57 be 8a 56 aa be d6 86 a8 be
       0.26513216 -0.21058005 -0.3326915 -0.32915372
0000b0 c9 e9 4d bf 04 16 06 3f 02 a4 2d bf a4 93 00 bf
       -0.8043485 0.52377343 -0.6782838 -0.5022528
0000c0 0a f1 4b 3e 4d b8 31 bf bb 77 af 3d 22 4a 7d bf
       0.19916168 -0.69421846 0.08567759 -0.9894124
0000d0 18 f6 d4 3d 1b fc 83 be f4 81 27 3f e4 e5 74 be
       0.10398501 -0.2577828 0.6543267 -0.23915821
0000e0 80 a1 7a bf e0 ba 2f 3f 41 4a a8 be e9 b0 e1 bd
       -0.9790268 0.68644524 -0.3286915 -0.11020071
0000f0 e0 1b 3b be 12 5c 93 bd 3f 5e 9f 3d 7e bc 12 bf
       -0.18272352 -0.071952954 0.07781648 -0.57318866
000100 4c 30 47 bd e1 a7 39 be a8 30 0d bf 28 2d df 3e
       -0.048630044 -0.18130447 -0.5515237 0.4358914
000110 83 8a 42 3f c4 b4 75 be 0e 43 04 3f 7e 5e f9 bd
       0.759926 -0.23994738 0.5166482 -0.12176226
000120 47 a4 2f be 1e 04 9e be f4 c9 82 be 2f 2e 8e bd
       -0.1715251 -0.30862516 -0.25544703 -0.069424026
000130 4c 9c 11 3f 4e 76 1f bf b0 11 4c be b2 8e 6d bf
       0.56879115 -0.62289894 -0.19928622 -0.9279586
000140 96 85 e1 be 4a 26 04 3f d5 1b b7 be 12 52 b8 bd
       -0.4404723 0.51620924 -0.35763422 -0.09000029
000150 2a d7 7c 3e 50 55 b5 bd bc 59 e2 3e 3e 8e 07 3f
       0.24691454 -0.08854163 0.44209087 0.5295142
000160 e0 91 24 bf 68 82 28 bf dc 4c 5b 3f 55 44 78 3e
       -0.6428509 -0.65823984 0.85664153 0.24244817
000170 70 17 90 be 44 38 af bb dd 1c 8a 3e 65 e8 d8 be
       -0.2814288 -0.0053472836 0.26975146 -0.42364803
000180 82 6f 0f 3f 0b 7c d0 3e b9 7c 0f 3f bb 06 bb 3e
       0.5602952 0.40719637 0.56049687 0.36528572

sequential_1/dense_4/MatMul f4 [32, 10]
000000 6e f7 e2 3e 97 36 2b 3d 8f 25 2d 3f 79 47 d0 3d
       0.443294 0.041800108 0.67635435 0.10169882
000010 37 44 41 3f 70 3c 2f 3f 2a 37 ba 3e c7 42 19 bc
       0.7549471 0.68451595 0.36370212 -0.0093543
000020 e2 de cb be a6 b1 3d bf 0e 08 6a be e7 e6 0b bd
       -0.39818484 -0.74099195 -0.22854635 -0.034155753
000030 04 97 c4 3d 7f 92 17 be 9c a3 8a be 34 8e 14 be
       0.095991164 -0.14801978 -0.2707795 -0.14507371
000040 8a 1f c7 3e ee f6 c4 bd 1a f0 0e bd 8a d6 57 bd
       0.3889125 -0.096174106 -0.034896947 -0.052694835
000050 f9 4f f6 be b0 57 b8 be f7 25 3c be dd cb 1a bf
       -0.4810789 -0.360044 -0.18373857 -0.6046732
000060 1b 9e b9 3e 1b 39 f1 bd 30 ca de bd 42 30 87 3e
       0.36253437 -0.1177847 -0.10878408 0.26404005
000070 51 1c f7 bd d0 f8 d1 3e 13 cd 99 be 39 2b c3 be
       -0.12065948 0.4101014 -0.30039272 -0.38118914
000080 98 b6 a6 be 23 00 01 3f f2 57 04 be e4 6c 98 be
       -0.32561183 0.50390834 -0.12924173 -0.29770577
000090 e0 4a 26 be 53 5e a7 3c 8b 41 1c bd 28 f2 ca 3e
       -0.162395 0.02043072 -0.038148444 0.39637876
0000a0 9f c5 8e 3e 79 b7 6c bd 04 d3 f4 3d ee 5a 98 bb
       0.27885148 -0.05779216 0.119543105 -0.0046495115
0000b0 0b 03 c4 3e ab c8 03 3e 68 fe 07 3d 8a 5d b2 bd
       0.38283572 0.12869518 0.033201605 -0.087092474
0000c0 95 15 32 bd 55 74 4d bd d2 7a 40 3e 84 8e 18 3e
       -0.043477613 -0.05015977 0.18796852 0.14898115
0000d0 89 35 a1 bd dd 13 ad be 7a 0f d8 3e 3f 9d d9 3c
       -0.07871539 -0.33804217 0.42199308 0.026564239
0000e0 75 fc 0d be 41 82 29 be 25 21 ca 3e 20 9f 0b 3e
       -0.13865836 -0.16553594 0.39478412 0.1363492
0000f0 e4 fc 6c be ba 93 1a 3f 9b 7b 04 be 6a 9a 21 bf
       -0.23143345 0.6038166 -0.12937777 -0.6312624
000100 52 00 79 3f a4 9a 20 be 38 11 7a bd c1 72 6e 3f
       0.97266114 -0.1568399 -0.061051577 0.9314385
000110 de ac f8 3e a1 48 00 bf eb 6e b1 3d 89 33 a4 b8
       0.48569387 -0.5011082 0.08663734 -7.8297286e-05
000120 95 14 af be 3e 73 5c 3c 9d 7f 56 3e 79 6f 33 3d
       -0.3419539 0.01345521 0.20947118 0.04380748
000130 bc 54 e9 bc fa d0 8a 3d d9 f9 99 be f4 1d 85 3d
       -0.028482787 0.0677814 -0.3007343 0.06499854
000140 3c 3f a4 be 80 01 e2 3d 9e 09 3e 3e 39 40 de be
       -0.32079494 0.11035442 0.18558356 -0.43408373
000150 89 95 e6 bd 01 f7 70 be a5 08 5b 3e c0 3e 95 be
       -0.1125899 -0.23531725 0.21390016 -0.29149437
000160 3b 1e 16 be da 68 c1 be fb 9b ff 3d 36 74 2f bd
       -0.1465997 -0.37775308 0.12480923 -0.042835437
000170 ec 64 98 3e ff 30 85 3e 21 57 31 3f 50 46 d1 3e
       0.29764497 0.26013944 0.69273573 0.40873957
000180 bb bd 21 be 45 81 3f bd 2c c4 f3 be 18 74 04 bf
       -0.15795033 -0.04675414 -0.47610605 -0.51739645
000190 a3 22 80 3e c2 86 23 3e c9 43 ba 3e 7e 46 3f 3e
       0.25026426 0.15969375 0.3637984 0.18679234
0001a0 8f c7 58 3d a9 d2 df bc ca e7 00 bf b7 16 01 3e
       0.05292469 -0.02732213 -0.5035368 0.12606321
0001b0 a1 e8 38 3e ec fc 88 bc b3 e7 ef bd a8 a8 16 be
       0.18057491 -0.016722165 -0.11714115 -0.14712775
0001c0 95 39 b2 bd 41 e1 92 be 33 9d d8 3c 67 27 9b 3e
       -0.08702389 -0.2868748 0.026442146 0.303035
0001d0 7e 37 53 3e be 60 bf 3e 4c 42 3e 3e 9c 1e d6 be
       0.20626637 0.37378496 0.18579978 -0.41820228
0001e0 97 8a c2 be f9 b0 1a bf 4a b7 3c bd 8b 26 e0 be
       -0.3799636 -0.6042629 -0.046073236 -0.43779406
0001f0 d3 7a 88 3e 36 63 15 3e c8 61 13 3f 39 80 f3 bd
       0.26656207 0.14588627 0.5757108 -0.11889691
000200 76 d6 45 be 50 6c 86 bd 8e 41 4f bd 3b 11 76 3d
       -0.19320092 -0.06563628 -0.050599627 0.060075026
000210 cb b6 b2 be db 04 e9 3e 3e f7 82 3e 37 be d4 be
       -0.34905085 0.45511517 0.25579256 -0.41551372
000220 d4 52 b2 3e 61 0c b5 be a0 d8 57 be a1 36 95 be
       0.34828818 -0.35361007 -0.2107873 -0.2914324
000230 05 76 c8 3d 38 93 c4 3e 75 4f aa 3c bb da d6 bd
       0.097881354 0.3839357 0.020789841 -0.10490938
000240 ed 4f b9 be be 74 57 be dc 00 aa be 92 f9 30 be
       -0.3619379 -0.21040627 -0.3320378 -0.17282704
000250 72 2d 34 bd 18 04 66 be f3 fc 73 be 7f 46 cb 3d
       -0.043988653 -0.22462499 -0.23826961 0.099255554
000260 de c6 aa 3e 08 06 3d be 60 da 4b bd c0 60 98 3d
       0.3335485 -0.18459332 -0.049768806 0.074403286
000270 70 f4 16 3e e5 9b ae 3e 81 c3 53 3d 50 0e bd be
       0.14741683 0.34103313 0.05170012 -0.36924982
000280 e4 aa 65 3e 2f b2 40 bd 6a 9c 34 bd 07 31 b1 3e
       0.22428471 -0.04704493 -0.04409448 0.34607717
000290 bd e1 2c 3d 06 e3 d8 be dc 81 f7 be fe 67 37 be
       0.04220747 -0.42360705 -0.48341262 -0.17910764
0002a0 9c 97 99 be bc 10 84 be d1 de e3 3d af 09 0a be
       -0.2999848 -0.25794017 0.11126483 -0.13480256
0002b0 13 db b5 3d fe 46 af 3e ae 34 4c 3d 86 ee bb 3e
       0.08879676 0.3423385 0.049854927 0.36705416
0002c0 a0 fb b0 3d de d6 32 be b5 1e cb 3e b5 1e 19 be
       0.08641744 -0.17464778 0.39671865 -0.1495312
0002d0 c6 96 b7 be 42 61 4b bf ed 78 af be ca 9e 0b be
       -0.35857219 -0.7944528 -0.34271947 -0.13634792
0002e0 13 2c 2a 3e a3 40 d4 3d d7 d2 0c bc 29 87 c0 be
       0.16618375 0.10363891 -0.00859519 -0.3760312
0002f0 63 8f aa be 3b 9c 0b 3f 47 79 5a be e7 5a ad 3c
       -0.3331252 0.54535264 -0.21335326 0.02116151
000300 39 f2 03 3e 91 91 37 bf f5 ae 5c 3e fe 06 5f bf
       0.1288537 -0.7170649 0.21551116 -0.87120044
000310 8d dd e6 be 40 b8 08 3f f4 fa 88 3d 95 13 ef 3d
       -0.45090905 0.53406143 0.066884905 0.11673657
000320 3e dd bc 3e 91 e3 d0 bd 0e d3 88 be ca b7 d1 3c
       0.36887544 -0.10199655 -0.26723522 0.025600333
000330 67 68 8c 3c 4c 84 9a be 05 bd 85 be 15 f6 14 be
       0.017139627 -0.3017906 -0.26120773 -0.14546998
000340 7c f6 d6 3e de 9f 00 3e 31 92 6c be f8 33 8d 39
       0.41984928 0.12560984 -0.23102643 0.00026932335
000350 0c 4b b7 3e 8a 9c 4c 3e 67 e3 41 bd f3 ef 2a be
       0.35799444 0.1998159 -0.04733601 -0.16693096
000360 d1 c3 32 be bd b0 00 3d 84 62 4b be 10 56 80 be
       -0.1745751 0.03141855 -0.198618 -0.2506566
000370 d7 db 8f 3d aa 90 ba 3e 39 89 3b 3e 5a 52 48 3d
       0.07024353 0.36438495 0.18314065 0.04890666
000380 77 6e fb 3c ad e2 90 3e 6b dd 8c 3e 56 ce e8 3d
       0.030692322 0.2829794 0.27512679 0.113674805
000390 2d 7e 76 3e d0 ee 82 3e 72 06 af bd 46 c9 ab 3e
       0.2407157 0.25572824 -0.08546151 0.33551997
0003a0 50 9e 67 be c5 73 e0 bc 03 4e 61 be a2 26 69 be
       -0.22618985 -0.027398953 -0.22002415 -0.22768643
0003b0 8b 46 9b 3e aa 80 2b 3e 37 22 76 be a7 76 d1 bd
       0.30327258 0.167483 -0.2403649 -0.10227709
0003c0 57 0f 97 3e a9 b6 3e be 6a af e5 3e 7e 19 7d be
       0.2950389 -0.18624367 0.44860393 -0.24716756
0003d0 90 00 78 3d 2b fe 5d be da 98 99 be 64 aa 91 be
       0.06054741 -0.21678989 -0.2999943 -0.2845031
0003e0 1a 59 c6 3e 8d 0b 79 be 9e 28 13 be ae 01 ba 3e
       0.38739854 -0.24320813 -0.14370963 0.36329406
0003f0 5d 5a a8 be 31 18 80 be 10 a2 0d be a2 fd 75 3e
       -0.32881442 -0.25018457 -0.13831353 0.24022534

sequential_1/dense_5/MatMul f4 [5, 32]
000000 f6 c3 c9 be a6 a6 ed 3d b9 d8 91 3d 2b fe 01 bf
       -0.3940732 0.11604051 0.07121415 -0.50778455
000010 ff d3 1c 3e a1 03 da be 9f b0 a5 3d d1 e3 fd 3d
       0.15315245 -0.42580894 0.080903284 0.12396968
000020 87 9b e0 bb c1 4a 62 bd 1a fe 27 3d cd 68 57 3d
       -0.006854478 -0.055247072 0.041013815 0.05259018
000030 44 b1 46 be 80 bb ed be 23 8f d0 3c 06 16 63 3e
       -0.19403559 -0.46432114 0.025458878 0.2217637
000040 7a 89 17 bf ab b5 dc be 4c a4 82 be fd 93 95 be
       -0.5919415 -0.43107352 -0.25515974 -0.2921447
000050 18 9d 2a bd cf 78 0c bf 4b 96 96 be 20 93 b6 be
       -0.041653723 -0.5487184 -0.2941154 -0.35659122
000060 a6 e7 ce be e5 c2 6c 3e be d6 05 bd 80 f4 73 3e
       -0.4041111 0.23121221 -0.032675497 0.23823738
000070 84 26 8c 3e 64 98 1a bf 0c ee 3d be f8 9c 52 3e
       0.27373135 -0.6038878 -0.18547839 0.20567691
000080 81 85 64 3f af 30 e7 be 66 0f 23 3f ff 5e 40 3f
       0.8926621 -0.4515433 0.6369537 0.7514495
000090 fe 27 86 bc 90 b4 ce bd 37 3d 84 be 0d 00 a1 be
       -0.016376492 -0.10093033 -0.25827953 -0.3144535
0000a0 41 e9 98 be 1d ef 4a 3f a3 70 79 be b6 6c bd 3d
       -0.2986546 0.7927111 -0.24359374 0.092492506
0000b0 3c e3 ef 3e 37 4c 22 3f ea 9d 29 3c 65 06 a0 bd
       0.46853054 0.63397545 0.010352591 -0.0781372
0000c0 78 18 0a 3f d6 d0 99 3e f8 cc 07 3f 01 c6 52 3f
       0.53943586 0.30042142 0.5304713 0.8233338
0000d0 7f d4 e3 3e b6 15 a5 3d 8f 44 4c 3e a3 ff b6 be
       0.4449806 0.08060782 0.19948028 -0.3574191
0000e0 fc e6 37 3e 13 4f 6f 3e ca 30 06 3f cf 04 cd 3e
       0.17959207 0.23370008 0.52418196 0.4004273
0000f0 fc f4 53 3e 37 ce a1 3e 41 a4 da 3e 03 34 bf bd
       0.20698923 0.31602642 0.4270344 -0.09336092
000100 6d ea e9 bd 2d 72 90 be ab 95 cd bd 90 89 35 bf
       -0.11421666 -0.2821211 -0.100383125 -0.7091303
000110 f5 85 0a be ed 4c 2a 3e 8b 0c 75 be ea c9 e5 3d
       -0.13527663 0.16630907 -0.23930566 0.11220153
000120 5a c4 29 3e fe 70 b9 bc a4 bc 53 3d 50 47 89 bd
       0.16578808 -0.022636887 0.051693574 -0.06703055
000130 8f 76 2e be ce 19 d3 be e1 e8 b5 3e e3 8f 97 be
       -0.17037414 -0.41230625 0.35529235 -0.29601964
000140 f1 68 e7 be 3e 5e 0c bf bb e1 06 bf 86 70 09 3c
       -0.4519725 -0.548313 -0.5268819 0.008388644
000150 89 1f 22 3e af 36 87 bc 44 87 1d be 93 4b 00 3e
       0.15832342 -0.016505567 -0.15383631 0.1252883
000160 8f be 12 bf e8 cc cc be 07 d0 05 bf d6 d7 98 3e
       -0.5732202 -0.4000008 -0.5227055 0.2985217
000170 2b f9 ed 3c 8d 64 85 be e7 8a c3 bd d7 af 46 3d
       0.029049477 -0.26053277 -0.09547978 0.048507538
000180 a8 48 92 bf 51 0a 6b be 3a c6 1b 3f 30 4d 01 3f
       -1.1428423 -0.22953154 0.60849345 0.50508404
000190 f0 e2 fb be 74 b3 7d 3e d3 2b a7 3f 8e 1f 77 be
       -0.49196577 0.24775487 1.3060249 -0.24133131
0001a0 9c 42 ed 3e a5 51 2a bf 6f ec 00 3d 37 1a 8d be
       0.4633988 -0.6653083 0.03147548 -0.27559063
0001b0 29 d5 e4 3e fa 2c 0e 3c 64 86 7c be d6 84 33 3e
       0.44693878 0.008677715 -0.24660641 0.17531142
0001c0 a6 19 ab 3d 88 ef 55 be 43 1b 5b 3f 4a 18 2b 3f
       0.083545014 -0.20892155 0.85588473 0.6683394
0001d0 0d b2 88 be 98 a6 fb bd 6e d5 6d be 66 c8 6e 3e
       -0.26698342 -0.122876346 -0.23225948 0.23318633
0001e0 99 03 01 3d 0a 20 8d 3d 77 ad 55 bd da 2d df 3d
       0.03149757 0.068908766 -0.052167382 0.10897417
0001f0 b9 85 12 3e 7a ab 26 be b9 8b 93 3e a4 3f 1c be
       0.14308824 -0.1627635 0.28817537 -0.15258652
000200 65 ae 40 3f 29 f3 69 3e a3 9c 00 bf 10 76 b9 3e
       0.75266105 0.22846664 -0.5023901 0.36222887
000210 0d 35 01 be 1b 39 b0 3e b0 12 97 bf b4 29 88 3e
       -0.12617894 0.34418568 -1.1802578 0.26594317
000220 9c a4 f5 bd bd 84 23 3f 84 50 ec 3e 63 9e c2 bc
       -0.11994287 0.6387442 0.4615518 -0.023757165
000230 96 4a f4 be 71 2a 90 3d 3c 3e 88 be 84 9d 9c bd
       -0.47713155 0.07039345 -0.2660998 -0.07647231
000240 03 2a 3c 3f 8b d5 8a 3e a6 78 60 be 36 5d 82 bf
       0.73501605 0.27116045 -0.21921024 -1.0184696
000250 23 d8 47 3e 72 24 fb 3d 59 dd 0d 3e 93 64 f1 3d
       0.19516043 0.12262811 0.13853969 0.11786761
000260 16 93 f3 3e 98 ee d1 bb ac 27 af 3e d0 c9 64 be
       0.47573155 -0.0064066164 0.34209955 -0.2234261
000270 22 f1 4d be bb 9e 79 3e 26 f0 20 3f c7 5d cc be
       -0.20111516 0.24376957 0.6286644 -0.39915296

sequential_1/dense_4/MatMul;sequential_1/dense_4/Relu;sequential_1/dense_4/BiasAdd f4 [32]
000000 45 e2 08 40 d4 67 0e bf 6c c6 ee 3d 4b 58 f3 be
       2.1388104 -0.5562718 0.1165894 -0.475283
000010 d7 54 f2 3e b9 7a 49 3f 43 12 07 40 4a 91 70 be
       0.47330353 0.78702885 2.1104896 -0.23492923
000020 c6 a4 3f be c0 e8 c0 3f 81 ae 68 3f 11 f3 32 3e
       -0.187152 1.507103 0.9089127 0.17475535
000030 a0 02 d1 3c a1 48 13 be 58 c8 06 be d3 48 c5 3e
       0.025513947 -0.14383174 -0.13162363 0.38532123
000040 94 4f e5 3e c3 d9 dd 3e 8f 3d 5b bf be cc 53 3f
       0.44787276 0.43330202 -0.85640806 0.82734287
000050 c8 e1 77 3a f3 76 f0 3d c6 b0 c9 3d f4 06 c6 be
       0.0009455946 0.11741438 0.0984817 -0.3867718
000060 6f 16 66 3f 83 53 ac be 1f 48 33 3c a8 bb 28 3d
       0.8987798 -0.33657464 0.010942488 0.041194588
000070 9c f7 fd be ba 94 b9 3e b2 24 a2 3e 28 32 37 3b
       -0.49602973 0.36246282 0.3166862 0.002795348
